CKLD/lap_kld_record-v5-eig3/gaussian20/checkpoint_lap_kld_initial_g20.pkl (torch, 558089 bytes, 10 tensors)

ip_emb.weight f4 [64, 47]
0.0036941613 0.04775877 0.118654296 0.13704352 -0.04050305 -0.115285836 0.018941792 -0.12428026
-0.05547144 -0.0653886 0.03532327 -0.13518001 0.11715197 -0.08988114 0.013254616 -0.02028444
-0.037820704 -0.08364085 0.12062793 0.001498642 0.07657166 -0.1253558 -0.088628575 0.12269481
0.1046475 0.112251215 -0.049063858 0.004545396 0.0076727634 -0.07664779 0.0059449067 -0.13993716
-0.111062035 -0.11331195 0.00020727047 0.062250488 0.055827674 -0.060422473 0.14551021 -0.1271597
-0.12693615 -0.06597 0.0021141067 -0.044999722 -0.12565029 0.093230955 -0.1392484 -0.11678065
0.08594879 -0.06285536 0.07442439 0.05624886 0.13022263 -0.06125192 -0.04904781 -0.020672621
-0.093682356 0.040192995 -0.00029120457 0.036205735 0.058818854 -0.05325335 0.06919637 -0.10369328
-0.103516474 0.00640897 -0.008760238 -0.09909323 -0.13186653 0.00871494 0.100585386 0.12916593
0.13203456 0.12322233 0.12610525 0.05510416 0.04573461 -0.05785465 0.05028034 0.06654182
-0.061816767 0.0050732577 -0.12716553 -0.006871868 0.08402987 0.012488741 0.11172106 0.05426508
-0.11428179 0.110700324 -0.008543995 -0.13197258 0.06993396 0.08878034 -0.11789056 -0.044351794
0.06828239 -0.11581865 -0.0066751004 -0.026360804 0.14298163 0.042936843 -0.025493851 -0.13714865
-0.10763761 -0.1300763 -0.09547791 0.07703694 -0.029237255 0.0637087 -0.07409815 0.012037407
-0.13988328 0.07123809 0.14274035 -0.12411737 0.034561742 0.094825245 -0.08045087 -0.029865745
-0.13517883 0.05141205 0.051628135 0.06409013 0.061801862 -0.13496315 -0.026624693 -0.07315333
0.09445543 0.07773083 0.020258602 0.07792146 0.11188196 0.10991097 0.02641617 -0.09070879
0.04116244 0.14196563 0.057470553 -0.035280094 0.06512389 0.0067056 -0.12550499 -0.031610414
-0.033367798 -0.033557247 -0.08056092 -0.050776064 0.13165236 0.04791415 0.121289045 0.1163634
-0.088870086 0.01588949 -0.074244075 -0.07333052 0.052723642 -0.05342577 0.018911812 -0.04902882
-0.029164555 -0.088166304 -0.062942825 0.054479096 0.09446016 0.031591516 0.11333688 -0.077943884
-0.10906371 0.035431705 0.08160943 0.06861731 0.037213378 -0.103962466 0.1340942 0.11728855
-0.10063812 -0.008689188 -0.07303973 0.033857163 -0.09277698 0.07725266 -0.026734639 0.027677145
0.09786134 0.08242475 -0.011627908 -0.0026043744 0.06371661 -0.07324441 -0.08063296 -0.10815343
-0.11515902 0.075262606 -0.097163774 -0.014078551 -0.062644385 0.019146696 0.04952528 0.071754046
-0.016727926 -0.13999926 0.10733013 -0.022431847 0.0054481183 0.0407187 -0.11601584 0.118147075
0.095543966 0.13263632 -0.09028429 -0.010390145 -0.045859862 -0.031660218 0.086578354 0.12631066
-0.097655706 -0.019041844 0.028630173 0.075131565 -0.09342018 0.076059096 0.025568377 0.06829192
0.105936125 -0.1256729 -0.044799946 0.00056369917 -0.09110622 0.13257761 -0.14112836 0.013848902
0.07246127 -0.12416581 0.009595979 -0.015928892 -0.10869253 0.08209076 -0.08874859 0.06195024
0.052436925 0.06618238 0.03350915 -0.13470845 -0.12141958 -0.025634384 -0.113605276 0.10094298
0.12309259 0.10340606 -0.13731578 -0.045886535 -0.021587603 0.021846134 -0.10457534 -0.07136371
00000000: be19 723b b39e 433d 0601 f33d 2355 0c3e
00000010: 87e6 25bd fb1a ecbd d12b 9b3c a686 febd
00000020: 0536 63bd 75ea 85bd 22af 103d a16c 0abe
00000030: 5fed ef3d 9a13 b8bd e429 593c 8e2b a6bc
00000040: e2e9 1abd e54b abbd c70b f73d 156e c43a
00000050: 9ad1 9c3d 455d 00be e682 b5bd 6b47 fb3d
00000060: 6e51 d63d f7e3 e53d 2ff7 48bd 8cf1 943b
00000070: ce6b fb3b 84f9 9cbd 7ecd c23b b04b 0fbe
00000080: 7e74 e3bd 1810 e8bd be56 5939 5efa 7e3d
00000090: 8fab 643d 8e7d 77bd a100 153e 2736 02be
000000a0: 8dfb 01be 481b 87bd d38c 0a3b a151 38bd
000000b0: 78aa 00be dfef be3d 2297 0ebe b22a efbd
000000c0: eb05 b03d 50ba 80bd d16b 983d 3465 663d
000000d0: 1559 053e 4be3 7abd 5be6 48bd a159 a9bc
000000e0: 89dc bfbd 69a1 243d d1ac 98b9 774c 143d
000000f0: 0aec 703d 2f20 5abd d4b6 8d3d 245d d4bd
00000100: 7200 d4bd 5602 d23b 1a87 0fbc 64f1 cabd
00000110: 0508 07be 1cc9 0e3c b6ff cd3d 1344 043e
00000120: 1134 073e fd5b fc3d bc21 013e e6b4 613d
00000130: 3754 3b3d fff8 6cbd c2f2 4d3d 1447 883d
00000140: 9433 7dbd 923d a63b ae37 02be 682d e1bb
00000150: da17 ac3d 949d 4c3c 03ce e43d 0f45 5e3d
00000160: 920c eabd dab6 e23d 1dfc 0bbc d223 07be
00000170: 8939 8f3d 78d2 b53d 9b70 f1bd 3aaa 35bd
00000180: a3d7 8b3d 5432 edbd cdba dabb 9df2 d7bc
00000190: c769 123e 8bde 2f3d 7bd8 d0bc b270 0cbe
000001a0: 1b71 dcbd b932 05be ec89 c3bd 8bc5 9d3d
000001b0: f882 efbc b579 823d c5c0 97bd 8b38 453c
000001c0: 903d 0fbe 47e5 913d 872a 123e 3f31 febd
000001d0: 9d90 0d3d bd33 c23d 6dc3 a4bd 02a9 f4bc
000001e0: 526c 0abe 7195 523d 0678 533d b041 833d
000001f0: f323 7d3d c833 0abe 071c dabc 6ad1 95bd
00000200: d971 c13d 5731 9f3d 5ef5 a53c 4995 9f3d
00000210: 5e22 e53d 0119 e13d b966 d83c 88c5 b9bd
00000220: f299 283d 705f 113e 3e66 6b3d dc81 10bd
00000230: ad5f 853d a6ba db3b 6184 00be ec79 01bd
00000240: acac 08bd 5373 09bd 20fd a4bd 90fa 4fbd
00000250: e0cf 063e a141 443d 6466 f83d ef4f ee3d
00000260: 8501 b6bd ad2a 823c 470d 98bd 502e 96bd
00000270: bff4 573d fbd4 5abd f2ec 9a3c 72d2 48bd
00000280: 81ea eebc 8990 b4bd 2be8 80bd 7925 5f3d
00000290: 5474 c13d 1b66 013d 2b1d e83d 0ba1 9fbd
000002a0: cb5c dfbd d620 113d d822 a73d 3b87 8c3d
000002b0: 0e6d 183d 46ea d4bd fd4f 093e fb34 f03d
000002c0: 5c1b cebd 195d 0ebc db95 95bd cfad 0a3d
000002d0: db01 bebd a536 9e3d 9a02 dbbc 2ebb e23c
000002e0: 876b c83d 4fce a83d fb82 3ebc 27ae 2abb
000002f0: db7d 823d 2a01 96bd e522 a5bd 8c7f ddbd
00000300: 7ed8 ebbd 4823 9a3d cdfd c6bd b9a9 66bc
00000310: b34b 80bd 88d9 9c3c 05db 4a3d c9f3 923d
00000320: 0109 89bc f75b 0fbe e6cf db3d fec2 b7bc
00000330: 2186 b23b a7c8 263d b699 edbd 18f7 f13d
00000340: 8eac c33d d1d1 073e f8e6 b8bd 6d3b 2abc
00000350: 8dd7 3bbd 25ae 01bd fe4f b13d 9557 013e
00000360: b7ff c7bd a4fd 9bbc d389 ea3c 94de 993d
00000370: 1453 bfbd dfc4 9b3d c674 d13c a2dc 8b3d
00000380: 0af5 d83d 66b0 00be 2680 37bd 36c5 133a
00000390: e695 babd 6dc2 073e f483 10be 81e6 623c
000003a0: 9366 943d a54a febd 7438 1d3c 4f7d 82bc
000003b0: 309a debd 331f a83d d2c1 b5bd 89bf 7d3d
000003c0: 1ac8 563d a18a 873d e440 093d 03f1 09be
000003d0: d4aa f8bd 33ff d1bc e2a9 e8bd 31bb ce3d
000003e0: f817 fc3d 8ec6 d33d 829c 0cbe 85f3 3bbd
000003f0: 7cd8 b0bc aaf6 b23c 992b d6bd 2327 92bd

ip_emb.bias f4 [64]
-0.079026595 -0.096909955 0.10824492 0.1258081 0.054365862 -0.03807569 0.014343778 0.07484985
0.03092272 0.013029679 0.11273275 0.10250399 0.11860025 0.02407796 -0.02277499 -0.06707093
0.010760536 -0.14268409 -0.067190655 -0.11313643 0.07616275 0.015320974 -0.13694097 -0.008313284
-0.05675737 -0.084124304 -0.12924924 0.048916545 -0.07222369 0.07678197 0.025542364 0.0512732
-0.041688405 0.055400006 0.022896796 0.078183725 0.031153657 -0.038278073 0.06540378 0.13662802
-0.13618968 -0.114861816 -0.10145611 0.11007326 0.14399756 -0.035081692 -0.09195537 -0.083538674
-0.10859521 0.07873329 -0.08462897 0.04642617 0.13705313 -0.08135776 -0.09015605 0.029553674
0.019437935 -0.060460553 -0.14130399 -0.038428016 0.0049777776 -0.0011227034 0.08497562 0.014278449
00000000: b2d8 a1bd ba78 c6bd 83af dd3d d7d3 003e
00000010: bdae 5e3d 41f5 1bbd 2a02 6b3c e14a 993d
00000020: a551 fd3c 6f7a 553c 6ee0 e63d 9ded d13d
00000030: b0e4 f23d 243f c53c 9e92 babc 7c5c 89bd
00000040: f64c 303c c71b 12be 419b 89bd 13b4 e7bd
00000050: 37fb 9b3d d304 7b3c 413a 0cbe 7134 08bc
00000060: 6a7a 68bd 5d49 acbd ea59 04be b75c 483d
00000070: 04ea 93bd de3f 9d3d 383e d13c d903 523d
00000080: 76c1 2abd 1eeb 623d 1092 bb3c ca1e a03d
00000090: f435 ff3c 78c9 1cbd 6bf2 853d 37e8 0b3e
000000a0: 4f75 0bbe ac3c ebbd 39c8 cfbd 176e e13d
000000b0: 1974 133e d2b1 0fbd 1953 bcbd 5316 abbd
000000c0: 2a67 debd eb3e a13d f451 adbd 5e29 3e3d
000000d0: a857 0c3e e69e a6bd bca3 b8bd 8c1a f23c
000000e0: 4e3c 9f3c 7ca5 77bd feb1 10be b266 1dbd
000000f0: a01c a33b ad27 93ba b307 ae3d 28f0 693c

dyn_emb.weight f4 [64, 64]
-0.007920146 0.038487256 -0.08673455 0.10899933 -0.09709585 0.05119358 -0.089787334 -0.107352674
0.07636683 0.10787608 0.013910204 -0.05434577 0.058517516 -0.09340492 -0.120122924 -0.0899069
-0.106339306 -0.066681355 -0.09316036 0.0016326308 0.10871656 0.05359924 -0.024668038 0.06009014
-0.016095206 0.0109268725 -0.09428628 -0.06898025 -0.10090342 0.008163691 -0.07917951 -0.053408116
0.08316469 -0.05080858 0.06575297 -0.06607309 -0.0004632175 -0.10783735 0.0042877197 -0.12018418
-0.038704664 -0.020637423 -0.057768255 -0.012325689 -0.06952427 0.052878797 0.07214275 0.04218155
-0.083636016 -0.02882278 0.071673006 -0.016871497 -0.05206749 0.11265068 -0.018833384 0.057039544
0.100499645 -0.11483851 0.07542388 0.10082644 -0.070689365 0.113561615 0.0357565 0.053671733
0.10932155 0.10244328 -0.12098272 -0.11443713 0.043890953 0.111265555 0.117565066 -0.08009736
0.030820757 0.052390665 0.10007714 -0.07089147 -0.08321589 -0.030464277 0.00835599 -0.053511277
0.0019069016 0.030394703 -0.028685272 0.023255035 -0.005530834 0.11856267 -0.031761676 0.002631411
-0.11101508 0.061148137 0.027746797 0.10869832 0.08966388 0.10853572 -0.09759766 -0.12265132
-0.008150205 0.015303925 -0.06799869 -0.10082254 0.08625691 -0.06719661 -0.119411856 -0.057235464
0.033963934 -0.029992133 0.07228282 0.027515024 0.05220607 0.048024774 0.064204216 -0.033884585
0.0957192 -0.083266616 -0.11190432 -0.12473032 0.024024904 -0.06308319 0.0073318034 0.051437557
0.012338206 0.08419062 0.099586606 -0.032884166 0.12322804 0.08086401 0.034605727 -0.08423501
0.031166792 0.047056526 -0.020753339 -0.0001270771 -0.05161099 -0.03241159 0.051422074 -0.07078989
0.054121807 0.10424429 -0.1024919 -0.08737628 -0.005383849 -0.078967124 0.045324877 0.08933692
-0.044911698 -0.023386106 -0.04418546 -0.09168182 -0.05936046 0.1023418 0.06691113 0.10437688
0.073440164 -0.051380545 0.09491648 -0.0974057 -0.0013509691 -0.03543675 0.05715169 0.0022604465
-0.11474994 -0.049284816 0.08709125 -0.028633416 0.015269786 0.07479355 -0.037400857 0.046285003
0.10237466 0.04810667 0.017887563 -0.07405335 -0.011739805 0.07538621 -0.096448004 0.0552624
-0.12426905 0.09655635 -0.12127985 0.06389144 -0.030282542 -0.070263 0.03774786 0.040845677
-0.12124625 0.06846769 -0.015404522 -0.05126211 -0.10377066 -0.06229557 0.007232949 0.0864988
-0.0249352 -0.05255422 -0.091386214 0.08158089 0.09469625 -0.0024111867 0.052493706 0.0056967437
0.07781245 0.050148726 0.05207561 -0.06138718 -0.11009227 0.016332015 -0.066025496 -0.012447968
0.021576777 0.09086867 0.12067217 0.05972521 0.05387488 -0.05265829 0.077673495 -0.058297172
0.030802071 -0.12467621 -0.083494365 0.023893535 -0.047567725 -0.04267688 0.030853316 0.029680118
0.0043047667 -0.042323545 0.0065500587 0.10624395 0.0132198185 0.02599296 0.055088073 -0.062437996
-0.08752993 0.045201913 -0.119509086 -0.008848026 0.013611361 -0.086484596 0.00499779 0.09348053
0.12064697 -0.07674757 0.0006906837 0.08680336 0.092362985 -0.104184195 -0.066091254 -0.09645653
0.11172068 -0.0701561 -0.015505031 -0.0665116 -0.05507216 -0.08465649 -0.101946786 0.10214113
00000000: 80c3 01bc d0a4 1d3d e2a1 b1bd 0a3b df3d
00000010: 30da c6bd 5cb0 513d 6ce2 b7bd b8db dbbd
00000020: 3666 9c3d 22ee dc3d a0e7 633c ac99 5ebd
00000030: 10b0 6f3d 144b bfbd 0203 f6bd 1c21 b8bd
00000040: 6cc8 d9bd 3c90 88bd dcca bebd 00fe d53a
00000050: caa6 de3d e08a 5b3d a014 cabc 1421 763d
00000060: 18da 83bc a006 333c 2a19 c1bd 8445 8dbd
00000070: 74a6 cebd 00c1 053c de28 a2bd 78c2 5abd
00000080: 4052 aa3d a81c 50bd 7ea9 863d 5451 87bd
00000090: 00dc f2b9 d4d9 dcbd 0080 8c3b 2023 f6bd
000000a0: c888 1ebd d00f a9bc 689e 6cbd b0f1 49bc
000000b0: be62 8ebd 7097 583d 94bf 933d 90c6 2c3d
000000c0: 5c49 abbd c01d ecbc 4cc9 923d 1836 8abc
000000d0: b844 55bd 66b5 e63d 7848 9abc 4ca2 693d
000000e0: c2d2 cd3d 7430 ebbd d677 9a3d 187e ce3d
000000f0: 96c5 90bd fe92 e83d 6875 123d e4d6 5b3d
00000100: fae3 df3d c8cd d13d cac5 f7bd 045e eabd
00000110: 00c7 333d 32df e33d f4c5 f03d 160a a4bd
00000120: d07b fc3c 9897 563d 3ef5 cc3d 8c2f 91bd
00000130: 186d aabd 3890 f9bc 90e7 083c a42e 5bbd
00000140: 00f1 f93a 50fe f83c 60fd eabc 5881 be3c
00000150: 003c b5bb fcd0 f23d 8818 02bd c073 2c3b
00000160: e05b e3bd 7876 7a3d 404d e33c 3a9d de3d
00000170: b2a1 b73d fa47 de3d 48e1 c7bd 9e30 fbbd
00000180: 7088 05bc 50bd 7a3c e642 8bbd 0c7c cebd
00000190: 76a7 b03d 609e 89bd 348e f4bd bc6f 6abd
000001a0: c41d 0b3d 10b2 f5bc 0409 943d 3067 e13c
000001b0: 08d6 553d a0b5 443d 807d 833d 90ca 0abd
000001c0: 6e08 c43d b087 aabd 182e e5bd 9c72 ffbd
000001d0: e0cf c43c c231 81bd a03f f03b 30b0 523d
000001e0: 3026 4a3c 226c ac3d 10f4 cb3d 8cb1 06bd
000001f0: fc5e fc3d 089c a53d bcbe 0d3d 6883 acbd
00000200: 8051 ff3c 58be 403d e802 aabc 0040 05b9
00000210: 0c66 53bd 04c2 04bd f49f 523d 4afa 90bd
00000220: d4ae 5d3d 087e d53d 46e7 d1bd 56f2 b2bd
00000230: 006b b0bb 84b9 a1bd 94a6 393d 46f6 b63d
00000240: 54f5 37bd 3894 bfbc d0fb 34bd aec3 bbbd
00000250: f423 73bd 9498 d13d b408 893d 8cc3 d53d
00000260: cc67 963d 6874 52bd 9263 c23d a47c c7bd
00000270: 0013 b1ba 2026 11bd e417 6a3d 0024 143b
00000280: 0402 ebbd e0de 49bd e65c b23d a090 eabc
00000290: 202e 7a3c 5c2d 993d a431 19bd 5895 3d3d
000002a0: cea9 d13d 800b 453d f088 923c 48a9 97bd
000002b0: 5058 40bc 1664 9a3d 8886 c5bd d45a 623d
000002c0: c680 febd 56bf c53d 9261 f8bd 84d9 823d
000002d0: 1813 f8bc 0ce6 8fbd 809d 1a3d cc4d 273d
000002e0: f44f f8bd ca38 8c3d 4063 7cbc 38f8 51bd
000002f0: b685 d4bd a429 7fbd 6002 ed3b 4826 b13d
00000300: e844 ccbc 1843 57bd b228 bbbd e213 a73d
00000310: 1cf0 c13d 0005 1ebb a403 573d c0ab ba3b
00000320: 225c 9f3d c068 4d3d 3c4d 553d 2071 7bbd
00000330: 0e78 e1bd b8ca 853c 6038 87bd 90f2 4bbc
00000340: c8c1 b03c 5a19 ba3d f822 f73d 6ca2 743d
00000350: e8ab 5c3d 38b0 57bd 4813 9f3d 04c9 6ebd
00000360: a054 fc3c 3e56 ffbd 18ff aabd 60bc c33c
00000370: 60d6 42bd f4cd 2ebd 18c0 fc3c b823 f33c
00000380: 000f 8d3b 745b 2dbd e0a1 d63b 6e96 d93d
00000390: f097 583c 30ef d43c 08a4 613d fcbe 7fbd
000003a0: e442 b3bd a425 393d 2ec1 f4bd 50f7 10bc
000003b0: 3002 5f3c d61e b1bd 80c4 a33b b872 bf3d
000003c0: c215 f73d d42d 9dbd 000f 353a f6c5 b13d
000003d0: ce28 bd3d 865e d5bd da5a 87bd 008b c5bd
000003e0: d0cd e43d 00ae 8fbd d008 7ebc 3c37 88bd
000003f0: 5893 61bd 6260 adbd 7ac9 d0bd 5e2f d13d

dyn_emb.bias f4 [64]
0.0983323 -0.067518294 0.053472847 -0.023156226 0.028751165 0.12198749 0.07666291 -0.0985468
0.027882382 0.036282018 0.06296751 -0.08214426 0.1229815 0.10763061 0.069535345 0.10915561
0.00013703108 -0.11731726 0.07794514 -0.122797176 -0.054022744 -0.08954066 -0.111541554 0.096952096
-0.012850165 0.036957443 -0.06312959 -0.078948036 -0.047130197 0.03016968 -0.08632198 0.10141139
-0.07228415 0.019832984 -0.017604038 -0.088709384 0.11433512 -0.0998234 0.04267317 0.04781343
0.010324463 -0.054164752 -0.1003703 -0.07594685 0.07218659 0.04366994 0.03257422 0.0038316697
0.054335892 0.05514872 0.092273265 -0.020924553 -0.11021571 -0.033766493 0.053387374 0.016799495
-0.03038463 -0.0783651 -0.055749148 0.01870054 -0.11840621 -0.016237766 0.03486696 -0.014526203
00000000: 7262 c93d 0847 8abd 5806 5b3d 20b2 bdbc
00000010: 9087 eb3c 94d4 f93d 7201 9d3d e8d2 c9bd
00000020: 9869 e43c 749c 143d 1cf5 803d 403b a8bd
00000030: badd fb3d 706d dc3d 8c68 8e3d fa8c df3d
00000040: 00b0 0f39 0844 f0bd b4a1 9f3d 167d fbbd
00000050: f446 5dbd 1861 b7bd e66f e4bd d28e c63d
00000060: 8089 52bc b060 173d 164a 81bd 82af a1bd
00000070: 980b 41bd 6826 f73c 94c9 b0bd c6b0 cf3d
00000080: b609 94bd c878 a23c 5836 90bc 44ad b5bd
00000090: 8828 ea3d 3670 ccbd 10ca 2e3d 04d8 433d
000000a0: f027 293c dcdb 5dbd f28e cdbd 068a 9bbd
000000b0: 90d6 933d 40df 323d 8c6c 053d c01c 7b3b
000000c0: 508f 5e3d a0e3 613d c4f9 bc3d f869 abbc
000000d0: c6b8 e1bd bc4e 0abd b8ac 5a3d 189f 893c
000000e0: 30e9 f8bc e27d a0bd 3859 64bd e031 993c
000000f0: f47e f2bd 1005 85bc a8d0 0e3d 50ff 6dbc

mdn_layer.pi.weight f4 [20, 64]
-0.01284115 -0.073613316 0.14763476 0.1002777 -0.25111586 0.037803635 -0.03692325 0.078537405
0.019912194 -0.17880574 0.12243268 -0.2154332 0.1988758 0.06947632 -0.014343541 0.009429897
0.20811431 -0.17914607 0.11547146 0.14270027 -0.0045385878 0.11095422 0.056154437 -0.064319044
-0.008569008 0.03870005 -0.08674589 0.08886738 -0.093403995 -0.2636073 -0.16108479 0.1329175
-0.11144034 0.08711397 0.05043174 0.13703506 0.16310707 0.08007029 -0.10559768 0.024829056
-0.2609064 0.05818755 -0.15014054 -0.15273793 -0.16353396 -0.23357984 0.027005957 -0.24140374
0.12640977 0.1688468 0.0650863 0.10244106 -0.10533306 0.0907599 -0.2095482 0.094592534
0.030525852 -0.23184367 0.11936405 0.12765336 -0.23572771 0.17775866 0.06876291 -0.0010463468
0.043597065 0.06132621 -0.17028013 0.14942598 -0.21638869 -0.09471042 -0.028604183 0.18415077
-0.24095936 -0.035042934 0.24965742 -0.20608209 -0.23993222 0.046620324 0.147124 -0.24521136
0.26671568 -0.1882766 -0.18925835 -0.24393152 -0.22221448 0.16875435 -0.12193152 0.016418394
-0.1810497 -0.25282872 -0.057359636 -0.17289373 0.12550469 0.047018353 0.15140481 -0.004575418
0.06410625 0.22077195 -0.12931964 -0.022934055 0.14835335 -0.13324001 0.08099936 -0.15028293
-0.040981833 -0.17332722 0.22004338 0.009144846 -0.17722456 -0.19499123 0.16187364 0.19035229
0.09357537 -0.14723766 -0.20927364 -0.22039378 0.2107797 0.0072803656 -0.08770857 0.070241824
0.2615181 -0.042510062 0.21581027 -0.16439596 0.05653188 0.08802115 0.26067963 -0.08520648
0.14648691 0.1698085 0.08097664 -0.08155111 0.117340274 0.060973167 0.15537493 -0.082499586
4.224639e-05 -0.121173225 0.08243159 -0.12827422 -0.08849599 0.16960801 -0.21446829 -0.0077282856
-0.19924222 0.18469465 0.004457982 -0.06140194 -0.10269638 -0.024413794 0.18564485 0.22532998
0.13518497 -0.085564196 -0.12264735 -0.16196555 -0.054937255 0.031532023 0.07663887 -0.0029453635
-0.09940566 -0.24537835 -0.074107654 -0.17317493 -0.2065915 -0.13448268 0.08103473 -0.121817015
0.101455756 -0.06362402 -0.05038962 -0.09355778 0.18675715 -0.07166144 -0.01105049 -0.04727578
-0.17301114 -0.19356872 -0.21080591 -0.25387684 -0.057798635 0.19437672 0.11937893 -0.25189525
-0.12524503 -0.18414736 -0.15486105 0.235747 0.1296224 -0.2443022 0.11201334 0.09593457
-0.039820056 0.041629292 -0.12847522 -0.22494414 -0.06413123 -0.038227886 -0.23690319 0.12529314
-0.017209351 -0.11592483 -0.11753296 -0.20351061 0.050336413 0.09949719 -0.22596478 -0.19506894
0.17104843 0.20082669 0.050201327 0.06882278 -0.24167627 -0.040364005 -0.00020759991 0.045840614
0.11018145 -0.21679582 -0.064958096 0.078175575 0.23123796 -0.2443917 0.18801087 0.17124753
0.149364 -0.02016784 0.100716695 -0.18889163 -0.10443527 0.14676215 0.055658154 0.051103476
0.112432905 -0.13307399 0.00047076368 0.004006175 -0.2010066 -0.037896954 0.17282459 -0.23269056
-0.18885241 -0.18909793 -0.105912656 -0.17972073 0.065514624 -0.14016832 -0.14552906 -0.21825613
-0.13336618 0.23899311 -0.21250986 -0.06711412 -0.22245133 -0.081469804 0.021542026 -0.1239186
00000000: b063 52bc 94c2 96bd 912d 173e 655e cd3d
00000010: 4292 80be fcd7 1a3d d53c 17bd 38d8 a03d
00000020: e61e a33c da18 37be fcbd fa3d 859a 5cbe
00000030: 19a6 4b3e 9a49 8e3d 2c01 6bbc db7f 1a3c
00000040: eb1b 553e 1172 37be 4d7c ec3d 0520 123e
00000050: 6fb8 94bb f73b e33d 3202 663d b4b9 83bd
00000060: 0665 0cbc f283 1e3d d4a7 b1bd 1a00 b63d
00000070: 984a bfbd 89f7 86be 69f3 24be 861b 083e
00000080: d53a e4bd cf68 b23d 8391 4e3d eb52 0c3e
00000090: 8a05 273e e4fb a33d 9943 d8bd 4e66 cb3c
000000a0: 8695 85be 1256 6e3d 71be 19be 5567 1cbe
000000b0: 7275 27be 8e2f 6fbe 993b dd3c 8b32 77be
000000c0: 9071 013e 2de6 2c3e f74b 853d 9ecc d13d
000000d0: dcb8 d7bd 54e0 b93d ce93 56be bbb9 c13d
000000e0: 5a11 fa3c 6d68 6dbe 2475 f43d 90b7 023e
000000f0: 9b62 71be 5e06 363e 92d3 8c3d 9325 89ba
00000100: d692 323d 3131 7b3d ea5d 2ebe 2003 193e
00000110: ff94 5dbe 89f7 c1bd 5253 eabc 0592 3c3e
00000120: 0dbe 76be 2e89 0fbd 32a6 7f3e 2f07 53be
00000130: cbb0 75be f4f4 3e3d ada7 163e b018 7bbe
00000140: f58e 883e 95cb 40be f1cc 41be 2fc9 79be
00000150: 318c 63be f1cd 2c3e 3cb7 f9bd de7f 863c
00000160: 1865 39be c472 81be f0f1 6abd 0e0b 31be
00000170: 4d84 003e 5196 403d dd09 1b3e 63ed 95bb
00000180: 234a 833d 0b12 623e 5e6c 04be 33e0 bbbc
00000190: f1e9 173e 1270 08be fee2 a53d c5e3 19be
000001a0: 91dc 27bd b17c 31be 0d53 613e 44d4 153c
000001b0: 5b7a 35be c8ab 47be 34c2 253e b6eb 423e
000001c0: 72a4 bf3d 78c5 16be d44b 56be e8ae 61be
000001d0: a2d6 573e 2290 ee3b 8da0 b3bd f2da 8f3d
000001e0: b3e5 853e 081f 2ebd 5efd 5c3e 6a57 28be
000001f0: f98d 673d 6f44 b43d cd77 853e bc80 aebd
00000200: aa00 163e 48e2 2d3e 15d7 a53d 4504 a7bd
00000210: 1950 f03d 00bf 793d 9b1a 1f3e 8bf5 a8bd
00000220: b731 3138 ab29 f8bd e5d1 a83d 515a 03be
00000230: 633d b5bd b9ad 2d3e 939d 5bbe 8f3d fdbb
00000240: 2706 4cbe 9820 3d3e 4314 923b 9a80 7bbd
00000250: 7b52 d2bd 70ff c7bc af19 3e3e e7bc 663e
00000260: ee6d 0a3e 483c afbd 892e fbbd 4cda 25be
00000270: e305 61bd b927 013d d7f4 9c3d 0007 41bb
00000280: 3295 cbbd 7644 7bbe c1c5 97bd c554 31be
00000290: b98c 53be d4b5 09be 89f5 a53d 337b f9bd
000002a0: 09c8 cf3d 4f4d 82bd 5965 4ebd 399b bfbd
000002b0: 443d 3f3e 3cc3 92bd 1d0d 35bc 40a4 41bd
000002c0: d529 31be e136 46be 81dd 57be 25fc 81be
000002d0: 43be 6cbd b10a 473e f17c f43d 6af8 80be
000002e0: 3c40 00be 2091 3cbe e593 1ebe a967 713e
000002f0: bcbb 043e 5b2a 7abe 4067 e53d 5879 c43d
00000300: 5b1a 23bd 7a83 2a3d 028f 03be c257 66be
00000310: 3c57 83bd d894 1cbd c096 72be d84c 003e
00000320: a0fa 8cbc ff69 edbd 1fb5 f0bd 1665 50be
00000330: 8e2d 4e3d 2fc5 cb3d 5063 67be 27c0 47be
00000340: 5227 2f3e 83a5 4d3e e89f 4d3d f5f2 8c3d
00000350: fc79 77be ba54 25bd 2daf 59b9 5ec3 3b3d
00000360: d0a6 e13d b9ff 5dbe c008 85bd 841a a03d
00000370: a5c9 6c3e d141 7abe ec85 403e 835b 2f3e
00000380: e0f2 183e 0737 a5bc 8e44 ce3d cf6c 41be
00000390: 29e2 d5bd d148 163e cef9 633d e151 513d
000003a0: 3943 e63d 8c44 08be d5d0 f639 3b46 833b
000003b0: add4 4dbe d639 1bbd eef8 303e 6f46 6ebe
000003c0: 8762 41be e3a2 41be bce8 d8bd b608 38be
000003d0: 882c 863d 4988 0fbe 9205 15be 897e 5fbe
000003e0: 2591 08be 9cba 743e 2f9c 59be 2173 89bd
000003f0: 48ca 63be a4d9 a6bd e778 b03c 09c9 fdbd

mdn_layer.pi.bias f4 [20]
-0.06345281 -0.04257703 0.09587011 0.081935495 0.12145665 0.0778411 0.037352383 0.016186029
0.016440377 -0.07640876 -0.005128771 -0.042050064 -0.103102684 0.06057909 -0.102129996 0.12096611
0.069134876 -0.11263451 -0.1207816 -0.046768755
00000000: 8cf3 81bd 4065 2ebd 8c57 c43d cccd a73d
00000010: 44be f83d 286b 9f3d d0fe 183d 9098 843c
00000020: f8ad 863c 327c 9cbd 400f a8bb b03c 2cbd
00000030: 8027 d3bd c821 783d 8829 d1bd 14bd f73d
00000040: 9696 8d3d ecac e6bd 585c f7bd 9890 3fbd

mdn_layer.sigma.weight f4 [1000, 64]
-0.07136076 0.07243549 -0.05807054 0.026707705 -0.069420226 0.055218518 -0.0030267695 0.0124399625
0.012978276 -0.036017925 0.05104034 0.013401746 -0.07401656 -0.016381096 -0.02019454 -0.065196544
0.01214669 -0.009589751 0.034913074 0.010566153 0.008292255 -0.017657233 -0.013008364 0.056622975
0.043484896 0.025465917 -0.010946438 0.06298486 -0.007857238 -0.0013470809 0.00019447094 -0.04003191
0.02349462 0.057436243 0.06727812 0.0532283 0.026816946 -0.009357199 -0.008494273 0.012979019
-0.0737464 -0.0135199465 -0.02267836 -0.07206207 0.024396578 -0.05913732 -0.054742996 -0.032167617
0.014572107 0.053521294 0.028328544 -0.00822995 -0.016141884 -0.0002925658 0.057968978 -0.04096511
0.053789135 -0.071869895 0.00036677698 -0.037622616 0.06927642 -0.029511135 -0.052944444 0.059982486
-0.018568197 0.06791926 0.033293087 -0.040570967 -0.012983119 0.045124974 0.018796846 0.0052998075
0.0010671015 -0.005720636 -0.0062685274 -0.037936345 0.04131101 0.03221635 -0.056944963 -0.01878562
0.041317698 0.06573336 -0.070462406 -0.007321467 0.07444181 0.040014446 -0.04233183 0.052523945
0.059529707 0.010585489 0.009642309 -0.03938356 -0.020945847 0.01800805 -0.06742384 0.005276837
-0.050032776 -0.04033929 -0.06590394 0.009068671 0.06934886 -0.04510485 0.04552513 0.04276844
0.005214505 -0.018332234 0.041488606 -0.009529147 -0.005028941 0.030563636 0.034356866 -0.0072391634
-0.004959555 0.012335315 -0.054670572 -0.0038417678 0.031539615 -0.018432207 -0.03254024 -0.06583146
-0.013189782 -0.0718634 -0.068420984 -0.06101864 -0.0006490391 -0.07157551 -0.039356615 0.01870268
-0.032285523 -0.046799146 0.026525883 0.012524684 0.022374783 0.067941524 0.03836804 -0.033636767
0.06768954 -0.02253144 -0.030858323 0.03548475 0.027817579 -0.038175557 0.06763435 0.07211635
0.0041286936 -0.03464545 -0.01055251 0.03791605 -0.047404867 0.013828303 0.066283114 0.018938446
-0.016544156 -0.018230943 0.029454209 0.06194389 0.019282531 0.039972056 0.055800106 -0.04465832
-0.054123003 -0.054289732 0.037454255 0.033814713 -0.061412327 -0.032159425 0.00045826533 -0.04173275
-0.05201119 0.06239614 -0.028968059 0.030251607 0.027341187 -0.04447672 -0.009820845 -0.022324877
-0.06961346 -0.02936351 0.05298087 0.0073078605 0.051384836 0.045827724 -0.04251199 0.05985383
-0.024500348 0.0416412 -0.028431231 0.07500182 -0.06497253 0.021137085 -0.05678039 -0.071196295
-0.024389943 0.0036862912 -0.06779082 -0.046186436 0.057618316 0.059621498 0.060704205 0.032355886
-0.032847915 -0.0055242134 -0.06970972 -0.06757684 0.039272003 0.018554894 -0.0026311495 -0.055170536
-0.025276978 -0.0028368551 0.021024015 -0.026661353 0.06015566 0.037112866 0.062089626 -0.03886903
-0.05131613 0.044939123 0.05667529 -0.029620616 0.023485525 0.004423614 -0.02787873 0.012814608
0.021131884 0.0022225312 -0.0014745737 0.00017288791 0.028928366 -0.06434828 -0.0674033 -0.030379504
-0.00946498 0.018167635 0.016136872 0.028785046 0.064240836 0.029583564 -0.012651335 0.036029723
-0.021212792 -0.042436056 0.02042643 0.05521816 0.07501474 -0.010219589 0.016612558 -0.015751885
0.035168078 -0.06158291 -0.00507362 0.034948595 -0.035249308 0.008622893 0.070730366 0.03024946
00000000: 9725 92bd 0f59 943d 60db 6dbd 1eca da3c
00000010: 312c 8ebd d02c 623d c45c 46bb fcd0 4b3c
00000020: d6a2 543c 8887 13bd ad0f 513d ff92 5b3c
00000030: ff95 97bd a631 86bc 056f a5bc c485 85bd
00000040: e902 473c 551e 1dbc 0301 0f3d a81d 2d3c
00000050: 3ddc 073c e7a5 90bc 0821 55bc 7eed 673d
00000060: 381d 323d e69d d03c b058 33bc 35fe 803d
00000070: a5bb 00bc 8990 b0ba e5ea 4b39 80f8 23bd
00000080: ca77 c03c 4442 6b3d 1cc9 893d eb05 5a3d
00000090: 36af db3c f04e 19bc 902b 0bbc f4a5 543c
000000a0: 5a08 97bd c482 5dbc f8c7 b9bc 4795 93bd
000000b0: 55db c73c f939 72bd 313a 60bd 31c2 03bd
000000c0: d9bf 6e3c 2539 5b3d 4311 e83c ead6 06bc
000000d0: fc3b 84bc 8463 99b9 e170 6d3d 08cb 27bd
000000e0: ff51 5c3d 8630 93bd f94b c039 2c1a 1abd
000000f0: cce0 8d3d 56c1 f1bc 46dc 58bd 32b0 753d
00000100: 551c 98bc 4119 8b3d 555e 083d be2d 26bd
00000110: 26b7 54bc f7d4 383d d8fb 993c 02aa ad3b
00000120: fcdd 8b3a 2c74 bbbb 3868 cdbb 2463 1bbd
00000130: bc35 293d 4bf5 033d 1f3f 69bd 4de4 99bc
00000140: bf3c 293d 369f 863d 984e 90bd ebe8 efbb
00000150: f374 983d 30e6 233d 2464 2dbd 5923 573d
00000160: 6cd5 733d c26e 2d3c c6fa 1d3c a850 21bd
00000170: a096 abbc 9e85 933c 8315 8abd 51e9 ac3b
00000180: 2bef 4cbd d03a 25bd a5f8 86bd c394 143c
00000190: c606 8e3d ddbf 38bd 8f78 3a3d f62d 2f3d
000001a0: 70de aa3b 7b2d 96bc f5ef 293d 2420 1cbc
000001b0: d1c9 a4bb 9760 fa3c c9b9 0c3d 8136 edbb
000001c0: c383 a2bb 101a 4a3c 40ee 5fbd 2bc6 7bbb
000001d0: af2f 013d 24ff 96bc ea48 05bd a5d2 86bd
000001e0: f519 58bc 1e2d 93bd 4d20 8cbd aeee 79bd
000001f0: 4724 2aba 2e96 92bd 6734 21bd 5d36 993c
00000200: d33d 04bd 76b0 3fbd cf4c d93c 5534 4d3c
00000210: 524b b73c ed24 8b3d ce27 1d3d b5c6 09bd
00000220: d0a0 8a3d db93 b8bc 98ca fcbc 7558 113d
00000230: b1e1 e33c f95d 1cbd e183 8a3d bdb1 933d
00000240: fe49 873b 63e8 0dbd 6fe4 2cbc dc4d 1b3d
00000250: 9b2b 42bd 1b90 623c 71bf 873d cd24 9b3c
00000260: 9c87 87bc 0f59 95bc f449 f13c e0b8 7d3d
00000270: 66f6 9d3c bdb9 233d a78e 643d a4eb 36bd
00000280: 15b0 5dbd e95e 5ebd a269 193d 4c81 0a3d
00000290: 7e8b 7bbd 9ab9 03bd 5543 f039 f6ef 2abd
000002a0: b009 55bd 1893 7f3d 6c4e edbc 38d2 f73c
000002b0: a0fa df3c 392d 36bd 9ce7 20bc a9e2 b6bc
000002c0: 8091 8ebd be8b f0bc 7802 593d c776 ef3b
000002d0: e878 523d dab5 3b3d 0d21 2ebd 4a29 753d
000002e0: f4b4 c8bc f78f 2a3d 9de8 e8bc 8e9a 993d
000002f0: 5110 85bd ae27 ad3c 8e92 68bd 5dcf 91bd
00000300: 6bcd c7bc b495 713b ead5 8abd fd2d 3dbd
00000310: 2f01 6c3d ac35 743d f9a4 783d 9b87 043d
00000320: 898b 06bd 7604 b5bb f8c3 8ebd ba65 8abd
00000330: aedb 203d 6f00 983c 5d6f 2cbb 80fa 61bd
00000340: aa11 cfbc 88ea 39bb 8e3a ac3c e968 dabc
00000350: c865 763d a903 183d b151 7e3d 2235 1fbd
00000360: dd30 52bd 1612 383d 5924 683d efa6 f2bc
00000370: b764 c03c f7f3 903b ef61 e4bc 5df4 513c
00000380: c61c ad3c e3a7 113b 7c46 c1ba 3f49 3539
00000390: 2efb ec3c 08c9 83bd be0a 8abd 70de f8bc
000003a0: 0113 1bbc 4bd4 943c 7931 843c 9ece eb3c
000003b0: b390 833d 3b59 f23c 8c47 4fbc e793 133d
000003c0: 73c6 adbc 6ed1 2dbd 5455 a73c 702c 623d
000003d0: 54a1 993d 1070 27bc 0f17 883c 190a 81bc
000003e0: 670c 103d 5d3e 7cbd 9c40 a6bb 4226 0f3d
000003f0: 9461 10bd 0947 0d3c 15db 903d b7cd f73c

mdn_layer.sigma.bias f4 [1000]
0.08281694 -0.08009851 -0.0071181357 0.045835674 0.05402203 -0.077089086 0.056886703 -0.11503756
-0.11998604 0.07123262 0.09356052 0.07996917 0.032622382 -0.083849356 -0.082362905 -0.113536835
0.060753524 -0.06374538 -0.06213142 -0.10457592 -0.07039814 0.09176165 0.107783705 -0.08254579
0.02928935 -0.07633969 -0.029153243 0.0897844 0.0097167045 0.0416777 0.00544928 0.033596754
0.07819836 0.02080056 0.120565325 -0.10353236 -0.097638756 0.044997036 -0.033118486 0.12013836
-0.086914465 -0.089625016 0.06828354 -0.04391837 -0.06330091 -0.047834575 0.10664864 0.10599531
0.11978288 0.11591546 -0.02426064 -0.115279615 0.12287298 0.057006404 -0.06892134 -0.077096105
0.058539346 0.08152977 0.0176716 -0.099799365 0.116577685 -0.0010360479 -0.023326665 -0.09269619
0.1148794 0.06671883 0.024026677 -0.0032036006 0.086018085 -0.02123037 -0.06940924 -0.11813463
-0.07566254 -0.031099632 -0.075930715 -0.008948013 0.06416835 0.08752321 -0.030402213 -0.04491201
0.12351507 0.1238257 -0.09534693 -0.0249141 -0.047912255 -0.065420985 0.07062042 0.04283978
-0.06916693 0.07721646 -0.038760453 0.083116874 0.07566264 -0.038618848 -0.06461711 -0.11237548
-0.044876605 -0.017666861 -0.1248578 0.022099867 -0.11459066 0.10302226 -0.03001897 -0.06986818
0.032722905 -0.10670698 0.027916625 -0.052700013 0.030681089 -0.056336045 -0.06234485 -0.013641715
0.087648794 -0.00088377297 -0.022393033 0.11974931 0.06751734 -0.016789809 0.0568064 0.058524475
0.12158272 -0.0028088987 -0.11069946 -0.08293681 0.10746135 -0.007571459 -0.096469164 -0.00082962215
0.10093179 0.011624664 0.10361886 0.0787216 -0.05381249 -0.085819915 -0.092599586 0.023163661
-0.067842275 0.11664635 -0.0040323287 -0.05751416 -0.02083753 0.022413746 0.055197686 0.10187945
-0.102759406 0.010868728 0.11251786 -0.10634525 -0.09634146 0.013552949 0.025817946 0.08183278
0.081231326 -0.029790893 0.0032798946 0.117767975 -0.09085864 -0.07117155 0.12192835 0.058344662
-0.0046901107 0.018015638 0.1040743 0.11878902 -0.03957951 -0.028223798 -0.060337484 -0.0258632
0.06756988 0.07327193 0.07767874 -0.06445125 -0.016825616 -0.08164956 0.039248973 0.121123746
-0.003679514 -0.11269979 0.11169003 -0.006692812 0.025650144 0.05848454 -0.020715818 -0.0015422404
-0.05437413 -0.026357502 0.06408578 0.0495639 -0.09274438 0.04720652 -0.06798199 0.051178753
0.098657236 -0.01920265 0.0016683638 -0.11091736 0.115850255 -0.019953549 0.04036057 -0.040467605
0.09982087 0.007876366 -0.101839215 -0.09280354 0.09217331 -0.08480507 0.0049510747 -0.07498562
-0.06065674 0.124457434 0.050956845 -0.03574744 -0.107562914 -0.08919892 0.031059042 -0.10335332
-0.053538635 -0.023204118 0.06464009 -0.017974421 0.06265955 -0.107785776 0.0013824254 -0.06475888
-0.025574252 0.11392555 0.012237072 0.06374575 0.051355198 -0.09367266 -0.10204969 0.076202184
-0.060671 0.07549174 -0.10889804 0.027534679 -0.07962817 -0.046473473 -0.019688174 -0.041763544
-0.04880382 -0.008629829 0.01618445 -0.00087729096 0.12074162 -0.045178816 0.028024748 0.08570193
-0.012828276 0.121722385 -0.02773635 0.11011712 -0.006400764 0.0020785183 -0.028294832 0.10517913
00000000: ee9b a93d b00a a4bd 403f e9bb 30be 3b3d
00000010: 3446 5d3d e2e0 9dbd 0802 693d d098 ebbd
00000020: 3ebb f5bd 68e2 913d a89c bf3d e0c6 a33d
00000030: 0c9f 053d 36b9 abbd e2ad a8bd 0086 e8bd
00000040: b0d8 783d f08c 82bd 847d 7ebd e62b d6bd
00000050: e62c 90bd 88ed bb3d b4bd dc3d c40d a9bd
00000060: 38f0 ef3c fc57 9cbd c8d2 eebc e2e0 b73d
00000070: d032 1f3c 3cb6 2a3d e08f b23b c09c 093d
00000080: 7626 a03d f065 aa3c f4ea f63d c608 d4bd
00000090: d4f6 c7bd d04e 383d 40a7 07bd 1a0b f63d
000000a0: 3600 b2bd 528d b7bd 3ed8 8b3d c0e3 33bd
000000b0: e8a3 81bd 30ee 43bd 9a6a da3d 1214 d93d
000000c0: ba50 f53d 1665 ed3d 40be c6bc b817 ecbd
000000d0: d4a4 fb3d 8c7f 693d a226 8dbd 90e4 9dbd
000000e0: f4c6 6f3d 14f9 a63d 08c4 903c 9c63 ccbd
000000f0: 48c0 ee3d 00cc 87ba 9017 bfbc 80d7 bdbd
00000100: e445 eb3d e2a3 883d 98d3 c43c 80f3 51bb
00000110: 402a b03d 50eb adbc 6e26 8ebd 92f0 f1bd
00000120: f6f4 9abd a8c4 febc 9081 9bbd b09a 12bc
00000130: b26a 833d 5e3f b33d 100e f9bc a8f5 37bd
00000140: 78f5 fc3d 5498 fd3d 4045 c3bd a818 ccbc
00000150: a43f 44bd 70fb 85bd 70a1 903d c478 2f3d
00000160: 64a7 8dbd aa23 9e3d 48c3 1ebd 2e39 aa3d
00000170: 04f5 9a3d cc2e 1ebd fa55 84bd 1e25 e6bd
00000180: 88d0 37bd 18ba 90bc 72b5 ffbd c80a b53c
00000190: 82ae eabd 56fd d23d 58ea f5bc 0c17 8fbd
000001a0: 7408 063d 3089 dabd 68b1 e43c f8db 57bd
000001b0: e856 fb3c a0c0 66bd 505d 7fbd 8081 5fbc
000001c0: 3681 b33d 00ad 67ba 9871 b7bc 203f f53d
000001d0: 8846 8a3d c88a 89bc d4ad 683d 5cb7 6f3d
000001e0: 5c00 f93d 8015 38bb 66b6 e2bd c6da a9bd
000001f0: b214 dc3d 001a f8bb a091 c5bd 007b 59ba
00000200: 54b5 ce3d 6075 3e3c 2036 d43d ca38 a13d
00000210: 7c6a 5cbd 5ac2 afbd daa4 bdbd b8c1 bd3c
00000220: e4f0 8abd 48e4 ee3d a021 84bb f893 6bbd
00000230: 78b3 aabc 089d b73c f816 623d 2ca6 d03d
00000240: 8673 d2bd c012 323c c46f e63d 8acb d9bd
00000250: ac4e c5bd 300d 5e3c 2880 d33c f297 a73d
00000260: 9c5c a63d 080c f4bc 80f3 563b 5630 f13d
00000270: 1814 babd 64c2 91bd 92b5 f93d d0fa 6e3d
00000280: 80af 99bb 8895 933c e824 d53d a847 f33d
00000290: 201e 22bd 9835 e7bc 7024 77bd 10df d3bc
000002a0: 1462 8a3d 980f 963d 0816 9f3d 04ff 83bd
000002b0: e0d5 89bc e237 a7bd 88c3 203d ba0f f83d
000002c0: 0024 71bb 26cf e6bd bebd e43d 604f dbbb
000002d0: 4020 d23c 7c8d 6f3d 38b4 a9bc 0025 caba
000002e0: 68b7 5ebd b0eb d7bc 683f 833d 8403 4b3d
000002f0: c4f0 bdbd a05b 413d 243a 8bbd d0a0 513d
00000300: ce0c ca3d e04e 9dbc 00ad da3a a428 e3bd
00000310: e642 ed3d a075 a3bc 2051 253d 5cc1 25bd
00000320: e26e cc3d e00b 013c 1491 d0bd c80f bebd
00000330: 5cc5 bc3d 48ae adbd a03c a23b 1092 99bd
00000340: 3473 78bd 8ae3 fe3d 20b8 503d e86b 12bd
00000350: f249 dcbd ecad b6bd 886f fe3c e8aa d3bd
00000360: 544b 5bbd 9016 bebc 0662 843d 183f 93bc
00000370: a653 803d cabe dcbd 8032 b53a 4ea0 84bd
00000380: 1881 d1bc cc51 e93d 007e 483c 228d 823d
00000390: d459 523d 74d7 bfbd 6eff d0bd e40f 9c3d
000003a0: 2882 78bd 6a9b 9a3d f005 dfbd 6890 e13c
000003b0: 1814 a3bd f85a 3ebd 1849 a1bc 4010 2bbd
000003c0: 84e6 47bd 2064 0dbc 4095 843c 00fa 65ba
000003d0: 6247 f73d 6c0d 39bd 2894 e53c 7e84 af3d
000003e0: b02d 52bc 9649 f93d 5837 e3bc 1685 e13d
000003f0: 80bd d1bb c037 083b 90ca e7bc 2868 d73d

mdn_layer.mu.weight f4 [1000, 64]
-0.025191013 0.0037364308 0.009981862 0.02760738 0.031706505 -0.058277544 0.016231233 0.048800047
-0.043875672 0.06657905 -0.014666702 0.060532365 0.0051911315 0.033502623 -0.045702565 -0.0021895436
-0.006680458 0.001870901 0.045333974 0.041005142 0.048751395 -0.07361984 -0.05288646 -0.033949323
-0.038549386 0.05345601 -0.028295046 0.00074481545 0.054155733 0.030932024 0.057857 0.053018063
-0.055730775 -0.028338965 0.060012087 0.07479287 0.022374604 0.072344035 0.05898955 0.042963244
0.020970061 -0.05731611 0.049556267 0.033514474 -0.04504113 -0.07362646 -0.053536672 0.0420029
-0.021598877 0.039384894 0.016476193 -0.023225805 0.040544253 -0.01204326 0.010712928 0.07179901
0.060908575 0.031881686 -0.025386827 -0.023800695 -0.06945141 0.007922694 -0.0662652 0.060056426
-0.010230421 -0.0508117 -0.03769363 0.029308472 0.07098992 -0.025228709 0.03601301 -0.019073486
0.0021764291 0.037570775 -0.063312516 -0.0033987744 -0.01747602 0.03498929 -0.037112553 -0.060661253
0.043394383 0.036350705 0.074887715 -0.039311033 -0.01779161 -0.05432495 -0.052720197 0.012009099
0.0043550422 -0.07082178 0.036972456 0.024439717 0.006301372 -0.03480594 -0.06869615 0.06771763
-0.0075348895 -0.048646227 -0.028898118 0.023983698 0.06565934 0.04693586 -0.030155644 0.05829395
0.030770192 0.069302805 0.02887853 -0.020884812 -0.008033984 -0.026721438 -0.029425994 0.060146466
0.034284595 0.03744534 0.02422589 -0.06321718 -0.03060056 0.011135099 0.074834965 -0.05170644
-0.058952544 0.0134090055 -0.03713018 0.019727718 0.0140229 0.061800927 0.031460196 0.0026359924
-0.008668073 -0.032219287 -0.03684519 0.010914569 0.05136028 -0.02721492 0.0048247664 -0.031351633
-0.03396396 -0.0011186644 -0.02867185 -0.037850287 -0.045777164 -0.026757326 0.061678026 -0.074070044
-0.05224846 0.035110954 -0.029799653 -0.040939633 -0.06305567 -0.03615138 -0.00030885823 -0.01680719
0.03035904 -0.02844312 -0.030264419 -0.04587524 0.06501967 -0.027229171 -0.0006498896 0.05716065
0.039271966 0.029289225 -0.05192997 0.07085151 -0.047532406 0.036695227 -0.063189395 -0.019388234
-0.020521365 0.055287465 -0.005628172 0.07439733 0.05885186 -0.040570885 0.018073836 -0.007813007
-0.046960372 0.0747685 0.034418132 -0.012617998 -0.022724517 0.05514867 -0.049340688 -0.007477391
-0.012269599 0.057605103 0.0020932748 0.018590003 0.06733697 -0.07068241 -0.038833115 -0.06959629
-0.016052088 0.044248298 0.026099952 -0.06639116 -0.023021897 0.020215927 -0.012474294 -0.022221427
-0.05464259 -0.068224624 -0.017823856 -0.05640018 0.032631494 -0.036363307 -0.07336543 0.018024655
0.0017052193 0.03556587 -0.015981296 -0.027360737 -0.031127336 -0.06718896 0.06969549 0.07415659
-0.01994814 0.058882296 0.055280574 -0.0104943225 0.008516142 0.008102923 -0.007916383 0.021404648
-0.002882832 0.013353083 0.022418514 -0.013404377 -0.039106805 0.0061531826 0.056619376 -0.048418734
-0.017389975 0.048593555 -0.005557944 0.03884386 -0.04810297 -0.02240547 0.032856833 0.05535425
-0.040768042 0.030835692 -0.06951698 -0.04339329 -0.056536023 0.050084725 -0.004061241 -0.039756022
0.057157062 0.06736676 0.0118946675 0.04127376 0.0073376345 0.041713405 -0.034008823 -0.05002473
00000000: 625d cebc e8de 743b f78a 233c df28 e23c
00000010: aede 013d 6fb4 6ebd 5df7 843c 8fe2 473d
00000020: fab6 33bd 995a 883d 9b4c 70bc c9f0 773d
00000030: 5e1a aa3b 0c3a 093d 9d32 3bbd 727e 0fbb
00000040: bee7 dabb 0539 f53a 1eb0 393d 02f5 273d
00000050: 8baf 473d 00c6 96bd 799f 58bd 720e 0bbd
00000060: f6e5 1dbd b0f4 5a3d 03cb e7bc b83f 433a
00000070: 67d2 5d3d 2865 fd3c 76fb 6c3d 7829 593d
00000080: f445 64bd 1e27 e8bc 3ccf 753d 012d 993d
00000090: f24a b73c 1c29 943d 079f 713d 3afa 2f3d
000000a0: 68c9 ab3c 4cc4 6abd 83fb 4a3d 7946 093d
000000b0: 0c7d 38bd 78c9 96bd 4549 5bbd 3c0b 2c3d
000000c0: 21f0 b0bc 0e52 213d 15f9 863c 0b44 bebc
000000d0: bb11 263d 1851 45bc 4785 2f3c 5c0b 933d
000000e0: 457b 793d 5f96 023d 09f8 cfbc adf9 c2bc
000000f0: 8a3c 8ebd 30ce 013c 0db6 87bd bafd 753d
00000100: 7f9d 27bc ee1f 50bd a364 1abd 5218 f03c
00000110: 2a63 913d 70ac cebc 6182 133d 0040 9cbc
00000120: 6ca2 0e3b d0e3 193d fea9 81bd f9bd 5ebb
00000130: df29 8fbc ee50 0f3d 5503 18bd ef77 78bd
00000140: 4fbe 313d 7ae4 143d bb5e 993d 9b04 21bd
00000150: b6bf 91bc d783 5ebd 22f1 57bd d0c1 443c
00000160: beb4 8e3b 020b 91bd 6e70 173d cd35 c83c
00000170: bd7b ce3b ac90 0ebd 91b0 8cbd 8aaf 8a3d
00000180: 3ce7 f6bb 4441 47bd bfbb ecbc 7679 c43c
00000190: 6778 863d d13f 403d f808 f7bc a3c5 6e3d
000001a0: c511 fc3c a1ee 8d3d ab92 ec3c a016 abbc
000001b0: f9a0 03bc ebe6 dabc c80e f1bc 245c 763d
000001c0: 016e 0c3d 4960 193d 6075 c63c 0278 81bd
000001d0: 07ae fabc fe6f 363c 1343 993d 22ca 53bd
000001e0: 3978 71bd 72b1 5b3c d115 18bd 069c a13c
000001f0: 4ec0 653c f822 7d3d 68dc 003d 9dc0 2c3b
00000200: 8904 0ebc 5ff8 03bd fbea 16bd 05d3 323c
00000210: 285f 523d d3f1 debc 1319 9e3b 926a 00bd
00000220: cb1d 0bbd 26a0 92ba 3ae1 eabc e708 1bbd
00000230: d680 3bbd 2e32 dbbc 19a2 7c3d 09b2 97bd
00000240: 7b02 56bd 81d0 0f3d 671e f4bc 51b0 27bd
00000250: 5523 81bd 7813 14bd 40ee a1b9 3baf 89bc
00000260: 85b3 f83c 8c01 e9bc 16ed f7bc ade7 3bbd
00000270: 0829 853d b60f dfbc 5a5d 2aba 4921 6a3d
00000280: a4db 203d f5ef ef3c 85b4 54bd 991a 913d
00000290: 57b1 42bd bc4d 163d 7169 81bd 13d4 9ebc
000002a0: 6c1c a8bc 1c75 623d 876c b8bb a15d 983d
000002b0: a60e 713d a82d 26bd 950f 943c 2002 00bc
000002c0: 8559 40bd 3a20 993d 07fa 0c3d b8bb 4ebc
000002d0: c428 babc 92e3 613d 7619 4abd e704 f5bb
000002e0: 6e06 49bc 54f3 6b3d 532f 093b 104a 983c
000002f0: f7e7 893d f0c1 90bd 790f 1fbd 8088 8ebd
00000300: ab7f 83bc b43d 353d 91cf d53c 17f8 87bd
00000310: 6b98 bcbc df9b a53c fb60 4cbc b609 b6bc
00000320: e9d0 5fbd 5ab9 8bbd 5603 92bc e003 67bd
00000330: 9aa8 053d b1f1 14bd 9d40 96bd 71a8 933c
00000340: aa81 df3a 85ad 113d 35eb 82bc a023 e0bc
00000350: c1fe febc 5e9a 89bd 82bc 8e3d 69df 973d
00000360: 486a a3bc 902e 713d e26d 623d 61f0 2bbc
00000370: 4a87 0b3c 1fc2 043c b8b3 01bc cd58 af3c
00000380: e5ed 3cbb e4c6 5a3c 08a7 b73c 089e 5bbc
00000390: 752e 20bd a3a0 c93b b8e9 673d b952 46bd
000003a0: 6c75 8ebc 090a 473d 6a1f b6bb bd1a 1f3d
000003b0: 9f07 45bd ad8b b7bc e394 063d 23bb 623d
000003c0: 64fc 26bd 229b fc3c eb5e 8ebd 2abd 31bd
000003d0: 5192 67bd a425 4d3d 2914 85bb 36d7 22bd
000003e0: 861d 6a3d 95f7 893d dae1 423c ad0e 293d
000003f0: 8a70 f03b addb 2a3d d64c 0bbd bbe6 4cbd

mdn_layer.mu.bias f4 [1000]
-0.016159296 -0.07672097 -0.11809246 -0.06659451 0.10625701 0.117873535 -0.07692465 -0.036039054
-0.1188079 -0.07149884 0.06317447 -0.07452062 0.01983516 -0.034057513 0.072154924 -0.06818673
-0.048680633 -0.09409092 0.014609307 -0.024695218 -0.02465105 -0.109053046 -0.037450477 0.047894537
0.08267748 -0.009934813 -0.06542252 -0.05075811 -0.0960757 0.045345664 0.08307129 -0.031340584
0.09703304 0.086334795 0.10709135 -0.0130108595 -0.0150582045 0.054645866 0.054835692 0.07195686
0.021535441 0.021676168 -0.0012078881 -0.096623704 -0.04988824 0.11013682 -0.056100056 0.034096405
0.07224545 0.110716075 -0.046744972 0.06664677 -0.020230696 0.08153796 -0.047408387 0.018614635
-0.07699263 -0.0073797405 -0.09848456 -0.113427565 0.10045312 -0.090208456 -0.10230987 -0.021818891
0.054120645 0.086376995 -0.0003221333 0.070885316 0.096408665 0.024688557 0.05257666 -0.10167438
-0.12256622 -0.046463892 0.105569035 0.04919605 -0.08539224 -0.05154355 0.013150603 0.09990692
0.07210161 0.11455223 -0.019394621 0.054659963 0.1181557 0.044111565 0.017228514 0.0075587183
-0.060739174 -0.0048909485 -0.020250022 0.028917834 0.017916828 -0.07334444 0.06077014 0.11751321
-0.022400796 -0.020383224 0.106863886 0.026680455 0.06049323 -0.0496542 0.08681233 0.08175604
0.0033783615 -0.069073066 0.072888896 -0.031585738 -0.056812063 -0.024106637 -0.12101452 -0.0023514181
-0.1086248 -0.110159144 -0.063689545 0.104476795 0.11121461 -0.04570283 -0.11821157 0.0027962625
-0.061657965 0.09895155 0.04193318 -0.10680556 -0.02805546 0.044239268 0.014702618 0.0020770729
-0.038181454 0.11246227 -0.046578616 0.03987311 -0.07620439 0.03495969 0.11312315 0.088306114
0.10260394 0.02676785 -0.053690076 0.079346284 -0.11927931 -0.019778997 0.10923758 -0.0032119304
0.07813935 -0.058991507 -0.032744795 0.056921676 -0.05638686 0.0074542314 -0.008569375 -0.05899711
-0.042741686 -0.06788108 0.10658783 -0.08534196 0.04969473 -0.09519768 -0.0941045 -0.004810795
-0.082470864 0.06380862 0.044048026 0.016791716 -0.062449336 -0.030003652 -0.047654763 0.0408922
0.12464595 0.01940903 0.029449284 0.08640121 -0.071820766 -0.10644233 -0.07586281 0.016486421
0.021638155 -0.072110504 0.028683364 0.015907407 0.020431653 0.06634116 -0.11835049 -0.122036874
0.006308228 0.0032731593 -0.08152524 -0.09314972 -0.015325442 0.061961696 -0.076496646 0.06521343
0.07130015 -0.056802034 0.07900408 0.09971677 -0.1098288 -0.04665883 0.042478472 -0.12016438
0.044101417 -0.10007487 0.020757094 0.053911984 -0.068232134 0.109031215 0.053881258 0.084465384
0.01120238 -0.098875746 0.069612786 -0.0051492304 -0.017584056 -0.06826411 0.08314544 -0.033236444
-0.031042665 0.058752164 0.06949769 0.023392797 -0.09012757 -0.01884687 0.06266303 -0.04404542
0.024721697 -0.1245985 -0.089697674 0.0074157566 -0.080283776 -0.0512439 -0.06972468 -0.051782474
0.035388887 -0.068982035 0.022530437 -0.03383614 -0.07704896 -0.08390802 0.05387473 0.033735648
-0.09880464 0.0453936 -0.106699586 0.10283272 0.110887006 0.08325763 0.028216422 -0.010580748
0.08026846 0.077702135 -0.06339976 0.116070375 -0.033797234 -0.08922398 0.034300014 -0.08361779
00000000: 8060 84bc e21f 9dbd 76da f1bd b462 88bd
00000010: 469d d93d ae67 f13d ac8a 9dbd b09d 13bd
00000020: 8e51 f3bd fc6d 92bd 9e61 813d 449e 98bd
00000030: 587d a23c e47f 0bbd f6c5 933d 7ca5 8bbd
00000040: 5865 47bd beb2 c0bd e05b 6f3c a04d cabc
00000050: 00f1 c9bc 3457 dfbd ac65 19bd 102d 443d
00000060: d052 a93d a0c5 22bc 3efc 85bd bce7 4fbd
00000070: 56c3 c4bd 60bc 393d 4821 aa3d fc5e 00bd
00000080: 42b9 c63d 4cd0 b03d b652 db3d 802b 55bc
00000090: b0b6 76bc 58d4 5f3d 649b 603d 1e5e 933d
000000a0: 186b b03c 3892 b13c 0052 9eba a6e2 c5bd
000000b0: 9c57 4cbd 6a8f e13d 2cc9 65bd aca8 0b3d
000000c0: 6cf5 933d 1cbf e23d a877 3fbd 1a7e 883d
000000d0: d8ba a5bc 60fd a63d 4c2f 42bd b87d 983c
000000e0: 50ae 9dbd c0d1 f1bb 46b2 c9bd b64c e8bd
000000f0: 5eba cd3d 36bf b8bd d687 d1bd 88bd b2bc
00000100: 9cad 5d3d 6ce6 b03d 00e4 a8b9 522c 913d
00000110: e871 c53d a83f ca3c a05a 573d a83a d0bd
00000120: 0004 fbbd ec50 3ebd 9434 d83d cc81 493d
00000130: 20e2 aebd 541f 53bd a075 573c 009c cc3d
00000140: 02aa 933d 5c9a ea3d 78e1 9ebc 20e3 5f3d
00000150: 9efb f13d 54ae 343d d022 8d3c 20af f73b
00000160: a4c9 78bd 4044 a0bb 60e3 a5bc 18e5 ec3c
00000170: 50c6 923c 9c35 96bd 1cea 783d c4aa f03d
00000180: e081 b7bc b8fa a6bc 74db da3d f890 da3c
00000190: c0c7 773d 3462 4bbd aaca b13d b66f a73d
000001a0: 8067 5d3b 2e76 8dbd c646 953d 0c60 01bd
000001b0: c4b3 68bd 487b c5bc 76d6 f7bd 401a 1abb
000001c0: ae76 debd 1e9b e1bd aa6f 82bd eef7 d53d
000001d0: 7cc4 e33d e432 3bbd e818 f2bd 8041 373b
000001e0: 108d 7cbd 1ca7 ca3d 20c2 2b3d e0bc dabd
000001f0: 90d4 e5bc 3c34 353d 40e3 703c 801f 083b
00000200: 2864 1cbd 9e52 e63d 38c9 3ebd fc51 233d
00000210: 0c11 9cbd e431 0f3d 1cad e73d d6d9 b43d
00000220: 0422 d23d 4048 db3c 20ea 5bbd 4e80 a23d
00000230: b648 f4bd 9007 a2bc f4b7 df3d 407f 52bb
00000240: 8607 a03d 14a1 71bd 681f 06bd b426 693d
00000250: e8f5 66bd a042 f43b 9066 0cbc f4a6 71bd
00000260: e811 2fbd 3c05 8bbd b84a da3d c4c7 aebd
00000270: b48c 4b3d 00f7 c2bd dcb9 c0bd e0a3 9dbb
00000280: 7ce6 a8bd 18ae 823d b46b 343d c88e 893c
00000290: e0ca 7fbd 38ca f5bc a431 43bd 947e 273d
000002a0: 6046 ff3d b0ff 9e3c a03f f13c 1ef3 b03d
000002b0: c416 93bd 70fe d9bd f65d 9bbd 880e 873c
000002c0: 8042 b13c acae 93bd 60f9 ea3c 4050 823c
000002d0: 4860 a73c e0dd 873d be61 f2bd 78ee f9bd
000002e0: 40b5 ce3b 8082 563b b4f6 a6bd 48c5 bebd
000002f0: 9017 7bbc 8ccb 7d3d 46aa 9cbd 9e8e 853d
00000300: d005 923d 40a9 68bd e4cc a13d 4e38 cc3d
00000310: eced e0bd 541d 3fbd e8fd 2d3d be18 f6bd
00000320: b0a3 343d 0ef4 ccbd c80a aa3c d0d2 5c3d
00000330: 4abd 8bbd c24b df3d 98b2 5c3d 30fc ac3d
00000340: 308a 373c 5e7f cabd 2691 8e3d e0ba a8bb
00000350: 700c 90bc 0ece 8bbd 2848 aa3d f022 08bd
00000360: 304d febc 1ca6 703d ce54 8e3d 40a2 bf3c
00000370: ce94 b8bd c064 9abc 7a55 803d f868 34bd
00000380: 2885 ca3c 802d ffbd 6ab3 b7bd e0ff f23b
00000390: d26b a4bd 20e5 51bd d0cb 8ebd dc19 54bd
000003a0: f0f3 103d 7446 8dbd c091 b83c c497 0abd
000003b0: d8cb 9dbd f8d7 abbd c0ab 5c3d 642e 0a3d
000003c0: 165a cabd a4ee 393d 5085 dabd f699 d23d
000003d0: ba18 e33d fa82 aa3d 2026 e73c e05a 2dbc
000003e0: ca63 a43d 4c22 9f3d bcd7 81bd 4eb6 ed3d
000003f0: f86e 0abd 10bb b6bd 2c7e 0c3d ce3f abbd
