CKLD/lap_kld_record-v5-eig3/gaussian20/dataset4/trained_models/mdn_model_epoch999.tar (torch, 557897 bytes, 10 tensors)

ip_emb.weight f4 [64, 47]
000000 c9 3e e3 3e b9 b2 41 be 43 a0 8a 3e 0f 2c 0f 3d
       0.4438384 -0.18915834 0.27075395 0.034954127
000010 d4 5b 32 3e d3 46 61 bc a7 57 d1 3d d3 8b 39 be
       0.17417842 -0.013749796 0.102217965 -0.18119745
000020 87 78 1e 3e 5d 7d bc 3c 0d c8 8f bd b8 e2 ea bd
       0.15475665 0.023008997 -0.070205785 -0.114690244
000030 ee d5 d1 3c d4 0c b2 3d c3 05 ea 3d 64 60 ac bc
       0.025614705 0.08693853 0.1142688 -0.021042056
000040 d8 e6 1c 3e 22 54 37 3c 93 c5 8f 3d 94 72 7b 3d
       0.15322435 0.011189492 0.07020106 0.061388567
000050 79 20 a7 3e 5b f9 bb bd 9b cd 0d 3f 51 b4 ca 3d
       0.32641962 -0.0917842 0.55391854 0.09897674
000060 76 d4 e3 3d 18 5e 86 3d 24 5a 0b bf ac cb 0e 3f
       0.11124508 0.06560916 -0.5443442 0.5577953
000070 be 06 e8 3e 82 01 a0 3f 21 9a 05 be b5 40 b2 3d
       0.45317644 1.250046 -0.13047077 0.08703748
000080 98 08 a2 3e b8 b2 ee bc 2d c0 1e be 83 f5 a6 3d
       0.31647182 -0.029137954 -0.15502997 0.081522964
000090 03 d2 3e 3e 80 44 01 be 7d 61 ee 3c ff cd b0 bd
       0.186348 -0.12623787 0.02909922 -0.08633041
0000a0 f1 96 80 3c 1f 51 7e bc ea 4b f6 ba 63 95 c5 3b
       0.015696974 -0.01552227 -0.0018790935 0.006029771
0000b0 87 7f 74 3d 9f e5 82 3e 34 67 4a be b0 2b fa 3e
       0.059691932 0.25565812 -0.19765931 0.48861456
0000c0 2e cb 10 3e 2c 67 1c 3e dd 90 0e 3e 34 df 82 3e
       0.14140007 0.15273732 0.13922448 0.25560915
0000d0 31 58 08 3e e3 6f 70 3d bc fa dc 3d 49 12 9d be
       0.13314892 0.058700453 0.10790011 -0.30678013
0000e0 1b df ef 3c 50 42 2b 3d dc 0c 00 be d9 be 9f bc
       0.02928119 0.041811287 -0.12504905 -0.019500183
0000f0 e2 99 88 3d f4 98 cf be d3 30 0c 3e 53 60 12 bf
       0.06669976 -0.4054638 0.136905 -0.5717823
000100 02 37 2b 3a 77 04 06 3f ef 6c de bd 1a 67 1f be
       0.0006531329 0.5235056 -0.10860621 -0.15566674
000110 06 73 02 bd 20 ea 60 bf b6 fb 49 be a7 76 01 3b
       -0.031847976 -0.87857246 -0.19724926 0.001975456
000120 0f ed 16 bd f0 00 69 3f 6b 5f 80 3b 65 5b 94 c0
       -0.03684717 0.91017056 0.0039176247 -4.6361566
000130 67 64 4b 3e c1 9b d9 bd cd 3a 23 3d c0 9b da bd
       0.19862519 -0.10625411 0.039851 -0.10674238
000140 01 96 a5 bc a8 23 ef bc 9f b0 8c 3c 00 1a 12 bd
       -0.020213129 -0.029191807 0.017174063 -0.035669327
000150 9d 93 58 bd 9c 1c 5b bd 11 44 21 bb 34 14 36 bd
       -0.05287515 -0.05349408 -0.002460722 -0.04445286
000160 58 7f 88 3d 43 3a 4e 3d ec 3f 46 bd c4 0a 05 bd
       0.06664914 0.05034853 -0.048400804 -0.03248097
000170 54 f0 1d bc 6e 27 5e bc ff 32 02 3e 30 56 24 bc
       -0.009639818 -0.013559205 0.12714766 -0.010030314
000180 f4 3c 63 3d 7a 18 53 bd 1c ca 14 be 74 de f0 bc
       0.05547805 -0.051537015 -0.14530224 -0.029402949
000190 83 d5 e7 3c 60 1e bb 3d 6d b5 8b 3e bc 2a c9 bd
       0.028300053 0.09136653 0.27286854 -0.09822604
0001a0 a4 16 06 be 6f 38 a8 bd 73 af 5f be a9 79 38 bd
       -0.13094574 -0.08213889 -0.21844272 -0.0450379
0001b0 c5 8c 89 3e 6d 38 07 3d 52 73 81 3d fc 66 e2 bd
       0.2686521 0.033012796 0.06320824 -0.11054799
0001c0 22 28 df be 12 0f 4b be b7 50 b2 3e 7c 86 2e be
       -0.43585306 -0.19829968 0.34827206 -0.17043489
0001d0 a6 8a 23 3f f4 da cd bd ce b5 38 bf 39 ce 0f be
       0.63883436 -0.100515276 -0.7215241 -0.14043511
0001e0 6f 63 10 c0 97 a2 08 be 32 c9 5c 40 96 f9 3f bd
       -2.256069 -0.13343273 3.44978 -0.046868883
0001f0 8f a1 99 bd b1 44 59 bd 70 88 e6 ba b8 42 81 3d
       -0.07501518 -0.053044025 -0.0017588269 0.06311554
000200 26 4e 2d 3d 1a 05 00 bd 9d 38 06 bd b0 b9 10 bd
       0.042310856 -0.031254865 -0.032768834 -0.035333335
000210 39 3d df 3c aa 9c 9c bc 06 b1 37 3d 21 68 15 3b
       0.027250873 -0.019117672 0.044846557 0.0022797661
000220 ff 1a ae 3d ad 87 94 bc 25 60 d4 bc 20 fb c0 3d
       0.08501243 -0.018131102 -0.025924752 0.09422898
000230 e5 a3 dd 3d b7 35 8e bf 7b 7c 83 3d 36 1e 5d bf
       0.10822276 -1.1110142 0.06420227 -0.86374223
000240 a7 83 eb 3d a6 e8 6a bf ab 71 08 3e 5f 9e 51 bf
       0.1149972 -0.91761243 0.13324611 -0.8188228
000250 a1 d9 2f 3e 91 7b 60 bf f3 8c e8 3d 5e 66 65 bf
       0.17172863 -0.8768855 0.11355009 -0.89609325
000260 c8 04 3b 3e 4c c8 87 bf 80 80 aa 3c 8e 26 44 bf
       0.18263543 -1.0608001 0.020813227 -0.7662133
000270 50 b0 e4 bc 60 9a 5b bf 04 d3 a2 3d 84 2d a9 bf
       -0.027916104 -0.8578243 0.07950404 -1.3217015
000280 9d 26 8c 3d 6a e7 56 bf 02 64 ad bc 3e 1f b3 bf
       0.068433024 -0.8394686 -0.021165852 -1.3993909
000290 0f 6f 1e 3e b3 db 78 c0 58 0b 39 bd 21 5f aa c0
       0.15472053 -3.8884094 -0.045176834 -5.3241124
0002a0 af 57 a9 3d 61 9d e5 be 28 a1 13 3e d3 39 ee 3c
       0.082686774 -0.44846633 0.14416945 0.029080307
0002b0 33 1e 07 be 34 02 09 3d 5d 74 91 3c cb 3e 01 bc
       -0.13195114 0.033449367 0.017755682 -0.007888506
0002c0 33 36 03 3d 0d 65 10 bd 09 66 d4 3c 8f f7 28 bc
       0.03203411 -0.03525262 0.02592756 -0.010312929
0002d0 0b 2e 5c bd 76 f5 6e bd 58 10 81 bc ef a7 d3 bd
       -0.053754847 -0.05833956 -0.015754864 -0.10334765
0002e0 5c 59 e2 3d 7e df 1b bd 86 3b 29 bb 9d 8b de 3b
       0.110522 -0.038054936 -0.0025822832 0.0067915455
0002f0 3b cd 7f bc 40 d4 39 be 17 e8 28 bd 4f f5 57 3d
       -0.015612896 -0.18147373 -0.041236963 0.05272418
000300 59 2f bc bd 5a ec 15 3d 8c ee c8 bd 9e f3 b5 bd
       -0.09188718 0.036602356 -0.09811124 -0.08884357
000310 30 66 56 3d 34 21 af 3d 17 01 c9 bd 7b 8a a7 3d
       0.052343547 0.08551255 -0.09814661 0.0818071
000320 c5 27 ab 3d 1b d4 21 3b 09 8f b9 3d 38 d1 d6 bc
       0.08357195 0.0024693075 0.09060485 -0.02622281
000330 d2 dc 33 3c 9f 33 b7 3d da 85 a1 3d 5b 4c 17 be
       0.010977941 0.08945393 0.07886858 -0.14775221
000340 4d ea da bd e8 67 2c bd d8 d0 9f bd 2f 90 d7 3d
       -0.106892206 -0.04209128 -0.07803506 0.10525548
000350 d5 0f 3a b9 fa c4 25 3e 95 a2 38 be 23 26 37 3f
       -0.0001774424 0.16188422 -0.1803077 0.71542567
000360 93 0c 08 c0 12 60 af 3f 7d 56 cc 3d ca f1 30 bb
       -2.1257675 1.3701193 0.09977434 -0.0026999586
000370 90 f1 8a bd 20 be f6 3d 00 42 b1 bc c3 10 a1 bd
       -0.06784356 0.12047982 -0.021637917 -0.07864525
000380 d4 43 35 3b 73 1e 78 bc 0d 81 a2 bd 0b f2 76 3c
       0.0027658837 -0.015143978 -0.07934771 0.015072356
000390 41 31 98 bd a9 8e 17 3d 0a 38 ab bc 9c d0 db bd
       -0.074312694 0.037001286 -0.020900745 -0.107331485
0003a0 94 e4 d9 bd e6 c9 18 3d 79 aa f2 3c d8 58 1b 3d
       -0.10639301 0.03730192 0.029622303 0.037926525
0003b0 f2 de 82 3c d0 0d 99 3d 38 41 df 3d 05 4d 91 3d
       0.01597545 0.07473338 0.10901111 0.070947684
0003c0 8f 98 1b be 50 b9 0b 3e 6f 1d 6e 3d a3 58 1a bd
       -0.15194915 0.1364491 0.05813354 -0.037682187
0003d0 5a 5c c7 3c a4 4d 9a 3d 00 60 77 3c 35 d7 88 3e
       0.024336029 0.0753434 0.015098572 0.2672669
0003e0 cc 9e 2d bd dd 5c a9 be 44 9a 2e 3d 96 0d 1e be
       -0.04238777 -0.33078662 0.042627588 -0.1543487
0003f0 87 3a 27 3d c3 f2 5e 3f 6d 58 29 3e 61 18 24 be
       0.0408273 0.87089175 0.16537638 -0.16024925

ip_emb.bias f4 [64]
000000 ff 37 af 3e 9b e2 c7 bd 90 20 de 3d d6 cc 93 be
       0.3422241 -0.097600184 0.108460546 -0.28867215
000010 4d 5f ca 3d 9d 16 73 be 7e 74 84 3e 48 0b 82 be
       0.098814584 -0.23739095 0.25870126 -0.25399232
000020 3f f2 01 be d4 e9 7d be 9a 67 20 be 03 c1 6e 3e
       -0.12690066 -0.2479623 -0.15664521 0.23315816
000030 d6 20 de bd 67 73 27 be f5 5d b8 bd 24 03 36 3e
       -0.10846107 -0.16352616 -0.09002296 0.17774636
000040 79 a9 bc 3e 3e a9 cd bd 47 76 ed 3d 32 26 39 3e
       0.36848047 -0.10042046 0.11594825 0.18080977
000050 86 03 20 be cc d0 28 bc b1 9d 6b bd 7f 69 29 3e
       -0.15626344 -0.010303687 -0.057523433 0.1654415
000060 63 76 3c 3d c2 bf 8e be 0a 14 cb 3a e1 0e 31 be
       0.04601134 -0.27880675 0.0015493643 -0.17290832
000070 a2 13 ae 3d d8 88 81 3d f1 84 74 3c d3 6a 86 3e
       0.084998384 0.06324929 0.014924274 0.26253375
000080 7b d5 83 3e d2 62 6a 3d 9b f7 8d 3d ed 6c 76 bd
       0.2574881 0.05722315 0.069319926 -0.060162473
000090 5f dc d1 bd 1c 2a 38 be ac 90 85 3e 23 ba 08 bd
       -0.102471106 -0.17984813 0.26086938 -0.03338064
0000a0 22 ce ff 3d 62 fb a1 bd 7e c9 7b be 9f 98 23 3e
       0.124904886 -0.079092756 -0.24588582 0.15976189
0000b0 3e 06 41 bd f1 19 2f bd 87 fa 1c 3e dd b6 82 3d
       -0.047125094 -0.04274935 0.15329944 0.06382535
0000c0 53 60 44 3e 30 c4 4d be 14 1f 9c 3d 38 e5 1c be
       0.1917737 -0.20094371 0.07623115 -0.15321815
0000d0 01 c5 27 3b 71 e7 02 bd a8 88 cf bd 08 7e da 3d
       0.0025599601 -0.031959 -0.10133487 0.1066857
0000e0 64 47 22 be 40 65 3d 3d 52 cf 4d 3e bb 88 09 be
       -0.15847546 0.046239138 0.20098618 -0.13431065
0000f0 ea ba 80 be 67 dd 78 3e 44 2d 3d be 91 d9 5a 3d
       -0.25142604 0.24303208 -0.18474299 0.053430144

dyn_emb.weight f4 [64, 64]
000000 61 f6 b1 3d ff ae 5b 3d 50 7b c1 bd 9a 77 60 3d
       0.08689571 0.053633686 -0.09447348 0.05480156
000010 b5 22 3a 3f 0b fb 18 bd 48 b8 f9 bd f0 a7 31 3d
       0.7270921 -0.03734879 -0.12193352 0.04337305
000020 41 76 3e 3e ba 1a e5 be f5 7b da bd a1 4f 03 be
       0.18599798 -0.44746953 -0.10668174 -0.12823345
000030 de 2f fe 3d a1 5b 05 bf 19 ed a6 be 24 d3 cb bd
       0.12411474 -0.5209294 -0.32602766 -0.09952381
000040 8a ac d5 bd 1e ba d5 3d a1 36 59 bd 7d c2 03 3f
       -0.104333 0.1043589 -0.053030614 0.5146864
000050 a1 32 48 bd 17 c3 1a bd 1f e8 2a 3e 0a bd fe bc
       -0.04887641 -0.03778371 0.1669011 -0.031096
000060 66 6e d8 3e d1 40 06 3e 1a 19 88 3d da 9c a4 3d
       0.42271727 0.13110663 0.06645413 0.080377296
000070 6a c4 a5 3b 81 0c 9f 3c 1c 8d 5b 3e c7 b2 9a bd
       0.005058815 0.019415142 0.21440548 -0.0755363
000080 f4 01 f1 3e 52 b8 8c be f2 96 f2 bd 31 d3 46 be
       0.47071803 -0.27484375 -0.11845197 -0.194165
000090 34 dc 21 3e 5a 8c da 3c 12 75 98 bc e3 22 ff bd
       0.15806657 0.026678253 -0.018610511 -0.12457826
0000a0 c8 20 f4 bd 90 a3 55 be 3a a9 f0 3c 7f 1a 58 bd
       -0.11920315 -0.20863175 0.029377569 -0.052759644
0000b0 aa 3d 33 3e cd a7 e1 bd 03 3e 3b be 19 79 4d bd
       0.17503992 -0.110183336 -0.18285374 -0.050164316
0000c0 18 71 b1 3e 05 3d 01 bc 29 8f 93 3e 02 1d 99 be
       0.34656596 -0.007888083 0.2882016 -0.29904944
0000d0 27 19 1b 3e 51 2f ef 3b 29 01 b2 3d 90 d6 a3 bd
       0.15146314 0.0072993417 0.086916275 -0.07999909
0000e0 a7 43 96 bf 1e 7c 89 3d 38 83 c6 bd f7 c3 7a bb
       -1.1739396 0.067131266 -0.09692997 -0.0038263777
0000f0 d9 c3 73 3d a1 b7 02 be 7f 7b 8c 3d a0 05 a0 3e
       0.059512947 -0.12765361 0.068594925 0.31254292
000100 3a d2 b1 3e d3 cc 0e be 1b a7 07 3e 3f f4 ac be
       0.34730703 -0.13945322 0.1324734 -0.33780095
000110 17 4b f3 3e 1c 66 4b bd d8 00 95 3e 7b f6 30 be
       0.47518227 -0.049657926 0.29102206 -0.17281525
000120 dc 33 19 3d 0e 03 b5 be 1a 7b 92 be 2f bd 15 3e
       0.037402973 -0.35353893 -0.28609544 0.14622949
000130 89 54 19 3d 4c 2b 3e be 90 1b aa be 5e 87 84 3c
       0.037434135 -0.18571204 -0.33224154 0.01617783
000140 77 63 9c 3e cc 82 2c bd 95 a5 65 3d f4 6a 18 3f
       0.30544636 -0.042116925 0.056066114 0.595382
000150 fe 24 17 be 34 dc 42 be 4a 01 1a 3d e8 5e 0d 3e
       -0.14760205 -0.19029313 0.037598886 0.13805735
000160 21 82 21 3e 03 4e 78 be 8d 7e a2 bc eb e4 9b bd
       0.15772296 -0.24248509 -0.019835735 -0.07612022
000170 4c c8 dd 3d ff 30 49 3e 8b 68 ec 3d 9e c5 96 3e
       0.10829219 0.19647597 0.115433775 0.29447645
000180 af 81 07 3f 9c fe cf 3d aa 51 5e 3d 1e a7 d7 3d
       0.52932256 0.10155985 0.0542771 0.10529922
000190 88 a4 b6 bd 73 93 61 be 26 8b 83 3e 3f 94 2a be
       -0.089181006 -0.22028904 0.256921 -0.16658114
0001a0 9f 59 f7 bd fa c3 a9 be c9 54 9c be 71 ad 3f 3e
       -0.12077641 -0.3315733 -0.30533436 0.18718506
0001b0 da 29 56 bd c7 c2 8f bd 6f 3f e3 3d 66 eb 82 3d
       -0.052286007 -0.07019573 0.110960834 0.06392555
0001c0 f0 58 44 3f 43 58 05 be 7f a4 78 3e 58 af 20 be
       0.7669821 -0.1302195 0.242815 -0.15691888
0001d0 37 e1 67 3e 3e e8 11 bd 05 9d 1a be 59 0b a8 3d
       0.22644506 -0.035621874 -0.1509896 0.082052894
0001e0 0c 7c 2c bf 67 ff c1 3d 6b 19 01 3e 03 30 a0 bd
       -0.6737678 0.09472542 0.12607352 -0.078216575
0001f0 d5 c9 2d be 04 23 95 3e 30 24 6d be 9d 0f 9c 3c
       -0.16971524 0.29128277 -0.23158336 0.019050414
000200 6a da 76 3e 06 f4 9c bc 2c c4 0a 3e 14 6c 10 bf
       0.24106756 -0.019159328 0.13551396 -0.56414914
000210 62 47 82 3e a7 55 38 be 05 05 23 3e ae 46 3a be
       0.25445086 -0.18001424 0.15919884 -0.18191025
000220 de 2f 4d be 8c 4d 96 be 57 1c 8f be 68 af e6 3d
       -0.20037791 -0.2935604 -0.2795131 0.11263925
000230 c6 e5 fb bd ae 91 66 be 2a a0 de bd 22 a6 13 3e
       -0.12299685 -0.2251651 -0.108703926 0.14418843
000240 dd a6 bd 3e 1b 60 4f bd 8f 6c 5b 3e 4a 25 9f 3e
       0.3704137 -0.050628763 0.2142813 0.31083137
000250 78 e9 0d be 93 c0 13 3e 8c 9c 83 bc 58 1f c0 3d
       -0.13858593 0.1442893 -0.016065858 0.09380978
000260 38 09 65 bd 4d 77 44 be fa 9b 1d 3c 1d 6c 35 be
       -0.055916995 -0.19186135 0.009619707 -0.17717023
000270 7c 3b 39 3e 73 43 cc 3d ad 62 9b 3d 94 ac 71 3e
       0.18089098 0.099738024 0.0758718 0.2360099
000280 78 8c 98 3e f9 57 46 3e 7d 3b 87 3e 1b 03 83 3d
       0.2979467 0.19369496 0.26412573 0.06397077
000290 a2 e9 eb bd 5e 79 7e be 43 a6 fd 3d 2e e4 6d bd
       -0.11519171 -0.24850985 0.123852275 -0.058078937
0002a0 a7 ea 0c 3e e3 0d 1a be dd a0 43 be 78 71 a0 3e
       0.13761388 -0.1504436 -0.19104333 0.3133657
0002b0 ab 86 b4 3b 70 33 9d be 5c 55 b8 3d 37 80 e6 3d
       0.0055092177 -0.30703306 0.09000656 0.11254924
0002c0 ec 55 78 3e cd cd 78 bd f4 4b cc bd e8 94 32 be
       0.24251527 -0.060743142 -0.099754244 -0.17439616
0002d0 08 cd 70 3e f2 6c 24 3e e0 35 1f bd 54 e0 6b 3d
       0.23515713 0.16057184 -0.03886974 0.057586983
0002e0 b5 70 29 bf 90 96 0f 3e dc bc d6 3d b4 27 04 bd
       -0.661876 0.14022279 0.10485241 -0.032264426
0002f0 f3 1c b5 bd d7 44 3c 3e 5b fa b2 be a0 9e 1d bd
       -0.08843412 0.18385635 -0.3495663 -0.038481355
000300 1b 95 ba be 12 73 d6 3b a8 d2 6f bd 98 b4 8c 3e
       -0.36441883 0.006544479 -0.058550507 0.27481532
000310 f9 c7 ac be 60 17 2e 3e 5c 36 99 be 9b 78 36 3e
       -0.33746317 0.17001104 -0.29924285 0.17819445
000320 25 1d 0f 3e 8c 6a d7 3e fe 23 57 3e b7 56 a0 bd
       0.13975962 0.42073476 0.21009824 -0.078290395
000330 34 70 33 3e 70 4c cf 3e eb 9c 5e 3e c5 d2 fc bd
       0.17523271 0.40488005 0.21739547 -0.123448886
000340 e5 ef 9f be 53 b2 21 3e 3e 9a 2d be 68 cf 05 bf
       -0.31237713 0.15790682 -0.1695337 -0.522696
000350 81 ac 8b 3d 61 a8 6c bd 8d 43 98 ba c1 06 d7 bd
       0.06820012 -0.057777766 -0.0011616811 -0.10499335
000360 d7 fb 8f bd 26 7c 14 3e 2e 46 82 3e c2 dc b3 3d
       -0.070304565 0.14500484 0.25444168 0.087823406
000370 45 8e 2e be 6c 4b 34 3d 9b 28 d3 bc 64 bb 15 be
       -0.17046459 0.04401724 -0.025776198 -0.14622265
000380 b0 2d f0 be 7b 41 b9 bd 6b 74 5a be 16 7b 13 be
       -0.46909857 -0.090456925 -0.21333472 -0.14402422
000390 9e 97 3d 3e ec 0c 1f 3e 34 58 ef bd 64 0f 0d 3e
       0.18514869 0.15532273 -0.11686745 0.13775402
0003a0 7b d3 94 bd ee ee 9e 3e 9a 16 61 3e 74 6f 84 be
       -0.07266899 0.31041664 0.21981278 -0.25866282
0003b0 8a eb 65 bd a4 08 4f 3e 41 46 2c be 97 e2 18 be
       -0.05613283 0.2021814 -0.16823675 -0.14930187
0003c0 a2 d7 44 bf 67 53 95 3d a9 1a fc be 71 d0 68 3e
       -0.7689153 0.07291298 -0.4923909 0.22735764
0003d0 94 46 47 be 2e 7a 28 bd e6 70 19 3d e9 08 ed bd
       -0.19460517 -0.041132145 0.037461184 -0.11573965
0003e0 22 9f 4b 3f 2d 2e 8e bc 31 b6 58 be 76 d1 1d 3e
       0.7953969 -0.017356003 -0.2116325 0.15411934
0003f0 16 a6 33 3e 7d d5 01 be 19 b1 65 3e b9 3b 33 3c
       0.17543826 -0.12679096 0.22430839 0.010939532

dyn_emb.bias f4 [64]
000000 e9 4a cb bd 64 f8 a7 3e 2a d0 89 3e 35 f0 ad be
       -0.09926397 0.32806695 0.2691663 -0.33972326
000010 fb fd 1d 3e 63 75 0b 3e bb 9b 93 be a0 52 cc be
       0.15428917 0.13618998 -0.2882975 -0.39906788
000020 96 80 0e be a5 8d 3f 3d ae 32 4e 3e f3 53 36 be
       -0.13916239 0.046765942 0.2013652 -0.17805462
000030 90 6a 67 3e 70 e2 c3 be be 4f 8d 3e 97 da 2a bd
       0.22599244 -0.38258696 0.275999 -0.04171237
000040 03 ad 0b be c8 0d 6d 3e c4 ad 6f 3e e1 21 6a be
       -0.13640217 0.23149788 0.2340613 -0.22864486
000050 c9 d0 99 3e 0d 14 c9 3e 56 e3 36 3e 99 df aa 3e
       0.30042103 0.3927311 0.1786016 0.33373716
000060 f7 cd 4f 3d ca 82 65 3e f6 9a 7c be 82 db 6c 3e
       0.050733533 0.22413173 -0.24668488 0.2313061
000070 70 9e 99 3e 97 bf 3d 3e 15 65 91 be cd 15 9a be
       0.3000369 0.18530117 -0.28397432 -0.30094758
000080 9d 2c 04 3e 17 0b 60 3e 95 4d c0 3c d4 0c 87 be
       0.12907644 0.2187923 0.023474494 -0.26376975
000090 f5 56 95 be 64 00 b7 3d 55 54 87 be 07 2c 91 bd
       -0.29167905 0.089356214 -0.26431528 -0.07088476
0000a0 bb 51 fb bd f2 7a 73 be 5d fa a0 bc 58 af 55 3e
       -0.12271448 -0.23777369 -0.019650633 0.2086767
0000b0 14 d3 81 3e 2a 66 71 be d1 c0 ee 3c 8e 0d 77 3e
       0.25356352 -0.23574129 0.029144676 0.24126264
0000c0 d3 83 69 bd 4c d7 47 be ef 70 71 3e 9c 46 07 3d
       -0.057010483 -0.19515723 0.23578237 0.033026323
0000d0 c3 55 63 3e cc a8 bf 3e cf 9e c6 be ef c6 46 3e
       0.22200684 0.3743347 -0.38793036 0.19411825
0000e0 f9 60 08 3e 98 79 4a 3e 74 47 dd 3a ed 6a f2 bd
       0.13318242 0.19772947 0.0016882257 -0.11836801
0000f0 4a ed a6 be 99 13 2c 3e 89 18 bb bd 88 f5 d5 3d
       -0.32602912 0.16804351 -0.09135539 0.10447222

mdn_layer.pi.weight f4 [20, 64]
000000 4b cc 31 bb 8a 93 57 3b 81 fa 54 3b a8 e8 56 bb
       -0.0027129825 0.0032894337 0.0032497945 -0.0032792483
000010 7c 32 71 3a f2 04 ae ba 80 59 56 bb e4 54 57 bb
       0.0009200943 -0.001327662 -0.0032707155 -0.0032856995
000020 9f 12 36 bb d8 d6 80 3a 78 81 20 3b d3 d5 4f bb
       -0.0027782095 0.0009829653 0.0024491232 -0.0031713143
000030 03 61 4d 3b c8 75 54 bb 7e 08 51 3b 75 5b 9d 3a
       0.003133834 -0.0032418836 0.003189593 0.0012005406
000040 a5 df 4d bb eb a5 4a 3b 54 9d 58 3b 2d 70 52 bb
       -0.003141382 0.0030921649 0.003305276 -0.003211032
000050 36 e7 5a 3b 9a 95 58 3b 70 70 4e 3b 8f 53 5a 3b
       0.0033401973 0.0033048154 0.0031500123 0.0033313965
000060 24 80 b8 3a 63 aa 4f 3b 82 13 55 bb e9 78 59 3b
       0.0014076275 0.0031687252 -0.0032512848 0.003318364
000070 7c b5 59 3b 21 b1 4a 3b e9 85 5a bb 9f 75 58 bb
       0.0033219745 0.003092833 -0.0033343977 -0.0033029092
000080 a4 10 f3 39 a0 0f 4f 3b 75 00 8c 3a 02 05 51 bb
       0.0004636097 0.0031595007 0.0010681289 -0.0031893854
000090 ee 7a 54 bb ce b4 a4 ba cb ea 51 bb 23 42 ba b9
       -0.0032421905 -0.0012566091 -0.0032030817 -0.0003552596
0000a0 9c bc 56 bb 19 ee 54 bb 6d ad 0a ba d2 be 46 3b
       -0.0032766229 -0.003249055 -0.00052901247 0.003032614
0000b0 dd ad 50 3b 2f b6 4c bb 3c 7a 33 bb 00 43 4f 3b
       0.0031841912 -0.003123652 -0.002738609 0.0031625628
0000c0 83 9a 16 ba 5c a9 53 bb c0 1e 4a 3b 22 65 18 b8
       -0.000574507 -0.003229699 0.0030841082 -3.633381e-05
0000d0 21 c1 53 3b c8 cf 57 3b 23 c9 57 bb 13 25 52 3b
       0.0032311159 0.0032930244 -0.0032926283 0.0032065555
0000e0 6f 8e 39 3b 6e a7 53 3b 60 4d e1 39 bf ab 02 b9
       0.0028313657 0.003229584 0.00042972993 -0.00012461747
0000f0 69 af 57 bb 17 1e 17 3b 3f 06 0d ba be be d6 3a
       -0.003291095 0.0023058706 -0.0005379654 0.001638375
000100 57 ad 5e bb 50 36 8e 3b ce d9 8d 3b 40 34 8d bb
       -0.003397783 0.0043399706 0.004328943 -0.004309207
000110 60 ca 37 3a f5 e9 b6 ba ae e3 8c bb fc f7 8f bb
       0.0007011052 -0.0013955223 -0.0042996025 -0.0043935757
000120 ce 04 65 bb 6e 63 c3 39 3c 96 00 3b 03 3b 88 bb
       -0.003494549 0.0003726738 0.0019620797 -0.0041574254
000130 08 aa 89 3b ff dc 8d bb d2 76 8a 3b e5 69 0c 3b
       0.0042011775 -0.0043293233 0.0042255903 0.0021425423
000140 2f 96 83 bb 11 ab 87 3b bd 8c 8e 3b d3 67 8b bb
       -0.004015706 0.0041402658 0.0043502734 -0.00425432
000150 cc 14 90 3b b0 1c 90 3b 4a 83 8a 3b 67 fe 8f 3b
       0.0043970104 0.004397951 0.0042270767 0.004394341
000160 14 f9 e5 b9 9d 05 87 3b eb 5a 8b bb e3 4c 8f 3b
       -0.0004386386 0.004120542 -0.0042527816 0.0043731793
000170 e5 76 8d 3b 78 6d 83 3b d1 53 90 bb f3 78 8f bb
       0.004317152 0.0040108524 -0.004404523 -0.004378432
000180 3d b6 90 3a 01 58 8a 3b aa 09 9d 3a 42 ce 88 bb
       0.0011040639 0.0042219167 0.001198103 -0.0041749785
000190 dc e2 8c bb 54 e6 6e b9 e3 1b 8b bb d4 95 47 39
       -0.0042995047 -0.00022783253 -0.0042452677 0.00019033934
0001a0 5a e7 8c bb 86 32 8d bb 69 c0 98 ba c6 fe 7a 3b
       -0.00430004 -0.0043090014 -0.0011654022 0.003829883
0001b0 51 49 89 3b 77 33 88 bb 9b 4c 61 bb 09 8f 8a 3b
       0.004189648 -0.0041565257 -0.0034377936 0.004228477
0001c0 d2 3d 94 b7 4e e9 8b bb cb fb 84 3b 6b 95 0c 39
       -1.7671762e-05 -0.0042697554 0.0040583364 0.00013407103
0001d0 90 ae 8c 3b d7 c6 8e 3b a8 91 8d bb 16 23 8b 3b
       0.0042932704 0.0043571997 -0.004320342 0.004246126
0001e0 f6 df d4 3b a1 1f 8c 3b f7 7d e6 39 45 3b 7a ba
       0.006496425 0.0042762314 0.0004396287 -0.0009545575
0001f0 a1 f0 8f bb 28 50 b5 3a 31 7b ef 39 e4 1a 7b 3a
       -0.004392699 0.0013833093 0.00045677417 0.0009578897
000200 ca ba ec 3b b2 91 f7 bb 2b 81 f8 bb 84 36 f4 3b
       0.0072244154 -0.00755521 -0.0075837574 0.007452788
000210 2f 9a 1d 39 9f 72 c5 39 c2 3a f7 3b 17 f8 fa 3b
       0.00015030125 0.00037660167 0.0075448463 0.007658969
000220 09 9e dc 3b 71 4f 4e 3a 96 55 90 ba 18 a9 f0 3b
       0.0067327064 0.0007870114 -0.0011011835 0.0073443763
000230 ba 22 f4 bb 09 97 f9 3b c5 cf f4 bb 80 1f 6f ba
       -0.007450429 0.0076168817 -0.007471057 -0.00091218203
000240 1d d4 e9 3b e8 3b f3 bb 85 3b f8 bb d3 5d f5 3b
       0.0071358816 -0.007422913 -0.0075754547 0.0074879914
000250 a4 47 f9 bb 3c be fa bb c7 c5 f4 bb b9 dc f8 bb
       -0.007607417 -0.0076520722 -0.007469866 -0.0075946716
000260 7e 84 c3 3a 55 fc f1 bb 84 49 f3 3b b1 3c f7 bb
       0.0014916805 -0.0073848167 0.007424535 -0.007545077
000270 64 9e f3 bb 76 f2 ed bb 41 24 f9 3b 52 68 fa 3b
       -0.007434653 -0.0072615696 0.0076031988 0.0076418305
000280 e0 2a 9d 38 7c 6d f4 bb be 6e bc 39 11 c7 f3 3b
       7.4943295e-05 -0.0074593406 0.00035940664 0.007439502
000290 60 ae f6 3b 69 e9 e2 39 b7 f8 f4 3b c7 5b 9d ba
       0.0075281113 0.00043279983 0.007475938 -0.0012005501
0002a0 81 5d f4 3b ef 64 f4 3b 5c f2 26 b9 b2 f2 e5 bb
       0.0074574356 0.0074583213 -0.0001592128 -0.007017457
0002b0 d9 b4 f0 bb c4 8e ee 3b 8a 92 f5 3b 70 0c f5 bb
       -0.0073457775 0.0072802026 0.0074942755 -0.0074782893
0002c0 1a 1d 03 ba bb 71 f5 3b f0 c0 f1 bb 2e 07 3b 3b
       -0.000500159 0.0074903644 -0.0073777363 0.0028538215
0002d0 ca fa f7 bb 2a b0 f7 bb 1a e9 f6 3b 9b 2f f5 bb
       -0.007567738 -0.007558842 0.007535112 -0.0074824817
0002e0 ef e2 ef ba 15 c2 f2 bb e5 92 0c 3a 49 7d 17 3a
       -0.0018301884 -0.0074083903 0.0005362465 0.0005778862
0002f0 26 e4 fa 3b 8c 72 e1 b9 06 ac 63 b9 f4 2b e9 b9
       0.007656592 -0.00043000688 -0.0002171249 -0.0004447397
000300 41 0b 84 3c 4f 42 95 bc 75 66 95 bc 92 35 93 3c
       0.016118648 -0.018220095 -0.018237332 0.01796988
000310 5e a7 c3 ba 02 0c e9 39 8a 1a 95 3c 60 12 97 3c
       -0.0014927199 0.0004445017 0.018201131 0.01844138
000320 11 60 83 3c cf d1 2d b8 ed e0 96 bb 1f ce 90 3c
       0.016037019 -4.1441814e-05 -0.00460445 0.017676411
000330 f6 ed 92 bc 13 ea 95 3c 49 23 93 bc 16 4b f2 ba
       -0.017935734 0.018300092 -0.017961161 -0.0018485512
000340 c1 9a 8c 3c 27 65 92 bc 47 cd 95 bc 92 aa 93 3c
       0.017163636 -0.017870499 -0.01828636 0.01802567
000350 75 5c 96 bc 8a e2 96 bc 0d 42 93 bc bd 13 96 bc
       -0.018354634 -0.01841857 -0.017975831 -0.018319959
000360 8a 5b 57 39 2f 4f 91 bc 34 df 92 3c 02 39 95 bc
       0.00020538099 -0.017737953 0.017928697 -0.01821566
000370 92 67 93 bc dc bb 8e bc ae 52 96 3c 10 c4 96 3c
       -0.017993722 -0.017423563 0.018349972 0.018404037
000380 bd 4c 30 b9 07 e9 92 bc 00 75 82 b9 7b dd 92 3c
       -0.00016813255 -0.017933382 -0.00024882704 0.017927876
000390 2f 6c 94 3c 92 a5 51 3b ac bc 93 3c e8 07 65 ba
       0.018117992 0.0031989557 0.018034302 -0.0008736835
0003a0 9c de 93 3c 17 73 93 3c bf a9 60 39 1a 38 8a bc
       0.018050484 0.017999215 0.0002142554 -0.016872454
0003b0 d0 e6 90 bc 51 45 8f 3c 47 49 87 3c d8 c4 93 bc
       -0.017688185 0.017489107 0.016514434 -0.018038198
0003c0 2d 7f 81 37 ea f7 93 3c 01 54 91 bc d4 f7 e5 3b
       1.543722e-05 0.01806255 -0.017740251 0.007018069
0003d0 7e 60 95 bc ab 22 95 bc 61 dc 94 3c cf 76 93 bc
       -0.018234488 -0.018205008 0.018171491 -0.018000988
0003e0 96 d0 82 bb b4 a7 92 bc ec cd 80 39 4c bb 50 39
       -0.0039921505 -0.017902233 0.00024567486 0.000199062
0003f0 54 32 97 3c 43 d7 49 bb f0 44 a3 b8 6d cb 2f bb
       0.018456616 -0.0030798472 -7.785286e-05 -0.0026824132

mdn_layer.pi.bias f4 [20]
000000 ea 41 5c 3b 84 59 91 3b 81 af fc bb 90 08 98 bc
       0.0033608624 0.00443572 -0.0077113514 -0.01855877
000010 67 65 90 3b 2d 7b 28 39 fe da 89 3b 7b 43 b1 3b
       0.0044066194 0.00016067615 0.004207014 0.0054096556
000020 e7 aa bc bb 05 b3 99 ba c0 5e da 3b 74 39 09 bc
       -0.005757678 -0.0011726326 0.006664127 -0.008375514
000030 5f a6 8a ba 83 ed c8 3b f7 45 f6 3a f2 66 a1 ba
       -0.0010578147 0.006131829 0.0018789162 -0.0012314005
000040 c0 dc 5b 38 07 68 c2 3b 56 fd ac 3b fe b2 84 bb
       5.241926e-05 0.005932811 0.0052792234 -0.004049658

mdn_layer.sigma.weight f4 [1000, 64]
000000 d2 a8 d8 3d d4 07 0f be 1d 55 10 be fe 02 1a 3e
       0.10579075 -0.1396783 -0.14094968 0.15040204
000010 ce 9d a7 bd ef 1c 40 bb f6 4c 07 3e bf 2f 07 3e
       -0.08184396 -0.002931412 0.13212952 0.13201807
000020 7d 22 f3 3d 5c 04 02 bd 84 8b d5 bd 1e d8 0b 3e
       0.118718125 -0.03174244 -0.10427001 0.13656661
000030 79 fa 10 be 84 2f 0c 3e fa c1 0f be 1f 00 77 be
       -0.14158048 0.13690001 -0.1403884 -0.2412114
000040 a8 df 0f 3e de ad 12 be 15 45 0e be ce 2c 0e 3e
       0.14050162 -0.14324138 -0.1389354 0.13884279
000050 ca 1c 0a be 41 2b 07 be dd 45 12 be e5 37 0d be
       -0.13487545 -0.13200094 -0.14284463 -0.13790853
000060 93 2a bd bb 17 5a 09 be 24 4e 15 3e a3 7b 0e be
       -0.0057728975 -0.13413273 0.1458059 -0.13914351
000070 49 88 0c be 61 9d 10 be dc 0f 0d 3e 0e 82 07 3e
       -0.13723864 -0.14122535 0.13775581 0.13233206
000080 ac 35 b4 bd 90 6c 14 be 7e ed 95 3c 92 a6 09 3e
       -0.087992996 -0.14494538 0.018301722 0.13442448
000090 45 b1 0f 3e 62 b8 c4 3d 7f 0e 0e 3e a9 2a 40 3c
       0.14032467 0.09605481 0.13872717 0.011728921
0000a0 c3 d2 14 3e dd 90 15 3e 26 1c 05 3e 41 1a ff bd
       0.14533524 0.14606042 0.12999019 -0.124561794
0000b0 b8 3e 11 be 6e 7e 26 3e 66 5f eb 3d 21 34 12 be
       -0.14184082 0.16259167 0.11492805 -0.14277698
0000c0 d1 e0 a3 3c 86 4c 0e 3e 1c 98 0f be e0 a7 2d 3e
       0.020004662 0.13896379 -0.14022869 0.1695857
0000d0 3f ca 0c be 51 2d 18 be 7c 8f 0f 3e 7b bf 17 be
       -0.13749026 -0.14861037 0.14019579 -0.14819138
0000e0 fd 1c 36 3d ef 2f 12 be ed fe 8a 3d eb e2 2a bd
       0.04446124 -0.14276098 0.067869045 -0.041720312
0000f0 bf 25 08 3e 71 25 1c bd a7 87 3d bd 6d e9 4f be
       0.13295649 -0.038121644 -0.046271946 -0.20303889
000100 2f 6b db 3d 68 f4 26 be 76 41 24 be 06 a8 27 3e
       0.10713803 -0.16304171 -0.16040596 0.1637269
000110 65 ed 21 bd 87 99 47 bd f9 fe 1d 3e 0e 7f 27 3e
       -0.039533038 -0.0487304 0.15429296 0.16357061
000120 48 4e 05 3e 09 76 82 bd bf b6 1f be e2 26 15 3e
       0.13018143 -0.0637017 -0.15597056 0.14565614
000130 24 07 24 be c5 53 2c 3e 35 09 1e be df 04 c4 bc
       -0.16018349 0.1682883 -0.154332 -0.023928104
000140 0c 1e 11 3e c7 5e 20 be eb 90 23 be 4e d3 22 3e
       0.14171618 -0.15661155 -0.1597325 0.15900919
000150 46 da 22 be 49 5b 31 be d3 58 25 be e8 9f 23 be
       -0.15903577 -0.17319979 -0.16147165 -0.15978968
000160 f0 6b 9f bc 80 d6 1b be 46 81 22 3e 8d fd 22 be
       -0.019460648 -0.15218544 0.15869626 -0.15917034
000170 28 39 22 be 12 b8 16 be 0d 75 28 3e 3e ce 23 3e
       -0.15842116 -0.14718655 0.16450901 0.15996644
000180 c0 e0 19 bd 3a 42 1e be 82 71 6d bc d0 f1 1c 3e
       -0.037567854 -0.15454951 -0.014492394 0.15326619
000190 e6 2a 27 3e c4 6a fd 3b e4 2f 22 3e 10 e8 e2 3c
       0.16324958 0.0077336747 0.15838581 0.027698547
0001a0 f6 af 22 3e a0 85 28 3e 13 95 3d 3b ad 84 05 be
       0.15887436 0.16457224 0.0028927966 -0.13038893
0001b0 5b eb 1d be 2d 77 26 3e 04 6a cc 3d 2f f6 21 be
       -0.15421812 0.162564 0.099811584 -0.15816568
0001c0 da 0d 81 3d 45 2b 1f 3e 75 f7 0f be e1 b0 fe bc
       0.0630147 0.1554385 -0.14059241 -0.031090202
0001d0 e5 15 1b be 12 6e 20 be ff 7b 21 3e a9 8e 2a be
       -0.15145071 -0.15666988 0.15769957 -0.16655983
0001e0 29 06 bf bd 7c 9f 1b be 6b 97 03 bd d3 d3 f0 3b
       -0.09327347 -0.15197557 -0.032126825 0.00734947
0001f0 a7 bd 24 3e 05 cd c4 bd 9e a0 de 3c ab 32 1f bb
       0.16087972 -0.09609417 0.027176198 -0.0024291675
000200 cc 06 94 3d ee 66 f2 bd 4f dc f4 bd 30 9d 08 3e
       0.07227859 -0.118360385 -0.11956083 0.13341212
000210 cd 12 d5 bd dc 52 bb 3c b2 28 d9 3d 11 28 d9 3d
       -0.104039766 0.022866659 0.10603465 0.10603345
000220 46 88 bf 3d 63 00 e5 bc 08 75 bf bd 8c 9b eb 3d
       0.09352164 -0.027954286 -0.09348494 0.115042776
000230 ad 8c f6 bd ef e0 e5 3d 33 74 f4 bd 24 a9 97 be
       -0.120385505 0.11224543 -0.11936226 -0.29621232
000240 ec de fb 3d ee 8c f3 bd 7d a7 ee bd 9b b3 ef 3d
       0.12298378 -0.118921146 -0.116530396 0.11704179
000250 88 c9 e0 bd 02 70 da bd 2a 4b f8 bd f5 3c ec bd
       -0.10975939 -0.10665895 -0.121237114 -0.11535064
000260 82 cd 86 bb 64 1d e0 bd e3 04 00 3e 88 7e f2 bd
       -0.004113854 -0.10943106 0.12501864 -0.1184054
000270 51 e1 e9 bd c2 4e f9 bd e2 4e ea 3d e8 9e d9 3d
       -0.11419929 -0.12173225 0.11440827 0.10626012
000280 51 0c b2 bd 79 ff fb bd 4d 67 86 3c 55 a9 e2 3d
       -0.086937554 -0.12304587 0.01640668 0.11067454
000290 f6 b1 f3 3d 11 55 0b 3e da aa ed 3d 07 18 12 b8
       0.11899178 0.13606669 0.11604853 -3.483149e-05
0002a0 20 16 00 3e 35 22 02 3e 4e d0 21 3e aa 54 d3 bd
       0.1250844 0.12708361 0.15802118 -0.10318883
0002b0 6f cd fc bd 2e 8f 1a 3e 62 5c 98 3d 1a 91 f4 bd
       -0.12343871 0.15093681 0.074394956 -0.119417384
0002c0 2a 5e 95 3c 23 46 f3 3d 31 8e ed bd 6a 02 63 3e
       0.018233377 0.11878612 -0.115993865 0.2216889
0002d0 fb 63 e8 bd e3 da 04 be 32 42 f1 3d 89 d1 04 be
       -0.11347195 -0.12974124 0.11780204 -0.12970556
0002e0 4c ce ba 3d e0 01 00 be 4a 61 af 3d 11 e3 3b bd
       0.09121379 -0.12500715 0.08563478 -0.045870844
0002f0 dd e1 d9 3d 60 65 22 bb 5d fb a2 bd 99 22 87 be
       0.10638783 -0.0024779662 -0.079581 -0.26393583
000300 14 5d 8f 3d a9 77 15 be 75 bd 16 be e6 05 13 3e
       0.07000175 -0.14596428 -0.1472071 0.14357719
000310 6b fe 47 bd 70 8a 99 bd 2c 2d 12 3e d5 09 1b 3e
       -0.048826616 -0.07497108 0.14275044 0.1514047
000320 a3 60 c8 3d 80 23 91 bd e1 77 44 be 0b 0c 08 3e
       0.09784057 -0.07086849 -0.19186355 0.13285844
000330 bb e3 0f be 1e 36 18 3e f8 4e 11 be 1f 00 02 bd
       -0.14051716 0.14864394 -0.1419028 -0.031738397
000340 44 9b f2 3d 5d 7c 08 be da 1e 16 be ab 77 13 3e
       0.11846021 -0.13328691 -0.14660206 0.14401118
000350 bf 85 1a be d4 8b 1b be 4f 35 0f be d0 c0 16 be
       -0.15090083 -0.15190059 -0.1398518 -0.1472199
000360 39 04 18 bc 24 f2 03 be f3 a0 15 3e c1 f0 13 be
       -0.0092783505 -0.12885338 0.14612179 -0.14447309
000370 d9 f2 15 be 19 5e f4 bd a5 37 18 3e 69 96 18 3e
       -0.1464342 -0.1193201 0.14864977 0.14901127
000380 cc 3a 3b bd 2e 68 10 be 19 83 0b bc bd c4 07 3e
       -0.04571037 -0.14102241 -0.008515143 0.13258643
000390 f5 4b 15 3e 87 52 b1 3b a4 30 0d 3e 75 14 06 3d
       0.14579757 0.0054114494 0.13788086 0.032734353
0003a0 a1 39 11 3e 84 7a 10 3e 1b 6e a6 3c 0a 7f e2 bd
       0.1418214 0.14109236 0.020316174 -0.11059387
0003b0 29 30 0c be bb fc 0e 3e e2 ff 77 3d c9 76 0a be
       -0.13690247 0.13963597 0.060546763 -0.13521875
0003c0 f4 39 9f 3d af 75 11 3e ed c1 fb bd 67 74 4e bd
       0.077747256 0.14205049 -0.12292848 -0.05040398
0003d0 00 81 12 be 5b cd 16 be 14 33 15 3e 4b 19 10 be
       -0.14307022 -0.14726774 0.14570266 -0.14072149
0003e0 66 f8 12 be 0a 6c 0d be f0 b2 fc bc 49 5f 25 3c
       -0.14352569 -0.13810745 -0.030847043 0.0100935185
0003f0 f8 bf 19 3e 41 e0 c5 bd 0e bf 65 3c 6c 1f 8a 3a
       0.15014637 -0.09661914 0.014022602 0.0010537929

mdn_layer.sigma.bias f4 [1000]
000000 99 01 01 be b5 b5 29 be 3d 33 c5 bd 51 f8 1e be
       -0.12598266 -0.16573222 -0.096289136 -0.15524413
000010 17 b1 a7 bd de 8e 15 be 74 ff 9c bd 76 64 10 be
       -0.08188074 -0.14605281 -0.07665911 -0.14100823
000020 cb 05 9d bd a8 d2 0b be f2 a7 a5 bd df 31 08 be
       -0.076671205 -0.13654578 -0.08088674 -0.13300274
000030 b4 eb ae bd c4 69 04 be a0 ec b8 bd 63 13 ff bd
       -0.085410506 -0.12930971 -0.09029508 -0.124548696
000040 eb e7 c0 bd 36 9e f6 bd 11 5b c5 bd 6d ad f1 bd
       -0.09419235 -0.12041895 -0.0963651 -0.118006565
000050 b3 9b c5 bd 63 6f e9 bd 22 25 c3 bd 83 5f e4 bd
       -0.09648838 -0.113981985 -0.09528567 -0.1115103
000060 6c 3c c0 bd 8a d5 e0 bd 6c 93 bb bd 6f ee da bd
       -0.093865246 -0.10978229 -0.09158978 -0.10690009
000070 43 e7 b5 bd 88 0a d5 bd 50 38 b1 bd 3c fc d1 bd
       -0.08882 -0.10402399 -0.08653319 -0.10253188
000080 4c 3d ae bd 0e 00 ce bd c5 6c ab bd d5 97 ca bd
       -0.08507785 -0.10058604 -0.083703555 -0.09892241
000090 6d c7 a7 bd 82 e0 c5 bd 14 07 a2 bd ed ca bf bd
       -0.08192334 -0.09661962 -0.07911506 -0.09364877
0000a0 c4 01 9b bd 9e f7 b8 bd 5e 49 93 bd 85 38 b2 bd
       -0.07568696 -0.09031604 -0.07191728 -0.087021865
0000b0 08 dc 8c bd e2 45 ab bd f9 a0 87 bd 7e dd a3 bd
       -0.06877905 -0.083629385 -0.066225 -0.08001231
0000c0 78 b1 84 bd 63 ff 9b bd f8 a3 07 be e5 78 23 be
       -0.06479162 -0.076170705 -0.13246143 -0.15964086
0000d0 75 37 cc bd a8 65 16 be eb 62 a8 bd fa 8c 0d be
       -0.09971515 -0.14687216 -0.08221992 -0.1382331
0000e0 29 2d 9d bd 0d 97 07 be b0 48 9b bd 75 a3 01 be
       -0.07674629 -0.13241215 -0.075822234 -0.1266001
0000f0 07 c8 9e bd 68 e4 f7 bd 37 0c a4 bd 32 67 e9 bd
       -0.07752996 -0.12104112 -0.08010142 -0.11396636
000100 3a 99 a9 bd f3 38 df bd 14 de b1 bd d6 33 d9 bd
       -0.08281179 -0.10899534 -0.08684936 -0.1060559
000110 d4 6e bc bd b3 04 d7 bd 02 bd c4 bd 69 51 d2 bd
       -0.09200826 -0.10498943 -0.09606363 -0.10269434
000120 e5 cc c7 bd 1d 2d cc bd 35 ca c6 bd c1 49 c5 bd
       -0.097558774 -0.09969542 -0.09706537 -0.09633208
000130 94 a3 c4 bd 89 3d be bd 53 26 c2 bd 38 8a b4 bd
       -0.096015126 -0.09289081 -0.09479966 -0.08815426
000140 e6 42 c0 bd ed e5 af bd 0a 6a bf bd 3c 4c a9 bd
       -0.0938776 -0.08588777 -0.09346397 -0.08266494
000150 99 ff be bd 6d b1 a3 bd 78 61 b9 bd 92 db 9c bd
       -0.09326095 -0.07992826 -0.09051794 -0.07659067
000160 e0 ae b2 bd 7f 72 96 bd 72 14 aa bd 98 a6 8f bd
       -0.08724761 -0.07346057 -0.08304681 -0.07014197
000170 76 2b a4 bd ab f3 88 bd 0d 16 9f bd cb e5 81 bd
       -0.08016102 -0.06687101 -0.07767878 -0.06342658
000180 ec 26 9a bd af a3 7e bd 1b 77 95 bd c4 e7 71 bd
       -0.07526955 -0.06216782 -0.07298108 -0.05905892
000190 7e d6 12 be f9 82 19 be 8e e4 ee bd e8 0f 05 be
       -0.14339635 -0.14991368 -0.11664687 -0.12994349
0001a0 6e 83 ce bd bb dd f2 bd c8 66 b7 bd cd 12 e1 bd
       -0.10083662 -0.11858698 -0.08955151 -0.10989914
0001b0 3e ca a7 bd 94 17 d6 bd d0 16 9f bd 85 2c cd bd
       -0.081928715 -0.10453716 -0.07768023 -0.10018257
0001c0 c1 81 9b bd e4 ab c5 bd 09 8b 9b bd ec 5d bf bd
       -0.07593108 -0.09651926 -0.07594878 -0.09344086
0001d0 b5 4e 9b bd 3e f2 ba bd e3 66 99 bd 8c 06 b7 bd
       -0.075833715 -0.09128235 -0.07490327 -0.089367956
0001e0 54 ab 96 bd 8d a3 b3 bd 70 2e 95 bd de 77 b1 bd
       -0.07356897 -0.08771429 -0.07284248 -0.08665441
0001f0 d4 11 94 bd 64 e9 af bd 13 cc 93 bd 5f 11 ae bd
       -0.07229963 -0.085894376 -0.072166584 -0.08499407
000200 eb 9c 92 bd a7 ea aa bd 34 78 92 bd 4b 2b a7 bd
       -0.07158836 -0.08345538 -0.07151833 -0.08162554
000210 d4 c4 92 bd 72 df a2 bd 0c 9d 92 bd 17 37 9e bd
       -0.07166448 -0.07952775 -0.071588606 -0.07725351
000220 a2 00 93 bd 3b 4f 99 bd 2b aa 93 bd 39 1e 94 bd
       -0.07177855 -0.07485815 -0.07210191 -0.07232327
000230 b5 25 95 bd 0b 97 8e bd f5 f7 95 bd ce f7 88 bd
       -0.07282583 -0.06962403 -0.07322685 -0.0668789
000240 9a 0e 95 bd 25 5c 83 bd ad ab 92 bd 25 d5 7b bd
       -0.07278176 -0.064140595 -0.07161651 -0.061482567
000250 f3 ab 8e bd 73 4c 71 bd 1b 8c 00 be 9f ae f7 bd
       -0.069663905 -0.0589108 -0.12553446 -0.12093853
000260 43 da ca bd 0d 7f c5 bd 5c c3 ad bd de 9f a5 bd
       -0.09904911 -0.09643374 -0.084845275 -0.08087133
000270 06 2b 9d bd aa ed 8e bd 62 23 92 bd 2c 77 81 bd
       -0.07674222 -0.069789246 -0.07135655 -0.06321558
000280 dd 02 88 bd 00 4a 6b bd 61 f3 7c bd 86 84 5a bd
       -0.06641171 -0.05744362 -0.06175554 -0.05334904
000290 fe 92 6b bd 1f 86 4e bd dd 4d 5c bd 29 16 45 bd
       -0.05751323 -0.050420877 -0.053785194 -0.048116837
0002a0 74 04 4f bd 8d c7 3d bd b0 5b 44 bd 6c fc 36 bd
       -0.050541356 -0.046332885 -0.047939003 -0.044674322
0002b0 13 40 3d bd 8b e1 2f bd e4 31 39 bd e5 4f 28 bd
       -0.046203684 -0.042939704 -0.045213595 -0.04109182
0002c0 13 61 35 bd c5 6e 20 bd 8e 98 2f bd 53 b3 18 bd
       -0.04428203 -0.039168138 -0.042870097 -0.037280392
0002d0 40 bb 28 bd 24 45 11 bd 72 b3 22 bd 7c 05 0a bd
       -0.0411942 -0.03546633 -0.039721914 -0.033696637
0002e0 ba 13 1e bd cb a7 02 bd ce 47 1a bd 7a e7 f5 bc
       -0.03859303 -0.0318983 -0.037666135 -0.030017603
0002f0 1f df 16 bd 1e b5 e5 bc bc a5 13 bd ee dd d4 bc
       -0.03683388 -0.028040465 -0.03604673 -0.02598473
000300 5b bc 10 bd a4 a4 c3 bc 78 87 0e bd d6 49 b2 bc
       -0.03533588 -0.023882218 -0.03479716 -0.021763723
000310 42 0a 0d bd 49 03 a1 bc fe d7 0b bd 1c 06 90 bc
       -0.03443361 -0.019654887 -0.034141533 -0.017581038
000320 5d df 12 be 0f 0d 26 be fb 94 f8 bd 03 fd 17 be
       -0.14343019 -0.16215919 -0.12137791 -0.1484261
000330 51 5b e7 bd fb 3c 10 be 01 6a e3 bd 50 a0 08 be
       -0.11296714 -0.14085762 -0.11104203 -0.13342404
000340 f4 bc e3 bd eb 76 05 be cf 56 e1 bd 5e 7d 00 be
       -0.11120024 -0.13033645 -0.110028856 -0.12547824
000350 98 5e e2 bd 6d 73 f6 bd ec 5d e0 bd 0c e2 ee bd
       -0.110531986 -0.120337345 -0.10955414 -0.11664209
000360 4f bd dd bd 44 10 e3 bd 21 7c db bd 07 70 da bd
       -0.108271234 -0.11087087 -0.10717035 -0.10665899
000370 b5 e0 d5 bd 1f d9 d1 bd b7 fa cc bd d1 d2 c9 bd
       -0.1044325 -0.10246491 -0.100087576 -0.09854663
000380 94 05 c7 bd cc f8 c2 bd 70 ad c4 bd 4b 21 bd bd
       -0.09717861 -0.095201105 -0.09603393 -0.09234866
000390 41 5e c4 bd f0 50 b9 bd 1b 60 c5 bd 63 9b b4 bd
       -0.0958829 -0.09048641 -0.09637471 -0.088187
0003a0 c5 79 c5 bd 6c 1a af bd 43 7c c6 bd ff 5b ab bd
       -0.09642366 -0.085499614 -0.0969167 -0.08367156
0003b0 de de c5 bd 59 98 a4 bd 76 e7 c1 bd f2 95 9f bd
       -0.09661649 -0.080368705 -0.09467976 -0.07792272
0003c0 fb c5 bb bd ec 57 99 bd 00 33 b4 bd 8b e6 92 bd
       -0.09168621 -0.07487473 -0.0879879 -0.07172879
0003d0 3f 28 ad bd 69 6d 8c bd 6d aa a6 bd 50 8d 86 bd
       -0.08454942 -0.06856806 -0.08137975 -0.06569922
0003e0 b5 38 a1 bd f1 d8 7f bd 7a 05 02 be 7d 42 20 be
       -0.07872144 -0.06246275 -0.12697402 -0.15650363
0003f0 27 89 c9 bd ea b2 12 be 2c 88 ab bd 29 d2 07 be
       -0.09840613 -0.14326063 -0.08375582 -0.13263763

mdn_layer.mu.weight f4 [1000, 64]
000000 12 d4 df bc 49 a8 67 3c de b7 92 bc 39 a2 a9 3c
       -0.027322803 0.014139243 -0.01790994 0.020707237
000010 0c 89 07 3c 0f 7d 0b 3c 4c f4 ef bb 15 9a c7 bc
       0.008272421 0.008513703 -0.0073228236 -0.024365464
000020 06 ce 0a bc fc b8 b6 3b 1d ad be bb ab 46 aa 3c
       -0.008471971 0.005576251 -0.0058189766 0.02078565
000030 7a c3 c0 3a fb 98 19 b9 c9 bf 00 bc e1 4a 23 3c
       0.0014706694 -0.00014648207 -0.007858225 0.009966583
000040 3b 8b 06 3c ee c3 02 3c 83 95 71 bc 24 cd 4b bc
       0.008211906 0.007981284 -0.014745119 -0.012439046
000050 1d 1c 97 3c ec 52 09 bb d8 38 5d 3c 84 a8 c7 ba
       0.018446023 -0.0020953966 0.013502322 -0.0015232717
000060 0e 4c f0 bc 8c 9c 86 bb da 27 05 3d c5 ba 50 bc
       -0.02933314 -0.0041080173 0.03250871 -0.012739842
000070 9e 69 d8 bc 22 5d 72 b9 8a 96 11 bd 58 13 c4 39
       -0.02641755 -0.00023113613 -0.035543956 0.00037398445
000080 ac 95 e2 3c 2f fe 85 3a 98 a4 a3 3d ec 3b ef 3a
       0.02765926 0.0010222847 0.07990378 0.0018252111
000090 fd 6a 73 ba 5f 1d 26 3d f2 05 fa 3c ba a2 34 3c
       -0.0009285657 0.040555354 0.030520413 0.011025125
0000a0 f0 3c 41 bb c6 2f 5a 39 b8 47 12 3d 06 0d 04 3d
       -0.0029485784 0.00020807897 0.035712928 0.032238983
0000b0 13 f4 e2 bb df 92 08 39 4e 30 b6 3c 3b b7 1e 3b
       -0.0069260686 0.00013024684 0.02223983 0.00242181
0000c0 ee 6c d7 bb b9 23 00 bb bd d7 84 3c e2 bb 21 3c
       -0.0065742647 -0.0019552542 0.016216153 0.009871455
0000d0 d1 74 d3 3c 5f 36 15 ba 58 71 9c 3c cb ca a5 3c
       0.025812538 -0.0005692001 0.019097015 0.0202383
0000e0 2d 9e 4a 3a a1 df 7f bc 84 de 17 bb cd fe 52 3a
       0.00077292585 -0.015617282 -0.00231734 0.00080488325
0000f0 0e df 49 bb 39 74 48 bc 82 d8 26 3c 60 e0 5b 3c
       -0.0030803117 -0.012234741 0.010183455 0.013420194
000100 9b cf 2c bc af c0 86 bb 0f 37 77 bc 89 1b 1d bd
       -0.010547544 -0.004112325 -0.015088811 -0.038356338
000110 51 1d 40 bc 07 f7 e4 3b 3a 38 5a bc bf 9b 6f bb
       -0.01172574 0.0069874558 -0.0133190695 -0.0036561338
000120 cb 24 ff b9 5b 2d 1b 3a b7 c8 14 bc 8a 5d 5f bc
       -0.00048664803 0.0005919539 -0.009081057 -0.013633141
000130 9c 7d c3 bb 5d 01 07 bb 2d ee ca bb 66 d5 a6 3b
       -0.0059659015 -0.0020600178 -0.0061929435 0.005091357
000140 e5 95 a2 3c 72 91 ac bb 88 b9 d9 bc ea 57 37 3a
       0.019846866 -0.005266362 -0.026577726 0.0006993996
000150 57 56 b6 bc 06 49 e7 bc 6f 48 c3 bc 42 63 d7 bb
       -0.022257967 -0.028233062 -0.02383825 -0.0065731118
000160 d3 a5 9e 3b 53 e7 fd 3c c6 ff c2 3c 26 c0 57 3c
       0.004841545 0.030994093 0.023803603 0.01316837
000170 64 88 97 bc 02 13 8d bc d7 db 44 bc d2 06 d9 bc
       -0.018497653 -0.017220978 -0.0120153045 -0.02649251
000180 8e 71 69 bc cb f3 0a bc 86 01 88 3b 51 27 10 bd
       -0.014248265 -0.008480976 0.0041505722 -0.035193745
000190 14 9a 94 bc 41 4e 55 3b 21 6e d5 bc 85 1e b3 bc
       -0.018139876 0.0032547864 -0.02605349 -0.021865139
0001a0 50 81 96 3c 79 23 c5 3c a7 04 d3 3c ab 90 e9 3b
       0.018372208 0.024064766 0.025759054 0.0071278415
0001b0 01 24 f3 bb a4 cc 9d ba bf 4c 6c 3a 62 93 e0 3c
       -0.0074200635 -0.0012039137 0.00090141216 0.027414028
0001c0 73 76 dc 3c f6 57 ef 3b dc 44 f0 bc 19 41 a2 3b
       0.02691195 0.007304187 -0.02932971 0.004951608
0001d0 25 26 c0 3b c1 55 2e 3b ab c4 5d bb ec 84 02 3d
       0.005863922 0.0026601406 -0.0033839147 0.031865045
0001e0 31 30 3b 38 53 3f 3b bc 48 d5 cd bb 76 7f 3c ba
       4.4629156e-05 -0.011428672 -0.0062815286 -0.0007190624
0001f0 3c 6a 00 bd eb c6 10 bc e7 89 e9 3c 23 28 9d 3b
       -0.031351313 -0.008836488 0.02850814 0.0047960444
000200 09 50 ec bc 53 2e 4e 3b 91 f0 9a 3c c8 5e 1f 3d
       -0.028846757 0.0031460717 0.01891354 0.03890875
000210 b6 bd 02 3d ae 76 5f 3c dd f0 b0 3c d1 10 59 bb
       0.031919204 0.013639135 0.021599228 -0.0033121596
000220 e0 3d 60 bb e0 63 d6 3b bf df a2 bc 13 63 e3 bb
       -0.0034216568 0.0065426677 -0.019882081 -0.006939301
000230 6b 17 ff 3b 4c c0 8a 3c 83 cf 47 3d df 21 16 3c
       0.007784774 0.016937397 0.048781883 0.009163349
000240 95 b1 01 bc a2 c9 ba bb 0a e0 06 bd af 87 5d bb
       -0.007915874 -0.005700306 -0.032928504 -0.0033802798
000250 56 b3 34 3c 3f 61 b9 bb f8 3e 9a bc 50 27 96 bc
       0.011029085 -0.0056573446 -0.018828854 -0.018329293
000260 e8 ba 50 bd b5 f6 9b 3c 20 f2 5b 3c 24 c4 bb 3c
       -0.050959498 0.019038538 0.013424426 0.022920676
000270 76 09 c0 b8 07 37 67 bb 48 24 33 3c eb 0c 99 3c
       -9.157036e-05 -0.0035280602 0.010933943 0.018682918
000280 a3 cf 54 3d 81 68 29 3c 61 3a 1d 3e ae bb 47 bc
       0.05195583 0.010339857 0.15354301 -0.012190742
000290 e9 ce 01 bd 2d 92 aa 3d f3 ba 8a bc 0c d5 54 3d
       -0.031691466 0.08328662 -0.016934847 0.05196099
0002a0 f9 6e 4a 3c 4d 9f b0 3b 9c 19 87 3d fb ef 09 bd
       0.0123555595 0.005390084 0.065966815 -0.03367613
0002b0 c4 45 98 bb 93 52 69 bc 13 b3 9e 3c 70 12 44 3c
       -0.0046469886 -0.014240879 0.019372499 0.0119672865
0002c0 48 8d a8 bc 17 dd 73 bc a0 52 6d 3c 27 4d 38 3c
       -0.02057518 -0.014884255 0.014485031 0.011248863
0002d0 66 8c 08 bd 87 41 cf bc 05 36 97 3c fd 51 b7 3b
       -0.03333702 -0.0252998 0.018458376 0.0055944906
0002e0 0f 0b ae 3b 63 a1 54 3c 64 46 56 bc 84 84 6c 3b
       0.005311377 0.012977931 -0.013078306 0.0036089728
0002f0 c5 8b d0 bc 7d 9b 9d bc 2b 2c eb bb 10 3a 02 3d
       -0.025457272 -0.019239182 -0.007176896 0.031793654
000300 22 05 8f bc 20 f7 a3 3c 1c 1c 7f 3c 15 e7 bb 3c
       -0.017458502 0.0200153 0.015570667 0.022937337
000310 28 fe c0 bc 9a f6 8f 3c a7 2e cc bc 62 e9 83 3b
       -0.023558691 0.017573643 -0.02492459 0.004025624
000320 3c 22 54 bc 9c d2 90 3a ce 7c a8 bc 78 af c5 bb
       -0.012947615 0.0011049095 -0.020567324 -0.0060328804
000330 51 8b 86 3c 39 7b aa bc dc 8f 44 3c 45 84 12 3c
       0.016423853 -0.02081071 0.011997189 0.008942668
000340 be 40 68 bb 1d d9 df 3b fb 90 83 bc cd 92 7b bb
       -0.003543898 0.006831302 -0.016060343 -0.003838706
000350 fc 35 9b bc 6e 2d 30 3b 51 ff 9b 3c 65 be 76 3c
       -0.01894664 0.0026882547 0.019042643 0.015060042
000360 30 ce 13 3c 6b 2f de bb 4c b2 43 bc 1b a4 fe 3a
       0.009021327 -0.006780555 -0.011944365 0.0019427569
000370 5c 73 fe 3b 5b a1 f2 3c d6 b7 17 3b b6 f7 b1 bc
       0.0077652168 0.029617956 0.0023150346 -0.021724563
000380 3a 0f e8 bc 24 b3 86 bb 58 20 3a 3c 8f 4b d2 3c
       -0.028327573 -0.0041107107 0.01136025 0.025670795
000390 de 49 f4 3c 4c ff 03 3c d2 89 9d bc d1 60 2c bd
       0.029820379 0.008056473 -0.019230757 -0.04208452
0003a0 5a c0 01 bc 1e 65 e0 3c 7d 3d 4f 3d b8 72 d8 bc
       -0.007919395 0.027391966 0.05059575 -0.02642189
0003b0 c6 d0 65 3b ab 08 d1 3b a0 81 22 39 a2 e5 aa bc
       0.0035067066 0.006379207 0.00015497813 -0.02086145
0003c0 f2 86 3b 3d a0 25 25 bc ed 08 6d 3c fd cc 4e 3c
       0.04578299 -0.010079771 0.01446746 0.012622115
0003d0 d6 0c 27 bd 44 1b 14 3b 57 62 37 3c 97 4f 94 3b
       -0.040783726 0.002259926 0.01119288 0.0045260894
0003e0 3e 33 10 b9 ec e6 61 bc 2f 8d 15 bc d5 0a 1b bc
       -0.00013752 -0.013787966 -0.009127899 -0.009463032
0003f0 69 60 25 3c 86 a1 b2 bc b5 ad 43 3d 9d 15 3a 3c
       0.010093787 -0.021805536 0.04777308 0.011357692
