CKLD/lap_kld_record-v5-eig3/gaussian20/dataset0/trained_models/mdn_model_epoch999.tar (torch, 557897 bytes, 10 tensors)

ip_emb.weight f4 [64, 47]
0	0xbe50b69f	-0.20382164
1	0x3e33ab1a	0.17545739
2	0x3e14784d	0.14499016
3	0x3ebe48bf	0.37164876
4	0x3e2e3527	0.17012464
5	0x3e977530	0.29581594
6	0x3e1d199c	0.153418
7	0x3dd0a817	0.101883106
8	0x3ec03f6f	0.37548396
9	0x3e90c32b	0.282739
10	0x3d63cd71	0.055615846
11	0x3e0130a4	0.12616211
12	0xbe196010	-0.14978051
13	0x3ea0573c	0.31316555
14	0x3c0b4c13	0.008502024
15	0x3e4a2465	0.19740446
16	0x3dd77edd	0.10522244
17	0x3e6af83b	0.22946255
18	0xbeffa903	-0.49933633
19	0x3e944f1c	0.28966606
20	0x3eee5db0	0.46555853
21	0x3e2579a6	0.16159686
22	0x3fae6be9	1.3626682
23	0x3eb3d3d4	0.3512255
24	0xbbe4e26b	-0.006984999
25	0x3e2a5ade	0.16636226
26	0xc0134fb7	-2.3017404
27	0x3e456029	0.19274963
28	0x3fb1b10b	1.3882154
29	0x3d128551	0.03577167
30	0xbe059a21	-0.13047077
31	0x3db240b5	0.08703748
32	0x3e42fe4e	0.19042322
33	0x3de53a1a	0.111927226
34	0xbd84d66e	-0.06486212
35	0x3d9459ac	0.07243666
36	0xbd28b4df	-0.041188117
37	0xbe53c9e8	-0.2068249
38	0x3d78cff6	0.060745202
39	0xbd68d34f	-0.056842145
40	0x3c7ed061	0.015552611
41	0x3e50e64f	0.20400356
42	0x3e12c2a6	0.14332065
43	0xbc81cc59	-0.01584451
44	0xbbe4d478	-0.006983336
45	0x3df88304	0.12134364
46	0xbe687218	-0.22699773
47	0x3edade3e	0.42747682
48	0x3e2dbd74	0.16966802
49	0x3e4a3c91	0.19749667
50	0x3e21fe9f	0.15819786
51	0x3eca3ce8	0.39499593
52	0x3e114c6e	0.14189312
53	0x3eb6f3d9	0.35732916
54	0x3dd8859a	0.105723575
55	0x3d75f338	0.060046405
56	0x3c833db8	0.01602064
57	0x3ea31830	0.3185439
58	0xbe1683bd	-0.14698692
59	0x3e77549d	0.24153371
60	0x3d2fe2a0	0.042940736
61	0xbd778e95	-0.06043871
62	0x3df13560	0.117777586
63	0xbf0225ac	-0.5083873
64	0xbc8a75fc	-0.016901962
65	0xbc4d3413	-0.0125246225
66	0xbe0de185	-0.1385556
67	0xbf726231	-0.9468108
68	0xbdbf3777	-0.09336751
69	0xbfe8db80	-1.8191986
70	0xbe9e11db	-0.30872998
71	0xbf4ec91e	-0.8077563
72	0xbe434191	-0.1906798
73	0x3f31f68c	0.69516826
74	0xbdfabf1c	-0.122434825
75	0xc0588585	-3.3831494
76	0x3e7866f7	0.24258028
77	0xbdd99bc1	-0.10625411
78	0x3d233acd	0.039851
79	0xbda230d3	-0.07919469
80	0xbd59d9b1	-0.053186122
81	0xbbe1ed28	-0.0068947263
82	0xbcd0e08a	-0.025497694
83	0xbd81a145	-0.06329588
84	0xbd80f785	-0.062972106
85	0xbc940706	-0.018069755
86	0x3cefed96	0.029288094
87	0xbd5382d4	-0.05163844
88	0x3cb73976	0.022366267
89	0x3c32e63c	0.01091915
90	0xbcb2efb3	-0.021842813
91	0xbd00a9b9	-0.03141186
92	0x3d02a77d	0.03189801
93	0xbce9f471	-0.028558942
94	0x3ef5414e	0.47901386
95	0xbd3585da	-0.044317104
96	0x3ecb1312	0.39662987
97	0xbda2798d	-0.0793334
98	0x3de41976	0.11137669
99	0xbd5cfc67	-0.053951647
100	0x3e3e9f58	0.18615472
101	0x3d8f2406	0.06989293
102	0x3eafa5d4	0.34306204
103	0xbde91139	-0.11380238
104	0xbd8e99cc	-0.06962928
105	0xbdb66622	-0.08906199
106	0xbe5117f8	-0.204193
107	0xbd32c732	-0.043647
108	0x3da4853b	0.08033224
109	0x3d2202b0	0.039553344
110	0xbe0b2bba	-0.13590899
111	0xbdd14363	-0.10217931
112	0xbf008ca1	-0.5021458
113	0xbe45d12a	-0.19318071
114	0xbeb21e37	-0.34788677
115	0xbe34a0ab	-0.17639415
116	0xbed4703d	-0.4149188
117	0xbddfa1d5	-0.10919539
118	0xbf906676	-1.1281269
119	0xbdbd2aa5	-0.092366494
120	0xbfdab70f	-1.7087115
121	0x3dca2168	0.09869653
122	0x3fe54385	1.791123
123	0x3f069145	0.52565414
124	0xbd99a18f	-0.07501518
125	0xbd5944b1	-0.053044025
126	0xbd3763c6	-0.044772886
127	0xbb6f8680	-0.0036548674
128	0x3dd6c976	0.104876444
129	0xbc9794e4	-0.018503614
130	0xbc9d0c2f	-0.019170849
131	0xbd50f151	-0.051011387
132	0xbd18e2cf	-0.037325677
133	0xbc0f9167	-0.008762694
134	0x3d9f19be	0.07768582
135	0x3d994f4b	0.07485827
136	0x3dc625e8	0.09675199
137	0x3cc3537e	0.023843523
138	0xbbb938af	-0.005652509
139	0x3dc975ff	0.09836959
140	0xbcefb092	-0.029259
141	0xbda03b9e	-0.07823871
142	0x3ca1f95a	0.01977222
143	0x3d69fc7e	0.05712556
144	0x3d826bed	0.063682415
145	0xbdf464c6	-0.119332835
146	0x3d93bed3	0.07214131
147	0xbd23fc8d	-0.040035773
148	0x3dcf0acf	0.101094835
149	0xbca94674	-0.020663477
150	0x3d11afb3	0.03556795
151	0x3d484e5d	0.048902858
152	0x3dc85c3b	0.097832166
153	0xbe4a4b50	-0.19755292
154	0xbd9925ea	-0.07477935
155	0xbddfc825	-0.109268464
156	0xbe105142	-0.14093497
157	0xbdf11dc7	-0.11773258
158	0xbd66b893	-0.056328367
159	0xbe8d30bb	-0.2757624
160	0xbdc56f40	-0.0964036
161	0xbc90d167	-0.017677976
162	0xbe63cbdf	-0.2224574
163	0x3d3f4572	0.046697088
164	0xbd614706	-0.054999374
165	0xbf02ef8b	-0.51146764
166	0xbe1136e6	-0.14181098
167	0xbf06d9fc	-0.5267637
168	0x3ea8bfa7	0.3295872
169	0x3fac3405	1.3453375
170	0x3f7d0d97	0.9884886
171	0x3cee39d3	0.029080307
172	0xbe071e33	-0.13195114
173	0xb867941d	-5.5212633e-05
174	0x3ab284fb	0.0013619954
175	0xbb294b99	-0.0025832413
176	0xbc450c51	-0.012026862
177	0xbb897e33	-0.0041959523
178	0x3df1b3a3	0.11801841
179	0x3d0f4482	0.034977444
180	0xbc207685	-0.009793882
181	0xbcb5f27c	-0.022210352
182	0x3c9a3720	0.018825114
183	0xbd87073d	-0.065931775
184	0x3c387a04	0.01125956
185	0xbcf99456	-0.03046624
186	0xbe001532	-0.12508085
187	0x3d479fa9	0.04873625
188	0x3d1d5f41	0.03842092
189	0xbe3d542c	-0.1848914
190	0x3cb187b0	0.021671146
191	0x3d8877a9	0.06663448
192	0x3c5c1139	0.013431841
193	0x3d7b1d72	0.061307378
194	0xbafc41ad	-0.0019245647
195	0xbd717446	-0.058948778
196	0x3d55971b	0.05214606
197	0x3df0be27	0.11755019
198	0xbd9e1b22	-0.07720019
199	0x3def11bd	0.11673305
200	0x3e5f00e9	0.21777691
201	0x3d338f4e	0.043837838
202	0x3e13d6e8	0.14437449
203	0x3cc0ccc3	0.023535138
204	0xbda2b000	-0.079437256
205	0x3e146f9f	0.14495705
206	0x3e20f461	0.15718223
207	0xbdc61565	-0.096720494
208	0xbde8a24f	-0.11359083
209	0xbca5d722	-0.020244185
210	0xbe859a23	-0.2609416
211	0x3d89c46f	0.0672692
212	0xbd597d10	-0.053097785
213	0x3d788852	0.06067688
214	0x3f07fedd	0.53123266
215	0x3f1df84f	0.61707014
216	0xbfe7fd75	-1.8124224
217	0x3fb45d04	1.4090886
218	0x3dcc567d	0.09977434
219	0xbb30f1ca	-0.0026999586
220	0xbd0b2b10	-0.033976614
221	0x3ce5ec51	0.028066786
222	0xbd8ff4a8	-0.07029086
223	0xbdb24b42	-0.087057605
224	0x3e04c31a	0.1296505
225	0xbd738724	-0.059455052
226	0xbd873f6d	-0.066038944
227	0x3cbde113	0.023178613
228	0xbc8eb6b6	-0.017421108
229	0x3dd4cf89	0.10391147
230	0xbd5459b7	-0.05184337
231	0xbdac1fe5	-0.08404521
232	0xbe2e9b8d	-0.17051525
233	0x3d93401b	0.071899615
234	0x3c6f4b0e	0.014605297
235	0x3ecc754a	0.39933234
236	0xbcbffda8	-0.023436382
237	0x3d9b8ae7	0.07594853
238	0x3db06613	0.08613219
239	0x3d79cae4	0.060984507
240	0xbe25894b	-0.16165654
241	0x3e1b63a2	0.15174726
242	0x3d5fd095	0.05464228
243	0xbe0b822c	-0.13623875
244	0x3c8e7e16	0.017394107
245	0xbdc58fec	-0.096465915
246	0xbb51946d	-0.0031979338
247	0x3e27255b	0.16322844
248	0xbd979641	-0.074017055
249	0xbedfc460	-0.4370451
250	0x3ab0bfde	0.0013484915
251	0xbedcaba9	-0.43099716
252	0xbb091cfd	-0.002092182
253	0x3f24d361	0.6438504
254	0x3e0c02ef	0.13672994
255	0xbe4b888d	-0.19876309

ip_emb.bias f4 [64]
0	0x3d83e2ef	0.064397685
1	0xbe214c78	-0.15751827
2	0x3dfb067c	0.12257096
3	0xbd0fa706	-0.035071395
4	0x3e01232c	0.12611073
5	0xbdf1f3f4	-0.118141085
6	0x3e540c9e	0.20707938
7	0xbdf33e0d	-0.118770696
8	0xbdb11461	-0.08646465
9	0xbe5c40d8	-0.21509111
10	0xbe24d0d1	-0.16095282
11	0x3e370e0e	0.17876455
12	0xbd17a57d	-0.037023056
13	0xbe33a804	-0.17544562
14	0xbd958a04	-0.07301715
15	0x3e329263	0.17438655
16	0x3e50dff8	0.20397937
17	0xbdcc1af5	-0.09966079
18	0x3da7c07c	0.0819101
19	0x3e6e3b97	0.23264919
20	0xbe3d052c	-0.18459004
21	0xbd43fd1b	-0.047848802
22	0xbd740d2d	-0.059582878
23	0x3e079657	0.13240944
24	0x3d4c0c81	0.049816612
25	0xbe1d97b1	-0.15389897
26	0x3cdcdf2e	0.02696189
27	0xbe0b8fe6	-0.13629112
28	0x3dafb8cb	0.08580168
29	0xbd3b1787	-0.045676734
30	0x3dbe534a	0.0929323
31	0x3e4b3bc5	0.19847019
32	0x3e98f066	0.2987091
33	0x3ba3655d	0.0049864487
34	0x3e650ae9	0.22367443
35	0x3beffbcd	0.007323718
36	0xbde48147	-0.1115747
37	0xbd7fbae9	-0.06243411
38	0x3e814849	0.25250462
39	0xbd5b83d1	-0.053592507
40	0x3e29826c	0.16553658
41	0xbdc89739	-0.097944684
42	0xbe3c13af	-0.18366884
43	0x3e05a522	0.13051274
44	0xbca99cb8	-0.020704612
45	0xbd9064bd	-0.07050464
46	0x3e63fb52	0.2226384
47	0x3db69d05	0.08916668
48	0x3e773670	0.2414186
49	0xbe44814d	-0.1918995
50	0x3e493978	0.19650829
51	0xbe856e16	-0.2606055
52	0x3d899a05	0.0671883
53	0xbd547d01	-0.051877026
54	0xbdb714d9	-0.08939523
55	0x3e3ee683	0.1864262
56	0xbe20b993	-0.15695791
57	0x3d33ae03	0.043867122
58	0x3e33a347	0.17542754
59	0xbdbf4472	-0.09339227
60	0xbdb89cc8	-0.09014279
61	0x3e1ded38	0.15422523
62	0xbdc7ab30	-0.09749448
63	0x3d83238a	0.06403263

dyn_emb.weight f4 [64, 64]
0	0x3e6f7d12	0.23387554
1	0x3e2bfc68	0.16795504
2	0xbe1b296b	-0.15152518
3	0xbce4c02d	-0.027923668
4	0x3d1a75f3	0.03771014
5	0x3daf9f2d	0.08575282
6	0xbdf9c771	-0.121962436
7	0x3c5fee7c	0.013667699
8	0x3de4f013	0.11178603
9	0xbcbdb6c5	-0.02315844
10	0x3cfa12c9	0.030526536
11	0xbe3f2f96	-0.18670496
12	0x3dc931f9	0.09823985
13	0xbe25da2c	-0.16196507
14	0xbd0840f0	-0.033265054
15	0xbd574d0a	-0.052563705
16	0xbe291a0a	-0.1651384
17	0x3e498b84	0.19682127
18	0xbdb985c2	-0.090587154
19	0xbda60f04	-0.08108333
20	0xbb4dc8d0	-0.003140021
21	0x3cf16bca	0.029470343
22	0x3d8f20c2	0.0698867
23	0xbdbb15b4	-0.09134999
24	0x3ed9d788	0.4254725
25	0x3e729f46	0.2369357
26	0x3dbc2622	0.09186961
27	0x3cc8d43c	0.024515264
28	0x3cef0349	0.029176371
29	0x3d7f6eac	0.062361404
30	0x3d813f02	0.06310846
31	0xbe10448d	-0.1408865
32	0xbea518de	-0.32245535
33	0xbdd99c65	-0.10625533
34	0xbef9663b	-0.48710808
35	0x3dcdbea2	0.10046126
36	0x3eccbce3	0.3998786
37	0x3e0aef42	0.13567832
38	0xbdcbf371	-0.09958542
39	0xbe5447fa	-0.20730582
40	0xbc7bf238	-0.015377574
41	0x3d3a366c	0.045462057
42	0x3d9abc97	0.07555502
43	0xbd7cd848	-0.0617297
44	0x3e509ced	0.20372362
45	0x3d3b26ae	0.045691185
46	0xbe8a5073	-0.27014503
47	0xbeb38e96	-0.35069722
48	0xbde9e88e	-0.114213094
49	0x3d93c31a	0.07214947
50	0xbd81180c	-0.06303415
51	0x3e078cd4	0.13237315
52	0x3dc972b6	0.098363325
53	0xbe0fe2d6	-0.14051375
54	0x3df3088b	0.11866864
55	0xbd864130	-0.06555402
56	0xbd49faf6	-0.0493116
57	0xbd6fbf3b	-0.05853198
58	0xbe13ee88	-0.14446461
59	0x3de0b037	0.1097111
60	0x3e2d4010	0.16918969
61	0xbdb91ec1	-0.09039069
62	0x3e436428	0.19081175
63	0x3e935169	0.2877305
64	0xbeafa0d9	-0.34302405
65	0xbe33c757	-0.17556511
66	0x3e394197	0.18091427
67	0xbcf106fb	-0.029422274
68	0x3de17875	0.110093035
69	0xbda64d10	-0.08120167
70	0x3e8aded1	0.2712312
71	0xbdbc0e37	-0.09182399
72	0x3d2c5844	0.042076364
73	0xbe229ca2	-0.15880063
74	0xbea14d54	-0.3150431
75	0x3e2e93bf	0.17048548
76	0x3c662ef6	0.014049282
77	0xbd11b821	-0.03557599
78	0x3c633585	0.0138677405
79	0xbd959830	-0.07304418
80	0x3e2ebe32	0.17064741
81	0xbe16dc32	-0.14732435
82	0x3d8496a0	0.06474042
83	0xbd0d1cb8	-0.034451216
84	0xbe391371	-0.18073823
85	0xbe0dc3b1	-0.13844182
86	0xbd2b08fd	-0.04175662
87	0x3e651f56	0.22375235
88	0x3d438318	0.047732443
89	0xbe34a7d9	-0.17642154
90	0xbded8bd9	-0.115989394
91	0xbe3e5b4f	-0.18589519
92	0x3e34256c	0.175924
93	0x3db20b23	0.086935304
94	0xbba934f8	-0.005163785
95	0x3e1cc15c	0.15308136
96	0x3e7bab86	0.2457715
97	0x3daf2a8e	0.085530385
98	0x3ebd6b5b	0.36995968
99	0x399ab5e0	0.00029508676
100	0xbe89690e	-0.26837963
101	0xbe2b5985	-0.16733368
102	0x3e70d439	0.23518457
103	0x3e19fc24	0.1503759
104	0x3d29a671	0.041418497
105	0xbe1125fc	-0.14174646
106	0xbda2d101	-0.079500206
107	0x3e42764c	0.18990439
108	0x3c0762b8	0.0082632825
109	0x3d95d0ad	0.07315192
110	0x3e360f05	0.17779167
111	0x3e1ae88e	0.15127775
112	0x3f1ded7d	0.61690503
113	0xbe16228b	-0.14661615
114	0x3e833c87	0.25632116
115	0xbf053b1f	-0.52043337
116	0x3dc01368	0.093787014
117	0x3d9b7e4d	0.07592449
118	0xbdc047e0	-0.09388709
119	0x3e06bcd9	0.13157977
120	0xbe81a435	-0.25320593
121	0xbde0470a	-0.109510496
122	0x3e1caccf	0.15300296
123	0xbd957888	-0.0729838
124	0xbe393ade	-0.18088862
125	0x3e3e380f	0.18576072
126	0xbdd4a4d4	-0.10383001
127	0xbe892474	-0.26785624
128	0xbe599c0c	-0.21250933
129	0xbdc83620	-0.097759485
130	0x3e54b1d4	0.20770961
131	0xbe1ff787	-0.15621768
132	0x3df649d0	0.12025797
133	0xbda207b7	-0.07911628
134	0x3e1315a7	0.14363728
135	0xbe885b3d	-0.2663211
136	0xbe5dfa68	-0.21677554
137	0xbd98e23e	-0.07465027
138	0xbe897e0f	-0.26853988
139	0x3e12ccf0	0.1433599
140	0xbd641abe	-0.055689566
141	0xbd87a0a0	-0.06622434
142	0x3db1fc7f	0.08690738
143	0x3e187ec8	0.14892113
144	0x3e9bf0d0	0.30457163
145	0xbd3b0b0b	-0.04566483
146	0x3eb8d7dd	0.3610219
147	0x3df278a8	0.118394196
148	0xbe41c400	-0.18922424
149	0x3ec3c548	0.3823645
150	0xbe0827d8	-0.13296449
151	0x3e64335b	0.22285216
152	0x3d6525e6	0.055944346
153	0xbe7023fc	-0.23451227
154	0xbdfd2e0a	-0.12362297
155	0xbea93a33	-0.33052215
156	0x3e8880dc	0.26660812
157	0x3e707622	0.23482564
158	0x3d76c9df	0.060251113
159	0x3e505263	0.20343928
160	0x3e25bf59	0.16186275
161	0x3e2ec4c0	0.17067242
162	0x3e960eea	0.29308254
163	0x3e7e7c0b	0.24852006
164	0xbd892675	-0.06696788
165	0xbe7a6760	-0.24453497
166	0x3e42dc1e	0.1902928
167	0xbd176057	-0.03695711
168	0x3e56fd4c	0.20995063
169	0x3e69a090	0.22815156
170	0xbe8e49eb	-0.2779077
171	0x3e98cbdd	0.29843035
172	0xbd2719af	-0.04079598
173	0xbe96aff3	-0.29431114
174	0x3db74cd9	0.089502044
175	0xbce86eec	-0.028373204
176	0xbd3f3a51	-0.046686474
177	0xbdd9f570	-0.106425166
178	0x3d3cffcc	0.046142384
179	0x3d6124a4	0.054966584
180	0x3dca8b25	0.09889821
181	0x3e21c974	0.15799505
182	0xbc80a77b	-0.01570486
183	0x3dbad4c2	0.091226116
184	0xbe52a1f9	-0.205696
185	0xbddb6049	-0.10711724
186	0x3e3384bf	0.17531107
187	0xbd92ec5f	-0.071739905
188	0xbe28b107	-0.1647378
189	0x3d6d1e35	0.057890136
190	0xbe081eb6	-0.13292965
191	0xbe528ee5	-0.20562322
192	0x3e2d9272	0.16950396
193	0x3cfae33b	0.03062593
194	0xbe4e9e30	-0.20177531
195	0xbda3f43e	-0.0800557
196	0xbba62ce0	-0.0050712675
197	0x3e167637	0.14693533
198	0xbe9dc2c7	-0.30812666
199	0x3d3b863b	0.04578231
200	0x3e06accf	0.13151859
201	0xbdb6245a	-0.08893652
202	0x3ea74f42	0.32677656
203	0xbe2e7fe8	-0.1704098
204	0x3e1c40e4	0.15259129
205	0x3d4f346f	0.050587114
206	0xbdb26c28	-0.087120354
207	0xbdb005f0	-0.085948825
208	0xbe5f16a5	-0.21785982
209	0x3ea51f05	0.3225023
210	0xbe3bf6d1	-0.18355872
211	0x3e6dfe73	0.23241596
212	0x3e22cfeb	0.15899627
213	0xbe1c32b6	-0.1525372
214	0xbd34ac7a	-0.0441098
215	0xbe567259	-0.20942058
216	0xbd9108f0	-0.07081783
217	0x3e2fd117	0.17169605
218	0x3ea9511f	0.33069703
219	0x3e56fec8	0.20995629
220	0xbe47b84c	-0.19503897
221	0x3e2a1846	0.16610822
222	0x3e292de4	0.16521412
223	0xbe10cea1	-0.14141323
224	0xbe80ec4c	-0.2518028
225	0xbe3ecae3	-0.18632083
226	0xbec83aab	-0.3910726
227	0xbd63c8c3	-0.055611383
228	0x3f001812	0.5003673
229	0x3e5b93f1	0.21443154
230	0xbe2a0b8a	-0.16605964
231	0xbdd2550b	-0.10270127
232	0xbe837ca5	-0.25681034
233	0x3a2d33c1	0.0006607138
234	0x3e1a4330	0.15064692
235	0xbe76a7e7	-0.24087487
236	0xbe1401c4	-0.14453799
237	0x3cd2986c	0.025707446
238	0xbe310fc9	-0.17291178
239	0xbeee8f82	-0.46593863
240	0xbeab9597	-0.33512565
241	0x3dc5c083	0.09655859
242	0xbba171bb	-0.004926888
243	0x3f08d89c	0.5345552
244	0x3e15ceb3	0.1462963
245	0x3b980d70	0.0046402737
246	0x3c0b9723	0.0085199205
247	0xbddafb49	-0.1069246
248	0xbd6c62bf	-0.05771136
249	0x3e90d4b1	0.2828727
250	0xbd8c7db2	-0.06859912
251	0x3e1c3bd0	0.15257192
252	0x3e7c49b1	0.24637486
253	0x3d86690e	0.06563006
254	0x3e0bfba0	0.13670206
255	0x3e83928f	0.25697753

dyn_emb.bias f4 [64]
0	0xbe459ff8	-0.19299304
1	0x3e70707e	0.23480412
2	0x3e8aeed7	0.27135345
3	0xbe8d064e	-0.27543873
4	0x3dd8677d	0.10566614
5	0x3dba19f6	0.09086983
6	0xbe8b4261	-0.2719908
7	0xbe98602c	-0.29760873
8	0xbd6017ca	-0.054710187
9	0x3de4836f	0.111578815
10	0x3e414ecb	0.18877713
11	0xbe61116e	-0.21979305
12	0x3e1cfcd1	0.15330817
13	0xbe8d8b55	-0.27645364
14	0x3e66f835	0.22555621
15	0xbe65e3c1	-0.22450162
16	0xbe26c7e1	-0.16287185
17	0x3c9b036a	0.018922526
18	0x3e410f85	0.18853576
19	0xbe194c03	-0.14970402
20	0x3e5e58fd	0.21713634
21	0x3e21965e	0.15780017
22	0x3db5da59	0.08879537
23	0x3e642457	0.22279488
24	0x3ddd82c7	0.108159594
25	0x3e835f20	0.25658512
26	0xbe222e70	-0.15838027
27	0x3e47ed33	0.19524078
28	0x3e6b516e	0.22980282
29	0x3e2049bc	0.15653127
30	0xbea48a1a	-0.32136613
31	0xbe78f4fa	-0.24312201
32	0x3e169537	0.14705358
33	0x3e314f13	0.1731532
34	0x3bc6ec88	0.006070677
35	0xbe20e3b0	-0.15711856
36	0xbe92487a	-0.2857092
37	0x3df3507e	0.11880587
38	0xbe9f88a2	-0.3115893
39	0xbc4a6a68	-0.012354471
40	0xbdc4290c	-0.095781416
41	0xbe5b88b4	-0.21438867
42	0xbb103d69	-0.002200926
43	0x3e74bd1c	0.23900265
44	0x3df01de0	0.11724448
45	0xbe4c43ba	-0.1994771
46	0x3e026cd3	0.12736826
47	0x3e356c29	0.17717041
48	0x3e1639a0	0.1467042
49	0xbe153bb4	-0.14573556
50	0x3d7ae730	0.061255634
51	0x3d9f672f	0.077833526
52	0x3e70c0b4	0.2351101
53	0x3ea936bb	0.3304957
54	0xbea15eb3	-0.31517562
55	0x3e8bcc30	0.2730422
56	0x3e5cb498	0.21553266
57	0x3e3d78e5	0.18503149
58	0x3cddbae7	0.027066661
59	0xbe5ce443	-0.2157145
60	0xbe0ff121	-0.14056827
61	0x3d08472b	0.033270996
62	0xbdff7beb	-0.12474807
63	0x3dc50163	0.09619405

mdn_layer.pi.weight f4 [20, 64]
0	0xbbf32a33	-0.007420802
1	0x3bf06a0b	0.00733686
2	0x3bf03f99	0.0073318
3	0xbbf07e69	-0.007339288
4	0x3c43446e	0.01191817
5	0xbb32a090	-0.0027256347
6	0xbbf1d97d	-0.007380663
7	0xbbf034c8	-0.0073305108
8	0xbb86bdd9	-0.004111987
9	0x3a7d9cfa	0.00096745754
10	0x3bdf25ed	0.006809941
11	0xbbf057c2	-0.0073346803
12	0x3beeab66	0.007283616
13	0xbbf06356	-0.0073360605
14	0x3bf09021	0.0073414003
15	0xbbebe14b	-0.007198488
16	0xbbf064ea	-0.0073362486
17	0xbac6113f	-0.0015111341
18	0x3bf00481	0.0073247557
19	0xbbee8b97	-0.007279824
20	0x3bf04faa	0.0073337154
21	0x3bf069a6	0.007336813
22	0x3bf6127e	0.0075095287
23	0x3bf348aa	0.0074244337
24	0x3b9e9001	0.004838944
25	0x3bf36bde	0.0074286303
26	0xbbf2f813	-0.0074148267
27	0x3bf3d165	0.0074407333
28	0x3bf064b9	0.007336226
29	0x3bf67492	0.0075212205
30	0xbbf20a4b	-0.007386481
31	0xbbef8f29	-0.007310767
32	0x3af53ece	0.0018710734
33	0x3bf0b8f9	0.007346269
34	0xbad39dce	-0.0016145052
35	0xbbb48825	-0.0055093938
36	0xbbeff812	-0.0073232735
37	0x3a0adb62	0.0005296973
38	0xbbeeb69c	-0.0072849523
39	0xbb0c5aeb	-0.0021416496
40	0xbbf0a0cf	-0.0073433886
41	0xbbf069d9	-0.007336837
42	0x3a07d87b	0.00051820994
43	0x3bee7c7e	0.007278024
44	0x3bc4a75d	0.0060013966
45	0xbbf506cd	-0.0074776174
46	0xbae5eb89	-0.0017541508
47	0x3bf31015	0.0074176886
48	0x3bf61d9f	0.0075108553
49	0xbbe14d47	-0.0068756673
50	0x3ac3bf63	0.0014934357
51	0xb9bb5be7	-0.00035735892
52	0x3be4c20d	0.0069811405
53	0x3befc991	0.0073177298
54	0xbbee580c	-0.0072736796
55	0x3bef8f2e	0.0073107695
56	0x3bf63e4c	0.0075147506
57	0x3bf2ffa5	0.007415729
58	0xba059009	-0.000509501
59	0xbbbd3833	-0.0057745217
60	0xbbf5b6e9	-0.007498611
61	0x3a0d71f0	0.0005395701
62	0xb9df984a	-0.0004264734
63	0x3aeebc42	0.0018214064
64	0xbbca29fe	-0.0061695566
65	0x3bc1b074	0.0059109274
66	0x3bbfdd0f	0.0058552097
67	0xbbc1f6c0	-0.0059193075
68	0x3c3deab8	0.011591606
69	0xba5abfab	-0.0008344601
70	0xbbc77b87	-0.0060877237
71	0xbbc0bb56	-0.005881707
72	0x3acd4089	0.0015659492
73	0xbaeaa500	-0.0017901957
74	0xbb97b05b	-0.0046291775
75	0xbbc193e8	-0.0059075244
76	0x3bc1ddb2	0.0059163207
77	0xbbc08636	-0.005875374
78	0x3bc16280	0.0059016347
79	0xbbc3b687	-0.0059726867
80	0xbbc23e90	-0.005927868
81	0x39cae30b	0.00038697603
82	0x3bc1ed24	0.005918162
83	0xbbc192f8	-0.0059074126
84	0x3bc11591	0.0058924635
85	0x3bc271bc	0.0059339684
86	0x3bcd58bd	0.006266682
87	0x3bc7bfe9	0.0060958755
88	0xba0abd1f	-0.00052924635
89	0x3bc4e6bf	0.0060089524
90	0xbbc4b630	-0.0060031638
91	0x3bc5ed08	0.006040219
92	0x3bc358e5	0.005961525
93	0x3bccf378	0.0062546097
94	0xbbc34fdf	-0.005960449
95	0xbbc1f910	-0.005919583
96	0xbac6f43c	-0.0015178989
97	0x3bc4553a	0.005991605
98	0xba7305c7	-0.0009270575
99	0xb9fd04b1	-0.00048259416
100	0xbbc199b2	-0.0059082145
101	0xbb4802a0	-0.0030519143
102	0xbbc27c26	-0.00593521
103	0xbbb37c84	-0.00547749
104	0xbbc15c8e	-0.005900926
105	0xbbc12c8a	-0.005895202
106	0x3b83a64e	0.004017628
107	0x3bbbf007	0.0057354006
108	0x3ac11770	0.0014731716
109	0xbbc71f92	-0.0060767615
110	0xbb38b5dc	-0.0028184569
111	0x3bcab764	0.0061864126
112	0x3bcf5b4f	0.0063280235
113	0xbb8a3d15	-0.0042187073
114	0xba85c366	-0.0010205328
115	0xbb06bbc3	-0.0020558692
116	0x3b92aee4	0.004476415
117	0x3bc26846	0.0059328405
118	0xbbbc8f97	-0.005754422
119	0x3bba9b67	0.005694795
120	0x3bcbefca	0.0062236534
121	0x3bc7e244	0.006099971
122	0x3a4481df	0.0007496159
123	0x39d0f0ea	0.00039852347
124	0xbbca50b7	-0.0061741727
125	0xbb9b18aa	-0.004733165
126	0xbac79f12	-0.0015229902
127	0xba9cc632	-0.0011960922
128	0x394fab73	0.00019804928
129	0xb896f37e	-7.197911e-05
130	0xb7a04995	-1.910775e-05
131	0x388151e0	6.16645e-05
132	0xbb17c74b	-0.002315956
133	0x3a5c20a7	0.00083971996
134	0x3954d12e	0.00020295821
135	0x37602249	1.3359423e-05
136	0x3b01494d	0.0019727529
137	0xba5571ef	-0.00081422826
138	0x3a9342ac	0.001123508
139	0x37c63aaa	2.3630757e-05
140	0xb909b1a5	-0.00013131516
141	0x37c6448f	2.3635364e-05
142	0xb887f258	-6.482442e-05
143	0x3917740c	0.00014443713
144	0x38644089	5.441954e-05
145	0x3acd02f3	0.0015641138
146	0xb8270112	-3.98169e-05
147	0x38187abc	3.635393e-05
148	0xb7782d84	-1.4792549e-05
149	0xb8321ea5	-4.2467047e-05
150	0xb98d2301	-0.00026919696
151	0xb92378ef	-0.00015589943
152	0x3a695a91	0.000890174
153	0xb8d48d04	-0.00010135214
154	0x38ae4333	8.3094834e-05
155	0xb90156bb	-0.00012334708
156	0xb8ce47de	-9.836232e-05
157	0xb991c10b	-0.00027800383
158	0x38a59f9c	7.897543e-05
159	0x37ab57f0	2.0425738e-05
160	0xbabc1d0b	-0.0014351917
161	0xb8d14cd1	-9.980205e-05
162	0xba4ba9ac	-0.00077691185
163	0x3aac3808	0.0013139257
164	0x3818c1fb	3.6420282e-05
165	0xb8c62955	-9.4490744e-05
166	0x38807a8b	6.126341e-05
167	0xbab37dcf	-0.001369411
168	0x3847f3a8	4.767222e-05
169	0x38177ae5	3.611566e-05
170	0xba3ec845	-0.0007277767
171	0xb8ecdddf	-0.00011294684
172	0xba8c0aa1	-0.001068432
173	0x39345c63	0.00017200554
174	0x3affef9f	0.0019526369
175	0xb96611f5	-0.00021941199
176	0xb9a3fb1c	-0.00031276874
177	0x39cbb7fc	0.00038856256
178	0xb7d11bce	-2.4927689e-05
179	0x3b112d66	0.0022152304
180	0xb9a2916e	-0.000310074
181	0xb7a6baed	-1.9875786e-05
182	0x387be4ca	6.005614e-05
183	0xb80a051c	-3.2906522e-05
184	0xb979cec1	-0.00023823512
185	0xb9285243	-0.00016052373
186	0x3a69145f	0.000889128
187	0x3acaf508	0.0015484402
188	0x396b9eb5	0.0002247047
189	0x39c6fcff	0.00037954
190	0xb9ad1062	-0.00033009337
191	0x3920a761	0.00015321143
192	0xbbabf828	-0.0052480884
193	0x3bb62c58	0.0055594854
194	0x3bb93149	0.005651627
195	0xbbb6809e	-0.0055695316
196	0xbace9894	-0.0015762025
197	0x3a11fabf	0.0005568675
198	0xbbabe4c3	-0.0052457764
199	0xbbb9789f	-0.005660131
200	0xbb7ea615	-0.0038856317
201	0x3ad0c071	0.0015926493
202	0x3b74a5ef	0.003733035
203	0xbbb90d90	-0.0056473687
204	0x3bb21ec3	0.005435796
205	0xbbb9881e	-0.0056619784
206	0x3bb71b56	0.0055879755
207	0xbbae7947	-0.005324516
208	0xbbb72931	-0.005589627
209	0x399eed56	0.00030312937
210	0x3bb84f0d	0.005624658
211	0xbbb73153	-0.0055905967
212	0x3bb9a87e	0.005665838
213	0x3bb804bb	0.0056157983
214	0x3ba7164f	0.005099095
215	0x3baf3e62	0.005348013
216	0x3b45be2c	0.0030173166
217	0x3bb3d651	0.005488195
218	0xbbb42a93	-0.0054982393
219	0x3bb1c041	0.00542453
220	0x3bb403e8	0.0054936297
221	0x3ba66a6c	0.0050786044
222	0xbbb6b2a1	-0.0055754934
223	0xbbb8d45b	-0.005640549
224	0x3a3842d5	0.0007029002
225	0x3bb26b59	0.0054449257
226	0x3a6669fb	0.0008789596
227	0xbba67891	-0.0050802906
228	0xbbb84c2e	-0.0056243157
229	0xb9ba03a0	-0.00035479385
230	0xbbb540ee	-0.005531422
231	0x3a855c88	0.0010174671
232	0xbbb7e4f2	-0.005612009
233	0xbbb92895	-0.0056505897
234	0xba63c24b	-0.00086883147
235	0x3bb5a94a	0.0055438625
236	0x3bb1d4e7	0.0054269913
237	0xbbae8b1e	-0.0053266427
238	0xba4e59b0	-0.0007871641
239	0x3ba899b7	0.0051452774
240	0x3ba56549	0.0050474745
241	0xbbb71821	-0.005587593
242	0xba7eba79	-0.00097171176
243	0x3ac62517	0.0015117255
244	0x3bb7b558	0.0056063347
245	0x3bb8c782	0.0056390176
246	0xbbb6e5ac	-0.0055815782
247	0x3bba4924	0.0056849886
248	0x3ba93eaf	0.005164943
249	0x3bafd081	0.005365432
250	0x398c29d2	0.0002673404
251	0xbbc1556e	-0.0059000766
252	0xbbab71f8	-0.005232092
253	0xbb2dfaa7	-0.0026547106
254	0xba18b04d	-0.00058246107
255	0x3af103e1	0.0018387997

mdn_layer.pi.bias f4 [20]
0	0x3bf05786	0.0073346524
1	0x3bc01f38	0.0058630966
2	0xb7b472c9	-2.1511123e-05
3	0x3bba131b	0.005678547
4	0x3bd543b6	0.006508316
5	0xbbf211e5	-0.007387387
6	0xba112167	-0.00055362884
7	0x3b0e772d	0.0021738515
8	0x3b20be61	0.0024527537
9	0x3b237b83	0.0024945445
10	0x3a9a2fed	0.001176355
11	0x3b2ecf26	0.0026673763
12	0x3ba0d3ae	0.0049080467
13	0x3b2748d7	0.0025525594
14	0xbc107263	-0.008816334
15	0xba7dda48	-0.00096837105
16	0xb9b59243	-0.00034631984
17	0x3a28424a	0.0006418569
18	0xbc555b49	-0.013022252
19	0xbc46b665	-0.012128447

mdn_layer.sigma.weight f4 [1000, 64]
0	0x3e03de24	0.12877709
1	0xbe060d47	-0.13091002
2	0xbe0529f1	-0.1300428
3	0x3e061d8a	0.13097206
4	0xbe2f5dea	-0.17125669
5	0x3d08ff3d	0.03344654
6	0x3e04d5fb	0.12972252
7	0x3e046b25	0.12931497
8	0x3e779c5a	0.24180737
9	0xbd1a2012	-0.03762824
10	0xbe34bda8	-0.17650473
11	0x3e02a011	0.12756373
12	0xbe07ad76	-0.13249764
13	0x3e050bb6	0.12992749
14	0xbe08754e	-0.13325998
15	0x3e00e64b	0.1258785
16	0x3e036283	0.12830548
17	0x3d9210fa	0.07132144
18	0xbe027287	-0.12739001
19	0x3e039d0e	0.1285288
20	0xbe04ae65	-0.12957151
21	0xbe0414b6	-0.12898526
22	0xbe09870f	-0.13430427
23	0xbe0550fc	-0.13019174
24	0xbd1bf8fd	-0.03807925
25	0xbe0571ec	-0.13031739
26	0x3e0400c9	0.12890925
27	0xbe074162	-0.13208535
28	0xbe061147	-0.13092528
29	0xbe080ae6	-0.13285407
30	0x3e062cd9	0.13103046
31	0x3e01dece	0.1268265
32	0xbdb1dc56	-0.08684604
33	0xbe045951	-0.12924697
34	0x3bd57095	0.006513665
35	0x3e5df8ea	0.21676984
36	0x3e036f57	0.12835442
37	0xbd1409f5	-0.03614231
38	0x3e03f59f	0.12886666
39	0xbd230650	-0.039800942
40	0x3e048d29	0.12944473
41	0x3e04642b	0.12928836
42	0x3d52dad5	0.051478226
43	0xbe106cd3	-0.14104013
44	0xbe44cb91	-0.1921828
45	0x3e09add0	0.1344521
46	0x3d80c1ba	0.062869504
47	0xbe04c298	-0.12964857
48	0xbe0a4517	-0.13502918
49	0x3e265857	0.16244636
50	0xbe0bbc83	-0.1364613
51	0x3e055131	0.13019253
52	0xbe229c5b	-0.15879957
53	0xbe02f073	-0.12787037
54	0x3e0ceb86	0.1376172
55	0xbe0cac60	-0.13737631
56	0xbe06991c	-0.13144344
57	0xbe054cec	-0.13017625
58	0x3cf632f1	0.030053588
59	0x3e89ea9b	0.26936802
60	0x3e09bfdb	0.13452093
61	0xbd313207	-0.0432606
62	0xbd873b7e	-0.06603144
63	0x3c921e29	0.017836647
64	0x3e1c0382	0.15235713
65	0xbe2143bd	-0.15748496
66	0xbe1ff37c	-0.15620226
67	0x3e274805	0.16336067
68	0xbd44ff87	-0.048095252
69	0xbcadd34f	-0.021218924
70	0x3e15e388	0.14637578
71	0x3e2205da	0.15822545
72	0x3db112aa	0.08646138
73	0xbc304cd3	-0.010760504
74	0xbe2a56f3	-0.16634731
75	0x3e16e114	0.14734298
76	0xbe221e8d	-0.15831967
77	0x3e2ca75d	0.16860719
78	0xbe1a4da8	-0.15068686
79	0x3e1f393a	0.15549174
80	0x3e202ee6	0.1564289
81	0xbc3c3a4c	-0.011488508
82	0xbe1ef7bb	-0.15524189
83	0x3e20070a	0.15627685
84	0xbe1b6895	-0.15176614
85	0xbe2fbadb	-0.17161123
86	0xbe23b7d8	-0.159881
87	0xbe1c23ca	-0.15248027
88	0xbda3f59d	-0.080058314
89	0xbe2494a5	-0.16072328
90	0x3e1b287c	0.15152162
91	0xbe1eccc0	-0.15507793
92	0xbe1c4223	-0.15259604
93	0xbe20a82a	-0.1568915
94	0x3e24d597	0.16097103
95	0x3e1c98ba	0.15292636
96	0x3b282da0	0.002566196
97	0xbe18c93a	-0.14920512
98	0xbc2fcd3c	-0.010730084
99	0x3e0f1c7c	0.1397571
100	0x3e2503a7	0.16114675
101	0xbcf8ab3c	-0.030355088
102	0x3e2419f7	0.1602553
103	0x3bdaf3c0	0.0066818893
104	0x3e226021	0.15856983
105	0x3e2a48a4	0.16629273
106	0x3d4d7fff	0.050170895
107	0xbe13d4ab	-0.14436595
108	0xbe0f2b77	-0.13981424
109	0x3e25f7e6	0.16207847
110	0x3b9e2998	0.0048267357
111	0xbe25bae2	-0.16184571
112	0xbe1ca7bd	-0.15298362
113	0x3e16bbf1	0.14720131
114	0xbc8545df	-0.016268669
115	0xbd3bd88b	-0.04586081
116	0xbe11ca30	-0.14237285
117	0xbe198872	-0.14993456
118	0x3e17f24a	0.1483852
119	0xbe2ea48e	-0.1705496
120	0xbe1f5fd4	-0.155639
121	0xbe1891f6	-0.1489943
122	0xbcaf5283	-0.02140165
123	0x3e0b5b04	0.13608938
124	0x3e18ce5c	0.1492247
125	0xbc819354	-0.015817322
126	0x3d100836	0.03516408
127	0xbcbce71d	-0.023059422
128	0x3dd7978d	0.10526953
129	0xbdd5dc73	-0.10442438
130	0xbdd02165	-0.101626195
131	0x3dd4e1dd	0.103946425
132	0xbea1e9ee	-0.31623787
133	0x3d1a7ee8	0.037718683
134	0x3ddcfd86	0.10790543
135	0x3dccf937	0.100084715
136	0x3e9dce42	0.30821425
137	0xbd70ac90	-0.05875832
138	0xbe62cb63	-0.22147898
139	0x3dc9e5ee	0.09858309
140	0xbddc41da	-0.10754748
141	0x3dcd61fd	0.100284554
142	0xbdd99f14	-0.10626045
143	0x3dcc13ff	0.099647515
144	0x3dcd1c1f	0.10015129
145	0x3de2c84a	0.11073358
146	0xbdc8d7bd	-0.09806774
147	0x3dca70b4	0.09884778
148	0xbdc9bea0	-0.09850812
149	0xbdce48eb	-0.10072502
150	0xbdf09d06	-0.117487
151	0xbdd89bb3	-0.10576572
152	0xbcb820df	-0.022476612
153	0xbdd70dae	-0.10500656
154	0x3dcfe99f	0.101519816
155	0xbdddbdec	-0.1082724
156	0xbdd6eece	-0.10494767
157	0xbdecc9a3	-0.11561897
158	0x3dd560b0	0.10418832
159	0x3dc526ab	0.09626516
160	0xbe0dacdf	-0.13835476
161	0xbdd2ccf8	-0.10293001
162	0x3d45e51d	0.048314203
163	0x3e8bbb69	0.2729142
164	0x3dcb97cf	0.099410646
165	0xbd94ba65	-0.072621144
166	0x3dce00b6	0.10058729
167	0xbd7aa7f6	-0.061195336
168	0x3dcdef73	0.10055437
169	0x3dcdac7f	0.10042667
170	0x3d8573ce	0.065162286
171	0xbdede9aa	-0.116168335
172	0xbe6e6a61	-0.23282768
173	0x3deb20d5	0.114808716
174	0x3dad7d24	0.08471134
175	0xbddcf827	-0.10789519
176	0xbdf1f3b8	-0.11814064
177	0x3e24bf18	0.16088521
178	0xbe5d8887	-0.21634112
179	0x3e4fce65	0.20293577
180	0xbe1e295e	-0.15445468
181	0xbdc76cc1	-0.0973754
182	0x3de12d09	0.10994918
183	0xbddeec74	-0.108849436
184	0xbde56c6e	-0.11202322
185	0xbdd81d86	-0.10552506
186	0x3d76a899	0.06021938
187	0x3eb45e10	0.35228014
188	0x3deba0e0	0.11505294
189	0xbdcb1cba	-0.099175885
190	0xbe0ae2ae	-0.13563034
191	0x3d0dc529	0.034611855
192	0x3e11259e	0.14174506
193	0xbe11dbfa	-0.1424407
194	0xbe149b4c	-0.14512366
195	0x3e12bf7d	0.1433086
196	0xbdb3e024	-0.08782986
197	0xbcbf5c63	-0.023359483
198	0x3e0e63fe	0.13905331
199	0x3e1507e5	0.14553793
200	0x3df174a3	0.11789825
201	0xbd596e92	-0.053083964
202	0xbe5b3b43	-0.21409325
203	0x3e146786	0.14492616
204	0xbe0f0d1c	-0.13969845
205	0x3e14322f	0.14472269
206	0xbe131c34	-0.14366227
207	0x3e0c8615	0.13723023
208	0x3e129799	0.14315642
209	0x3cffbedf	0.031218944
210	0xbe1278db	-0.14303915
211	0x3e12f60a	0.14351669
212	0xbe1487f6	-0.1450499
213	0xbe13279b	-0.14370577
214	0xbe0f7017	-0.14007603
215	0xbe118870	-0.14212203
216	0xbddcd442	-0.107826725
217	0xbe1448da	-0.14480916
218	0x3e14067f	0.14455603
219	0xbe135d66	-0.14391097
220	0xbe11a1f9	-0.14221944
221	0xbe0fc3b5	-0.140395
222	0x3e13af48	0.14422333
223	0x3e146323	0.14490943
224	0xbd09778b	-0.03356127
225	0xbe12eda4	-0.14348465
226	0xbd022101	-0.031769756
227	0x3e0c0bb5	0.13676341
228	0x3e13e770	0.14443755
229	0xbd4eb5b7	-0.050466266
230	0x3e130258	0.14356363
231	0xbcc09cf3	-0.02351234
232	0x3e124cce	0.14287111
233	0x3e146347	0.14490996
234	0x3dc7047a	0.09717651
235	0xbe110316	-0.14161333
236	0xbe0c5212	-0.13703182
237	0x3e116e43	0.14202218
238	0x3cb825fa	0.022479046
239	0xbe1139ac	-0.14182156
240	0xbe0ebdac	-0.13939542
241	0x3e10e082	0.14148143
242	0xbd21e5ba	-0.039525725
243	0x3c7e84a5	0.015534555
244	0xbe13eec7	-0.14446555
245	0xbe13531b	-0.14387171
246	0x3e10c08b	0.1413595
247	0xbe153a1b	-0.14572947
248	0xbe119118	-0.14215505
249	0xbe11582f	-0.14193796
250	0xbc1c376e	-0.0095347
251	0x3e0c77e2	0.13717607
252	0x3e109a81	0.14121439
253	0xbd5f6776	-0.054542027
254	0xbc96875e	-0.018375095
255	0xbc8a6696	-0.01689462

mdn_layer.sigma.bias f4 [1000]
0	0xbe0388c3	-0.12845139
1	0xbe246e04	-0.16057593
2	0xbdc9e6f5	-0.09858505
3	0xbe149485	-0.1450978
4	0xbda7ad36	-0.08187334
5	0xbe0a2a75	-0.13492759
6	0xbd90b790	-0.07066262
7	0xbdfeaddb	-0.12435504
8	0xbd85c153	-0.06531014
9	0xbdf871c4	-0.12131074
10	0xbd7ed5aa	-0.062215485
11	0xbde85809	-0.113449164
12	0xbd73a32d	-0.05948179
13	0xbde5047e	-0.111824974
14	0xbd6b79ca	-0.057489194
15	0xbddff3c5	-0.10935167
16	0xbd6a085b	-0.057136875
17	0xbdda5302	-0.10660364
18	0xbd720f21	-0.05909646
19	0xbdd33a9b	-0.103139125
20	0xbd77c0f0	-0.060486734
21	0xbdd005a1	-0.10157324
22	0xbd7dc2ab	-0.061953228
23	0xbdce8531	-0.10083998
24	0xbd837d96	-0.06420438
25	0xbdcf2733	-0.101148985
26	0xbd8836b5	-0.066510595
27	0xbdcf8326	-0.101324365
28	0xbd8cef23	-0.06881549
29	0xbdd0e622	-0.10200144
30	0xbd912e40	-0.070888996
31	0xbdcf030f	-0.10108005
32	0xbd93ad14	-0.072107464
33	0xbdca833d	-0.09888313
34	0xbd933a11	-0.0718881
35	0xbdc65f6e	-0.096861705
36	0xbd9082c5	-0.07056192
37	0xbdbeaca0	-0.09310269
38	0xbd8c9b70	-0.06865585
39	0xbdb762fa	-0.08954425
40	0xbd883345	-0.06650404
41	0xbdaec71f	-0.08534073
42	0xbd835886	-0.06413369
43	0xbda6a9cc	-0.08137855
44	0xbd7d6478	-0.061863393
45	0xbd9c9d51	-0.07647193
46	0xbd74eea8	-0.059797913
47	0xbd95d0ce	-0.07315217
48	0xbd6ccfab	-0.057815235
49	0xbd8e24f2	-0.069406405
50	0xbe115e1b	-0.14196055
51	0xbe255e54	-0.16149265
52	0xbdede5d6	-0.11616103
53	0xbe136931	-0.14395596
54	0xbdd060c7	-0.10174709
55	0xbe0717f8	-0.13192737
56	0xbdbf1eb0	-0.09332025
57	0xbdfdb126	-0.12387304
58	0xbdb3574d	-0.08756886
59	0xbdf9447d	-0.12171266
60	0xbda9aad0	-0.08284533
61	0xbdf0b9b2	-0.117541686
62	0xbda0845f	-0.07837748
63	0xbde717b7	-0.1128382
64	0xbd9a53b3	-0.075354956
65	0xbddc610e	-0.10760699
66	0xbd96d4ce	-0.07364808
67	0xbddcab35	-0.10774843
68	0xbd944028	-0.07238799
69	0xbddca392	-0.10773386
70	0xbd91d205	-0.07120136
71	0xbddf58aa	-0.10905583
72	0xbd8f49aa	-0.06996472
73	0xbddf1f1c	-0.108946055
74	0xbd8d5b47	-0.069021754
75	0xbde00a7b	-0.10939499
76	0xbd8c94c7	-0.068643145
77	0xbddebc61	-0.10875774
78	0xbd8cc838	-0.06874126
79	0xbddd08e1	-0.10792709
80	0xbd8dd974	-0.069262415
81	0xbdda341e	-0.10654472
82	0xbd8de12b	-0.06927713
83	0xbdd509b6	-0.10402243
84	0xbd8c58ae	-0.06852852
85	0xbdced1ef	-0.100986354
86	0xbd8a0edf	-0.06741118
87	0xbdc5055e	-0.09620164
88	0xbd864f2e	-0.06558071
89	0xbdbdc992	-0.09266962
90	0xbd828814	-0.06373611
91	0xbdb56c00	-0.0885849
92	0xbd7e8187	-0.062135246
93	0xbdac7634	-0.08420983
94	0xbd789b98	-0.06069526
95	0xbda081d4	-0.07837263
96	0xbd724e8e	-0.059156947
97	0xbd9bf220	-0.07614541
98	0xbd6e1b23	-0.05813135
99	0xbd959ec8	-0.07305676
100	0xbe01472d	-0.12624808
101	0xbe234d0a	-0.15947357
102	0xbdc7a8d9	-0.09749002
103	0xbe14a075	-0.14514334
104	0xbda903fc	-0.08252713
105	0xbe0aa1e8	-0.13538325
106	0xbd990741	-0.07472087
107	0xbe031f25	-0.1280485
108	0xbd921044	-0.07132009
109	0xbdfa8fbb	-0.12234446
110	0xbd8f1513	-0.069864415
111	0xbdf29e7d	-0.118466355
112	0xbd8cd1af	-0.068759315
113	0xbded2544	-0.115793735
114	0xbd8c1712	-0.06840338
115	0xbde5456d	-0.111948825
116	0xbd8c72e3	-0.068578504
117	0xbde61c03	-0.112358116
118	0xbd8b7820	-0.068100214
119	0xbddf04bd	-0.10889576
120	0xbd87f8ea	-0.066392735
121	0xbddfea07	-0.10933309
122	0xbd834d77	-0.064112596
123	0xbddb5a0c	-0.107105345
124	0xbd7e4b5c	-0.062083587
125	0xbdd96628	-0.10615188
126	0xbd78b152	-0.06071598
127	0xbdd794a6	-0.10526399
128	0xbd759567	-0.059956934
129	0xbdd4375d	-0.10362122
130	0xbd74ce7d	-0.059767235
131	0xbdcf91a2	-0.10135199
132	0xbd73fa7b	-0.05956505
133	0xbdcaa993	-0.09895625
134	0xbd70d938	-0.058800906
135	0xbdc6096e	-0.09669767
136	0xbd6d417d	-0.057923783
137	0xbdc0298c	-0.093829244
138	0xbd6acc6b	-0.057323854
139	0xbdb99d69	-0.09063227
140	0xbd68e04f	-0.056854542
141	0xbdb3569a	-0.08756752
142	0xbd66d09d	-0.056351293
143	0xbdac98d8	-0.0842759
144	0xbd63a35e	-0.05557572
145	0xbda69430	-0.08133733
146	0xbd5f22f0	-0.05447668
147	0xbda0af06	-0.07845883
148	0xbd58af12	-0.052901335
149	0xbd9b445f	-0.075814
150	0xbdfb8063	-0.12280347
151	0xbe26b119	-0.16278495
152	0xbdbfe847	-0.09370475
153	0xbe141961	-0.14462806
154	0xbda5b7fc	-0.08091733
155	0xbe090cb9	-0.1338376
156	0xbd9d0103	-0.076662086
157	0xbe02a4c7	-0.1275817
158	0xbd9eac04	-0.07747653
159	0xbdfaef35	-0.12252656
160	0xbda15f4b	-0.07879504
161	0xbdf292a9	-0.118443795
162	0xbda341dc	-0.07971546
163	0xbdee34c9	-0.11631162
164	0xbda487df	-0.08033728
165	0xbdeaa3fa	-0.11457057
166	0xbda5299f	-0.08064579
167	0xbde7aefa	-0.11312671
168	0xbda4c57f	-0.08045482
169	0xbde8d1fe	-0.11368178
170	0xbda2db59	-0.079519935
171	0xbde41f62	-0.11138798
172	0xbda05945	-0.07829527
173	0xbde33605	-0.11094288
174	0xbd9c6a82	-0.07637502
175	0xbddfbb41	-0.10924388
176	0xbd9739a4	-0.07384041
177	0xbddf548c	-0.10904798
178	0xbd915033	-0.07095375
179	0xbddbc3dd	-0.10730717
180	0xbd8cb7dc	-0.06871006
181	0xbdd82793	-0.10554423
182	0xbd8ad3ad	-0.06778655
183	0xbdd3a5cd	-0.10334358
184	0xbd8af955	-0.067858376
185	0xbdcfd50d	-0.10148058
186	0xbd8a38c5	-0.06749109
187	0xbdc80127	-0.09765845
188	0xbd86d152	-0.065828934
189	0xbdbe8be5	-0.093040265
190	0xbd834c6a	-0.06411059
191	0xbdb6e367	-0.08930092
192	0xbd80ac4c	-0.06282863
193	0xbdafb506	-0.08579449
194	0xbd7cf4bb	-0.06175683
195	0xbda8a3a2	-0.082343355
196	0xbd790e1c	-0.06080447
197	0xbda20c49	-0.079124995
198	0xbd779cd0	-0.060452282
199	0xbd9c128a	-0.076207235
200	0xbe02a733	-0.12759094
201	0xbe246d12	-0.16057232
202	0xbdc01405	-0.093788184
203	0xbe0add79	-0.13561048
204	0xbda608d4	-0.081071526
205	0xbe016aa3	-0.12638335
206	0xbda31217	-0.07962435
207	0xbdf4483f	-0.11927842
208	0xbdaa01bd	-0.08301113
209	0xbdedd908	-0.11613661
210	0xbdb10815	-0.0864412
211	0xbde8268e	-0.11335479
212	0xbdb7e8f5	-0.0897998
213	0xbde86d7d	-0.11349008
214	0xbdbf1705	-0.093305625
215	0xbde260b1	-0.11053599
216	0xbdc45956	-0.09587352
217	0xbde2fc1b	-0.110832416
218	0xbdc6f66d	-0.09714971
219	0xbddf7c59	-0.10912389
220	0xbdc8afeb	-0.09799179
221	0xbddc0049	-0.10742242
222	0xbdc9cf11	-0.09853948
223	0xbddbdda2	-0.107356325
224	0xbdcc0c93	-0.09963336
225	0xbdd535e7	-0.10410672
226	0xbdcbf549	-0.09958894
227	0xbdd4f2ff	-0.1039791
228	0xbdc96c0f	-0.09835064
229	0xbdd464ab	-0.103707634
230	0xbdc95a53	-0.09831681
231	0xbdd2d97f	-0.1029539
232	0xbdc841c2	-0.09778167
233	0xbdcc995d	-0.09990189
234	0xbdc5e0c0	-0.09662008
235	0xbdc90877	-0.09816068
236	0xbdc15d5a	-0.094416335
237	0xbdc1bf84	-0.09460357
238	0xbdbd6dfe	-0.09249495
239	0xbdb9c5a9	-0.09070904
240	0xbdb83962	-0.0899532
241	0xbdafe11d	-0.08587859
242	0xbdb20143	-0.08691647
243	0xbda7ab9f	-0.08187031
244	0xbdacadb6	-0.0843157
245	0xbd9e3833	-0.07725563
246	0xbda778d4	-0.08177343
247	0xbd969799	-0.07353134
248	0xbd9f854b	-0.077890955
249	0xbd8f99a2	-0.07011725
250	0xbdfdfbd5	-0.12401549
251	0xbe126977	-0.14298044
252	0xbdc087c5	-0.09400896
253	0xbdf0b0d9	-0.11752481
254	0xbda6db75	-0.08147327
255	0xbdd1ed29	-0.10250313

mdn_layer.mu.weight f4 [1000, 64]
0	0xbd16da16	-0.036829077
1	0x3c986426	0.018602442
2	0xbcd0a469	-0.025469022
3	0x3ce8f875	0.028438786
4	0xbb4007aa	-0.0029301443
5	0xbc915933	-0.017742729
6	0xbc15ee22	-0.009151014
7	0xbd0153a0	-0.03157389
8	0xbbc4979f	-0.00599952
9	0xbce23500	-0.027613163
10	0xbad5b225	-0.0016303702
11	0x3cdb35f6	0.026759129
12	0x3b1b306f	0.0023679992
13	0xbb83b2be	-0.0040191105
14	0xbc2b3ca6	-0.010451471
15	0xb8e80234	-0.000110630324
16	0x3c5fd7fa	0.013662333
17	0xbc5b9fb4	-0.013404775
18	0xbca3feca	-0.020018954
19	0xbca30c93	-0.019903457
20	0x3cd61416	0.026132625
21	0x3bdb50c7	0.006692979
22	0x3ca54329	0.020173626
23	0xba753eda	-0.0009355374
24	0x38fb6a5f	0.00011988426
25	0xbc255e92	-0.010093348
26	0x3d2eb765	0.042655367
27	0xbc9f4522	-0.019442145
28	0xbd06f23d	-0.03294586
29	0xbbb90df7	-0.0056474167
30	0xbd3a859d	-0.04553758
31	0xbb1e6f92	-0.0024175388
32	0x3c32974c	0.01090033
33	0x38c347ba	9.311685e-05
34	0x3d5d8e0b	0.05409054
35	0x3c2307cc	0.009950589
36	0xbc11c81b	-0.0088978065
37	0x3cab39a7	0.020901514
38	0x3d25db4f	0.040492352
39	0x3be25f53	0.006908336
40	0xbc35ab96	-0.011088273
41	0xbb41f30d	-0.0029594332
42	0xb979b438	-0.00023813627
43	0x3d1a1b85	0.0376239
44	0xbc97a8fe	-0.018513199
45	0x3bc4cc0d	0.00600577
46	0x3b190c9a	0.0023353458
47	0xb943e766	-0.00018682852
48	0x3cc0b6db	0.023524692
49	0xbb21fece	-0.0024718526
50	0x3c8d62d0	0.017259032
51	0xbb5cd484	-0.0033696005
52	0x3d0048fd	0.031319607
53	0x3b0813a1	0.0020763653
54	0x3cefd017	0.02927403
55	0x3cb98716	0.022647422
56	0xbc5cb746	-0.01347143
57	0xbcb478fb	-0.022030344
58	0xbd8cc5ac	-0.068736404
59	0xbb38dd9d	-0.0028208264
60	0xbc03be98	-0.008041047
61	0xbaa235d9	-0.0012375667
62	0xbd652a17	-0.055948343
63	0x3c0a9800	0.008459091
64	0xbc91603a	-0.01774608
65	0xbc198206	-0.009369379
66	0xbc85a217	-0.016312642
67	0xbd3ad9f1	-0.045618
68	0xbb20b5f5	-0.0024522517
69	0xbb1041e1	-0.0022011923
70	0xbc9851e3	-0.018593734
71	0xbc0752ee	-0.008259518
72	0xba04805b	-0.0005054527
73	0xbc0595fa	-0.008153433
74	0xbb3ec491	-0.0029108862
75	0xbc98b256	-0.018639725
76	0xbc2dd782	-0.010610463
77	0xbb247268	-0.0025092606
78	0xbbde73d9	-0.0067887125
79	0x3c1b8538	0.009492211
80	0x3cd9361e	0.026515063
81	0x3d08f251	0.033434216
82	0xbd0b1d02	-0.03396321
83	0x398d9648	0.00027005584
84	0xbcf19afe	-0.029492851
85	0xbd11d7ea	-0.035606302
86	0xbcfa030a	-0.030519027
87	0xbc29a678	-0.010354631
88	0x39cd4274	0.00039150158
89	0x3d22fe70	0.03979343
90	0x3d14195f	0.03615701
91	0x3c915da4	0.017744847
92	0xbcc9ae41	-0.024619224
93	0xbcc52d64	-0.024069495
94	0xbc8655de	-0.016398367
95	0xbd1323b4	-0.03592272
96	0xbcf004dc	-0.029299192
97	0xbc72bd53	-0.014815646
98	0x3bbf1666	0.0058315275
99	0xbd2f3676	-0.042776547
100	0xbcc446fa	-0.023959626
101	0xbb2a1874	-0.0025954517
102	0xbd0bcb0b	-0.034129184
103	0x3b1996fc	0.002343594
104	0x3cda59bf	0.026654122
105	0x3d016513	0.031590533
106	0x3c9fabc6	0.019491088
107	0x3c38e43b	0.011284883
108	0xbc593761	-0.013257832
109	0x3bd41328	0.00647201
110	0xbc0a6139	-0.008446031
111	0x3d124cad	0.035717655
112	0x3c7be779	0.015375012
113	0x3c693340	0.01423341
114	0x3c58b7e5	0.013227438
115	0x3a511422	0.00079757173
116	0x3bdb7ced	0.006698242
117	0x3b65436a	0.003498281
118	0xbb047134	-0.0020209076
119	0x3d20cf58	0.03926024
120	0xbbb2d61d	-0.005457653
121	0xbc9df63f	-0.019282458
122	0xbcac4adf	-0.021031795
123	0x3c659af7	0.014013997
124	0xbd24aec7	-0.040205743
125	0xb901945a	-0.00012357664
126	0x3ca4d45a	0.020120788
127	0x3c547a2a	0.012968579
128	0xbd3b4155	-0.045716602
129	0x3c08924d	0.008335662
130	0x3cf00483	0.029299026
131	0x3d3f36cc	0.046683118
132	0xbc1d3ce0	-0.009597033
133	0xbd09bafb	-0.033625584
134	0x3d0ec61c	0.0348569
135	0xbb6b2c4d	-0.003588456
136	0x3c22a9fe	0.009928225
137	0xbd6d5b57	-0.057948437
138	0xbbf57f09	-0.0074919504
139	0xbc69b68d	-0.014264715
140	0x3b3559e6	0.0027671992
141	0x3c9d62a5	0.019212076
142	0x3d76460b	0.060125392
143	0x3c84a235	0.016190628
144	0xbc463311	-0.012097136
145	0xbd29ce31	-0.041456405
146	0xbd18b64c	-0.037283227
147	0xbc60bb71	-0.0137165645
148	0x3ca5adba	0.02022444
149	0xba68fe48	-0.00088879885
150	0xbd1a2410	-0.037632048
151	0xbce4056d	-0.027834618
152	0x3b7700c3	0.0037689663
153	0x3cb6aec4	0.022300132
154	0x3cc88878	0.024479136
155	0x3cee49f5	0.029088
156	0x3bcecdba	0.0063111456
157	0xbc9ca30a	-0.019120712
158	0x3c60c7d2	0.013719516
159	0x3caeb70e	0.021327522
160	0x3d154ad0	0.0364483
161	0x3c0a8893	0.008455413
162	0x3ddc5ec1	0.107602604
163	0xbb81d6a9	-0.003962357
164	0xbd4a30e0	-0.049363017
165	0x3d67f872	0.05663342
166	0xbcc7c612	-0.02438644
167	0x39c12610	0.00036840187
168	0x3c5b44e8	0.013383128
169	0x3adea801	0.0016987325
170	0x3c11211e	0.008857993
171	0xbd2f7901	-0.042840008
172	0xbc41bf6b	-0.011825423
173	0xbc72a936	-0.014810851
174	0xbc250012	-0.010070818
175	0x3c20df0e	0.009818805
176	0x3ad3c7f1	0.001615761
177	0xbcb39cfd	-0.021925444
178	0x3cfa950f	0.030588655
179	0xbbc9c2e5	-0.0061572664
180	0xbd31a5d8	-0.04337105
181	0xbce893b8	-0.02839075
182	0x3cc5b8d6	0.024135988
183	0x3a779196	0.0009443996
184	0x3b79a573	0.0038093
185	0x3ce91e08	0.028456703
186	0xbdec726a	-0.1154526
187	0xbbba992a	-0.005694528
188	0xbcdd8d69	-0.027044969
189	0x3ae35234	0.0017343224
190	0xbddb44ab	-0.10706457
191	0x3c44979b	0.011999036
192	0xbcff8155	-0.0311896
193	0x3cf041bf	0.029328225
194	0x3cb2da47	0.021832598
195	0x3d1310c6	0.03590467
196	0xbb24e555	-0.0025161107
197	0xbba99bd8	-0.0051760487
198	0xbd022a37	-0.03177854
199	0x3be66b42	0.007031829
200	0xbcd4486b	-0.025913438
201	0xbcadcaaa	-0.021214802
202	0xbb3cd435	-0.0028813009
203	0xbc00bdf9	-0.007857793
204	0x3caffeb8	0.021483764
205	0xbd0324b1	-0.032017414
206	0x3cc05022	0.02347571
207	0xbce9ba67	-0.028531266
208	0xbbf101bb	-0.0073549426
209	0x3d886e03	0.06661608
210	0xbcd6abc9	-0.02620496
211	0xbbec99db	-0.0072204894
212	0xbcf7a473	-0.030229783
213	0x3ad83e38	0.0016498035
214	0x3d097260	0.033556342
215	0x3cb79b98	0.02241306
216	0x3b13caba	0.0022551254
217	0xbc8085a5	-0.015688727
218	0xbc303b4f	-0.010756328
219	0x3b406620	0.0029357746
220	0x3c6b0687	0.014344818
221	0x3d24e274	0.040255025
222	0x3b03fee1	0.0020140933
223	0xbd09d6f8	-0.033652276
224	0xbd649109	-0.05580238
225	0xbc64c310	-0.013962522
226	0x3ca6353e	0.02028906
227	0x3cef3494	0.029199876
228	0x3d30bb19	0.04314718
229	0x39310d6c	0.00016885035
230	0xbcfad8ac	-0.030620895
231	0x3bf46c4c	0.007459199
232	0xbc89153c	-0.016733758
233	0x3d182dac	0.03715293
234	0x3d1b2948	0.037881166
235	0xbd1299a4	-0.035791054
236	0x3c2d0b2f	0.010561748
237	0x3c9e3a2a	0.019314844
238	0xbc2a61e2	-0.010399314
239	0xbd00408d	-0.03131156
240	0xbcc90033	-0.024536228
241	0xbcb6ab85	-0.022298584
242	0x3cf6ca1c	0.03012567
243	0xbbc3d883	-0.005976738
244	0xbd4e778a	-0.05040697
245	0x3a684dc4	0.00088616856
246	0x3c9dddaf	0.019270746
247	0x3bfc1d34	0.007693911
248	0xbd0cdd8e	-0.03439098
249	0xbcbd46cf	-0.023105053
250	0xbd1aa316	-0.037753187
251	0xbc05812d	-0.008148474
252	0x3c8215f7	0.015879614
253	0xbac0ea88	-0.0014718333
254	0x3d3255ce	0.04353886
255	0x3cb24683	0.021762138
