CKLD/lap_kld_record-v5-eig3/gaussian20/dataset2/trained_models/mdn_model_epoch999.tar (torch, 557897 bytes, 10 tensors)

ip_emb.weight f4 [64, 47]
0	0xbd03b41a	-0.03215418
1	0xbe060cbb	-0.13090794
2	0xbd313438	-0.04326269
3	0x3db2d22c	0.08731493
4	0xbc27fdf6	-0.01025342
5	0x3d1761f8	0.036958665
6	0xbd52f338	-0.051501483
7	0xbe053040	-0.13006687
8	0x3cdf1c12	0.027235065
9	0x3d9b6ab3	0.07588711
10	0xbdc60f7a	-0.09670921
11	0xbd6c06c5	-0.057623643
12	0x3d5ef97a	0.05443714
13	0x3e1c3bc2	0.15257171
14	0x3d99dde7	0.07513028
15	0x3d759856	0.059959732
16	0x3e1066b8	0.14101684
17	0x3defa215	0.117008366
18	0x3e40ef98	0.18841398
19	0x3e4bb021	0.19891407
20	0x3e3fdf88	0.18737614
21	0x3d8aba12	0.06773771
22	0x3d5f816e	0.054566793
23	0x3e6d4bde	0.23173472
24	0xbeffd2d4	-0.49965537
25	0x3d446218	0.047945112
26	0xbf8ced90	-1.1009998
27	0x3e355233	0.17707138
28	0xbfbc8d4a	-1.4730618
29	0x3e74d22b	0.23908298
30	0xbe059a21	-0.13047077
31	0x3db240b5	0.08703748
32	0x3dc91c50	0.09819853
33	0x3db70026	0.08935575
34	0xbd3587d8	-0.044319004
35	0x3d5d221e	0.053987615
36	0x3d933bbb	0.07189127
37	0xbd7703e0	-0.06030643
38	0x3d989c89	0.07451732
39	0xbbc9a8f8	-0.006154176
40	0xbddbfe2c	-0.10741839
41	0x3d4c8e84	0.0499406
42	0x3c492580	0.012277007
43	0xbd8852e8	-0.06656438
44	0x3d9138e1	0.07090927
45	0x3dde7348	0.10861832
46	0xbe06e15b	-0.13171904
47	0x3e10d821	0.14144947
48	0x3deac9b5	0.11464254
49	0xbb8cbb09	-0.0042947573
50	0x3e09af70	0.1344583
51	0x3e1d4f86	0.15362367
52	0x3e126930	0.14297938
53	0x3db4d165	0.08829001
54	0x3dfca5a0	0.12336278
55	0xbdd158ff	-0.10222053
56	0x3d30b199	0.04313812
57	0x3d9db18e	0.076998815
58	0xbdee378c	-0.116316885
59	0xbe0330c9	-0.12811579
60	0x3d947b52	0.07250084
61	0xbd4696ec	-0.048483774
62	0x3e14f88c	0.14547938
63	0xbe291c28	-0.16514647
64	0x3c745cf4	0.01491474
65	0x3d9488e6	0.07252674
66	0xbda73acb	-0.08165511
67	0x3e2d0239	0.16895379
68	0x3ceacdf9	0.028662669
69	0xbe0093d5	-0.12556393
70	0xbdd32030	-0.10308874
71	0xbec74317	-0.38918373
72	0x3cf48ced	0.029852355
73	0xbf95a0c3	-1.1689686
74	0xbd8e99da	-0.069629386
75	0xbfd59a05	-1.6687628
76	0xbdc02e61	-0.09383846
77	0xbdd99bc1	-0.10625411
78	0x3d233acd	0.039851
79	0xbdbe47c8	-0.09291035
80	0xbda21d31	-0.07915724
81	0xbe1fc94c	-0.15604132
82	0xbc9ffcca	-0.019529719
83	0x3c1907bc	0.009340223
84	0xbb58a12d	-0.0033055053
85	0x3d4212f4	0.047381356
86	0xbc26eed0	-0.010188773
87	0xbdba7a0e	-0.09105311
88	0x3be69972	0.007037335
89	0x3d7e1c19	0.062038515
90	0xbddda8cf	-0.10823213
91	0xbdbabddc	-0.09118244
92	0xbd61244b	-0.054966252
93	0xbc21f9cd	-0.009886217
94	0x3ca493fd	0.020090098
95	0x3d0c94df	0.034321662
96	0x3c1c3fb8	0.009536676
97	0xbc2d231f	-0.010567456
98	0xbde89d3f	-0.11358117
99	0x3c1bc984	0.009508494
100	0x3ce04793	0.02737788
101	0x3e03133c	0.12800306
102	0x3e520753	0.20510606
103	0xbd863879	-0.0655374
104	0x3a241590	0.00062593166
105	0xbd620850	-0.05518371
106	0x3d2b883a	0.041877963
107	0xbccd5530	-0.025065035
108	0x3d918da2	0.071070924
109	0x3d4432c4	0.047899976
110	0xbe69ca16	-0.22830996
111	0xbdb88dc6	-0.09011416
112	0xbe542e34	-0.2072075
113	0xbe210d98	-0.15727842
114	0xbeb40ae5	-0.35164562
115	0xbdd03bdb	-0.101676665
116	0xbe7ffb18	-0.24998128
117	0xbbda0a39	-0.0066540507
118	0x3e4147e5	0.18875082
119	0xbd2fa8dc	-0.042885646
120	0x3f7c16b3	0.98472136
121	0xbdb5993b	-0.08867117
122	0x3fd05c25	1.627812
123	0xbe26ab84	-0.16276366
124	0xbd99a18f	-0.07501518
125	0xbd5944b1	-0.053044025
126	0xbd78c882	-0.060738094
127	0x3d9ab973	0.07554903
128	0xbd2ae21b	-0.041719537
129	0x3c6b60de	0.014366357
130	0xbc40d619	-0.011769795
131	0x3d25ec3d	0.040508498
132	0x3c0f3741	0.008741201
133	0xbd12dc4b	-0.03585462
134	0x3d7f9c42	0.06240488
135	0xbcd854e0	-0.026407659
136	0x3db77844	0.08958486
137	0x3dd85bb3	0.10564365
138	0x3d53cf3c	0.051711306
139	0x3da488c2	0.08033897
140	0xbd11ff1e	-0.03564369
141	0x3d16a644	0.036779657
142	0x3dd6c2a0	0.104863405
143	0x3d0400ef	0.032227453
144	0x3e0ae2b0	0.13563037
145	0xbdf2919e	-0.118441805
146	0x3e0c4fd6	0.1370233
147	0xbd44e2bf	-0.048067804
148	0x3e2478bf	0.16061686
149	0xbd4e8e21	-0.050428513
150	0x3db364b0	0.08759439
151	0x3dd6df46	0.10491805
152	0x3e0f7bf6	0.14012131
153	0xbd241626	-0.040060185
154	0xbd284b1c	-0.041087255
155	0xbd96ef28	-0.07369834
156	0xbddef3a6	-0.10886316
157	0xbe283285	-0.16425522
158	0xbc3789db	-0.011202301
159	0xbec0d742	-0.3766423
160	0xbc9b2319	-0.018937634
161	0xbf114898	-0.56751394
162	0xbdce62ca	-0.10077436
163	0xbf1e92a6	-0.6194252
164	0x3daa98cb	0.08329924
165	0xbf11fc24	-0.5702536
166	0xbdee481d	-0.11634848
167	0x3ea39690	0.31950808
168	0xbce3771a	-0.027766753
169	0x3f773df1	0.9657889
170	0xbde8ce17	-0.113674335
171	0x3cee39d3	0.029080307
172	0xbe071e33	-0.13195114
173	0x3e12e0ae	0.14343521
174	0x3c76b5c6	0.015057987
175	0xbdc3fa86	-0.09569268
176	0x3cc8060f	0.024416951
177	0x3c07c46c	0.008286577
178	0xbddcca40	-0.107807636
179	0x3ce71a98	0.028210923
180	0xbd82ad4b	-0.06380709
181	0x3c215aaa	0.009848276
182	0xbd2eba58	-0.04265818
183	0xbdc1bd94	-0.09459987
184	0xbd908dd3	-0.07058301
185	0xbdd91b38	-0.10600895
186	0xbc40b72d	-0.0117624225
187	0xbd206d82	-0.039166935
188	0x3d5880ee	0.052857332
189	0xbe1ae1d6	-0.15125212
190	0x3d1cc88f	0.038277205
191	0x3daf5c7d	0.085625626
192	0xbc8d85a9	-0.017275648
193	0x3d96d3de	0.07364629
194	0xbd5130b3	-0.051071834
195	0xbd47c2ff	-0.048769947
196	0x3dc8267e	0.09772967
197	0x3e025f46	0.12731656
198	0xbd823da8	-0.06359416
199	0x3e0160eb	0.12634628
200	0x3dcfdf42	0.10150005
201	0x3d5ea0a9	0.054352436
202	0x3e256bc6	0.16154394
203	0x3d25899a	0.04041443
204	0x3d6b3acc	0.05742912
205	0x3e36fa0c	0.17868823
206	0xbd4968ff	-0.049172398
207	0xbceeada9	-0.029135542
208	0xbd83db3e	-0.064383015
209	0x3dd19090	0.10232651
210	0x3d035fb2	0.032073684
211	0x3e66a417	0.22523533
212	0xbe170fa4	-0.1475206
213	0x3de413f3	0.111366175
214	0xbea76848	-0.32696748
215	0x3e7eed2e	0.24895164
216	0xbed4d655	-0.41569772
217	0x3e5cc3d3	0.21559076
218	0x3dcc567d	0.09977434
219	0xbb30f1ca	-0.0026999586
220	0xbd2c7842	-0.042106874
221	0x3df0fa91	0.11766542
222	0x3da7ec25	0.08199338
223	0xbe2fe0eb	-0.17175643
224	0x3d364c9f	0.044506665
225	0xbbd78095	-0.0065766075
226	0xbd93e18b	-0.07220753
227	0x3baf8bcb	0.005357241
228	0xbd13555a	-0.03597007
229	0x3d02f10d	0.031968165
230	0xbd835381	-0.064124115
231	0xbdc30ba7	-0.09523707
232	0xbe0e67af	-0.1390674
233	0x3db0a070	0.08624351
234	0x3d83e1c3	0.06439545
235	0xbf81bdd2	-1.0136054
236	0xbcd5d624	-0.026103087
237	0xbf8a4903	-1.0803531
238	0x3d94f61e	0.07273506
239	0xbf92920b	-1.1450819
240	0xbe40b80a	-0.18820205
241	0xbf6d2f48	-0.9265027
242	0x3c923dbf	0.017851708
243	0xbf5f8a4c	-0.873204
244	0xbcacec94	-0.021108903
245	0xbf677d2f	-0.9042539
246	0xbd0e18fe	-0.034691803
247	0xbf5d285c	-0.8638971
248	0xbdc01164	-0.09378317
249	0xbf7a5c69	-0.97797257
250	0xbbfef11d	-0.007780208
251	0xbf67e989	-0.9059072
252	0xbc506386	-0.012719041
253	0xbf82bdde	-1.0214193
254	0x3dd60dab	0.10451826
255	0xbf939a56	-1.1531475

ip_emb.bias f4 [64]
0	0x3ddb18f7	0.10698121
1	0x3def6146	0.11688475
2	0x3daae00f	0.08343517
3	0xbd9b248f	-0.075753324
4	0x3de8917d	0.11355875
5	0xbe1a451e	-0.15065429
6	0x3e8889e3	0.266677
7	0xbe4ee098	-0.20202863
8	0xbb3bffbd	-0.0028686367
9	0xbe5ba0cb	-0.21448056
10	0xbdcb4889	-0.09925944
11	0x3e1bc249	0.15210833
12	0xbd356179	-0.04428241
13	0xbdf53c78	-0.11974424
14	0xbdd4db2b	-0.103933655
15	0x3de31027	0.11087065
16	0x3e94ab05	0.29036728
17	0xbda2608d	-0.07928572
18	0x3e3de388	0.18543828
19	0x3e0b0dc9	0.13579477
20	0xbdee6cd6	-0.116418526
21	0x3c70070d	0.014650119
22	0xbdc18016	-0.094482586
23	0x3d4658d6	0.048424564
24	0x3c800462	0.01562709
25	0xbdf912e7	-0.121618085
26	0x3da754bc	0.08170459
27	0xbdc8b504	-0.09800151
28	0x3d3b83ba	0.04577992
29	0xbd9bc6e1	-0.076062925
30	0x3d6d128e	0.057879023
31	0x3e66cc88	0.2253896
32	0x3e36c21d	0.17847486
33	0x3d6dd363	0.058062922
34	0x3d9a049f	0.07520413
35	0x3cecee5a	0.028922249
36	0xbdf7c1e2	-0.12097527
37	0xbe93d592	-0.2887388
38	0x3e672209	0.22571577
39	0xbc7c47b1	-0.015397952
40	0x3e24c8d1	0.1609223
41	0xbe13ccc9	-0.14433588
42	0x3d91260d	0.07087336
43	0x3d881ea2	0.06646468
44	0xbdc48ad0	-0.09596789
45	0xbdb888bc	-0.09010455
46	0x3e6659ba	0.22495165
47	0xbd1a8aa5	-0.037729878
48	0x3df27cf8	0.11840242
49	0xbe1af003	-0.1513062
50	0x3dedb8f1	0.116075404
51	0xbe3748ef	-0.17898916
52	0x3d81a049	0.063294
53	0xbd8c88cd	-0.0686203
54	0xbc624aa5	-0.013811742
55	0x3cc83f6d	0.024444306
56	0xbe18f39d	-0.14936681
57	0x3da03fd5	0.07824675
58	0x3e5ad6c6	0.21370992
59	0xbd342e54	-0.043989494
60	0xbd267066	-0.040634535
61	0x3e553ea8	0.20824683
62	0xbd66266f	-0.056188997
63	0x3d0c2d21	0.034222726

dyn_emb.weight f4 [64, 64]
0	0x3e47fdee	0.1953046
1	0x3e5911dd	0.2119822
2	0xbe3b603d	-0.1829843
3	0x3dd566b2	0.10419978
4	0x3e06c29e	0.13160178
5	0x3e680c3e	0.2266092
6	0xbe4f545c	-0.20247024
7	0x3df962f3	0.12177076
8	0x3e91d9f4	0.28486598
9	0xbd9fbedb	-0.07800075
10	0x3dcf959f	0.1013596
11	0xbe97b884	-0.29632962
12	0x3e4c1d10	0.19932961
13	0xbe9e56f0	-0.30925703
14	0xbe228237	-0.15869986
15	0xbe370c35	-0.1787575
16	0xbe805770	-0.2506671
17	0x3e46430a	0.19361511
18	0xbe4ffdab	-0.2031161
19	0x3e5dad21	0.21648075
20	0xbe8a526c	-0.27016008
21	0xbd987736	-0.07444613
22	0x3e676b32	0.22599486
23	0xbe46fd87	-0.1943265
24	0x3e1e2f7c	0.15447801
25	0x3e55b731	0.20870663
26	0x3e542c44	0.20720011
27	0x3da8130e	0.082067594
28	0xbdd0c190	-0.10193169
29	0xbdb3c412	-0.08777632
30	0x3d875f35	0.06609956
31	0xbe3b540b	-0.18293779
32	0x3d191e2f	0.0373823
33	0xbeae753e	-0.34073824
34	0xbe87b2b5	-0.2650353
35	0xbe5da113	-0.21643476
36	0xbcb3bc33	-0.021940326
37	0x3e040d18	0.1289562
38	0xbe25071f	-0.16115998
39	0xbe874e24	-0.26426804
40	0xbdcacb25	-0.09902028
41	0xbef926c0	-0.48662376
42	0xbe71fb0a	-0.2363092
43	0x3e2c8d02	0.16850665
44	0x3e3583f6	0.1772612
45	0xbe1a4fda	-0.15069523
46	0xbe937ed2	-0.28807694
47	0xbded8878	-0.11598295
48	0x3e492932	0.19644621
49	0x3dd8016a	0.10547145
50	0x3e6d08b7	0.23147856
51	0xbdc4d6e7	-0.09611302
52	0x3e39aece	0.18133089
53	0xbdeb2ba5	-0.11482934
54	0x3e416b32	0.18888548
55	0xbe01ab79	-0.12663068
56	0xbe56f1d3	-0.20990686
57	0x3cbe02b1	0.023194643
58	0xbe5c447e	-0.21510503
59	0x3e293b8a	0.16526619
60	0x3e027674	0.12740499
61	0xbe74be3f	-0.23900698
62	0x3e8b8b63	0.2725478
63	0x3e98d5c2	0.29850584
64	0xbe9c5427	-0.30532953
65	0xbe91a4b2	-0.28445965
66	0x3e67323d	0.22577758
67	0xbe7e4192	-0.248297
68	0xbd915f22	-0.07098223
69	0xbe966019	-0.29370192
70	0x3ea65f1d	0.3249444
71	0xbe993a06	-0.2992708
72	0xbe19a3a8	-0.15003836
73	0xbeb6089c	-0.35553443
74	0xbe79686e	-0.24356243
75	0x3e229ac2	0.15879348
76	0xbdc6ba0e	-0.09703456
77	0xbcc49a84	-0.02399946
78	0x3d7257d8	0.059165806
79	0x3da9ca10	0.082904935
80	0x3e5f0394	0.21778709
81	0xbe8a28fb	-0.2698439
82	0x3e2a35ca	0.16622081
83	0xbd5376cc	-0.051626965
84	0x3db4ed17	0.08834284
85	0x3dbfbe64	0.09362486
86	0xbe821cfc	-0.25412738
87	0x3e5a32b2	0.21308401
88	0xbd8198fd	-0.06328008
89	0xbe79fb4e	-0.24412271
90	0xbd3be89e	-0.045876138
91	0xbde3fb67	-0.111319356
92	0x3e93e383	0.28884515
93	0x3e528467	0.2055832
94	0xbdc9f427	-0.098610215
95	0x3e7d13b6	0.2471455
96	0x3e8ef3e5	0.27920452
97	0x3e82ddcf	0.25559852
98	0x3e26f413	0.16304044
99	0x3de79c1a	0.11309071
100	0x3e61c8ad	0.22049208
101	0xbe5f106e	-0.21783611
102	0x3e94f30b	0.29091677
103	0x3e33faec	0.17576188
104	0x3defe3da	0.11713381
105	0x3e6ad887	0.22934161
106	0x3e9c6ba6	0.3055088
107	0xbe619692	-0.22030094
108	0xbe172df6	-0.14763626
109	0x3e5c2df7	0.21501909
110	0x3e5fb482	0.21846202
111	0x3e1669b1	0.14688756
112	0xbe6d3d5c	-0.23167938
113	0xbeb16d2d	-0.34653607
114	0xbd38f343	-0.045153867
115	0x3e482208	0.19544232
116	0xbc731e19	-0.014838719
117	0x3e1d7eb9	0.15380372
118	0xbe6b7136	-0.22992405
119	0x3e1cc6e8	0.15310252
120	0x3e101458	0.1407026
121	0xbe3d5861	-0.18490745
122	0x3e7aa857	0.24478279
123	0xbdea16bb	-0.11430117
124	0xbe17725f	-0.14789723
125	0x3e8d642c	0.27615488
126	0xbe31bb65	-0.17356642
127	0xbe52ab02	-0.20573047
128	0xbe8de2fe	-0.27712244
129	0xbe15f302	-0.14643481
130	0x3e8376e5	0.25676647
131	0xbe843788	-0.25823617
132	0xbe0d3bf7	-0.13792406
133	0xbea8fab1	-0.33003762
134	0x3e507f3d	0.20361038
135	0xbe9ef5a9	-0.310468
136	0xbe8c8815	-0.27447572
137	0xbe3508a5	-0.17679079
138	0xbe2bd795	-0.16781457
139	0x3dec51f5	0.115390696
140	0xbe63994f	-0.22226451
141	0x3e480ac1	0.19535352
142	0x3dad40ad	0.084596016
143	0x3de148d2	0.110002175
144	0x3e9617d9	0.2931507
145	0xbe1a180c	-0.15048236
146	0x3e9309c4	0.28718388
147	0xbe612dec	-0.21990174
148	0x3c8384b8	0.016054496
149	0x3e8417ff	0.25799558
150	0xbe5d956e	-0.21639034
151	0x3e798601	0.24367525
152	0xbda4c65d	-0.08045647
153	0xbde48563	-0.11158254
154	0xbdf6d4a2	-0.12052275
155	0xbe536d37	-0.20647131
156	0x3e897ac5	0.26851478
157	0x3ddf5a7a	0.10905929
158	0xbe5b44b4	-0.21412927
159	0x3e6096ae	0.2193248
160	0x3e8b332e	0.27187485
161	0x3e7b6966	0.24551925
162	0x3e9f48f9	0.3111036
163	0x3dee8bba	0.116477445
164	0x3eb1309a	0.34607393
165	0xbe75555f	-0.23958348
166	0x3e43e94b	0.19131963
167	0x3e4d6698	0.20058668
168	0x3e45474d	0.1926548
169	0x3b97d5c3	0.0046336367
170	0x3e7f5dad	0.24938078
171	0xbe04005c	-0.12890762
172	0xbe317652	-0.17330292
173	0x3d14865d	0.03626095
174	0x3ddbf84e	0.1074072
175	0x3e89604f	0.2683129
176	0xbe683bfb	-0.2267913
177	0xbe6253c0	-0.2210226
178	0xbdf05baa	-0.117362335
179	0x3d7f2a5c	0.062296256
180	0xbd1f9748	-0.038962632
181	0x3e72116d	0.2363946
182	0xbddb4850	-0.10707152
183	0x3d672f84	0.0564418
184	0x3cc70eb4	0.024299003
185	0xbe0c0346	-0.13673124
186	0x3e0450d1	0.12921454
187	0xbda7e946	-0.0819879
188	0xbe21b48e	-0.15791532
189	0x3e00aa72	0.1256502
190	0xbdf92312	-0.12164892
191	0xbe0d5171	-0.13800599
192	0x3d90ac8a	0.07064159
193	0x3e22a29c	0.15882343
194	0xbe08848b	-0.13331811
195	0x3e66da3e	0.2254419
196	0x3d5b938b	0.053607505
197	0x3e9ae43d	0.30252257
198	0xbe96cce0	-0.29453182
199	0x3e8789ea	0.26472408
200	0x3e405ef0	0.18786216
201	0xbcdef95a	-0.02721851
202	0x3e1caca8	0.15300238
203	0xbdaac3ae	-0.08338104
204	0x3e8b2b4c	0.2718147
205	0xbe0e9e88	-0.13927662
206	0xbe41b3a3	-0.18916182
207	0xbe3746f2	-0.17898157
208	0xbe931f1e	-0.28734678
209	0x3e72e472	0.23719957
210	0xbe83e1ee	-0.25758308
211	0x3e2f1601	0.17098238
212	0xbecb88b1	-0.39752725
213	0xbe45f373	-0.1933115
214	0x3e639231	0.22223736
215	0xbe4a04c1	-0.19728376
216	0x3dc944ce	0.098275766
217	0x3eec9fdd	0.46215716
218	0x3e843ee7	0.2582924
219	0x3e2a7b4e	0.166486
220	0xbea3d8c0	-0.32001305
221	0xbd03e01c	-0.03219615
222	0x3e63b831	0.22238232
223	0xbe2b6f52	-0.16741684
224	0xbeb46583	-0.35233697
225	0xbe4df75a	-0.20113888
226	0xbeb2bb48	-0.3490851
227	0xbe87ed02	-0.2654801
228	0xbde1cacc	-0.110250086
229	0x3e2005cc	0.15627211
230	0xbe00edd5	-0.12590726
231	0xbe1fd701	-0.15609361
232	0xbe9d2961	-0.30695632
233	0x3d8c40a7	0.06848269
234	0xbe993971	-0.29926637
235	0x3decfb81	0.11571408
236	0x3dd3cc25	0.10341672
237	0xbde213e8	-0.11038953
238	0xbe630869	-0.22171177
239	0xbe788d95	-0.2427276
240	0x3e9100f8	0.28321052
241	0x3e0c14e2	0.13679841
242	0xbd2f34c8	-0.042774945
243	0xbe4d14a1	-0.200274
244	0x3e1ec289	0.15503897
245	0xbe4bab31	-0.19889523
246	0x3dc414b3	0.095742606
247	0xbe0d8742	-0.13821128
248	0xbe026526	-0.12733898
249	0x3e551703	0.2080956
250	0xbe4adb4f	-0.19810222
251	0x3e811697	0.25212547
252	0x3e213da8	0.15746176
253	0xbddc3557	-0.10752361
254	0x3e8b1747	0.27166197
255	0x3e55ee33	0.20891647

dyn_emb.bias f4 [64]
0	0xbe5e9d7b	-0.21739762
1	0x3e9b27cf	0.3030381
2	0x3ea0f00c	0.3143314
3	0xbe944b06	-0.28963488
4	0x3da92556	0.082590744
5	0x3de11499	0.10990257
6	0xbe9b3b1c	-0.30318534
7	0xbec4b550	-0.3841958
8	0xbb6a9563	-0.0035794608
9	0x3d104e55	0.035230953
10	0x3d9361d6	0.07196395
11	0xbe285a63	-0.1644073
12	0x3c8e7f8e	0.017394807
13	0xbe8f7e22	-0.2802592
14	0x3ed4cc09	0.41561916
15	0xbc6308b4	-0.013857055
16	0xbe269745	-0.16268642
17	0x3ea60ded	0.324325
18	0x3e3d2ab1	0.18473317
19	0xbeabbc4b	-0.33542094
20	0x3da36069	0.07977373
21	0x3e81edbf	0.25376698
22	0x3e232749	0.15932955
23	0x3eb9b846	0.36273402
24	0x3d877457	0.06613987
25	0x3e96f804	0.29486096
26	0xbd634a11	-0.055490557
27	0x3e5e708d	0.21722622
28	0x3e189c8f	0.14903472
29	0x3db8db05	0.0902615
30	0xbe8bb1d2	-0.27284104
31	0xbe7a2ca3	-0.2443109
32	0x3e174b38	0.14774787
33	0x3e881903	0.26581582
34	0xbc3ba00e	-0.011451734
35	0xbdfce9b2	-0.12349261
36	0xbe0417c6	-0.12899694
37	0x3e05e6d0	0.13076329
38	0xbe956e74	-0.29185832
39	0x3d0a2119	0.03372297
40	0xbdb770c1	-0.08957053
41	0xbe68f7b3	-0.2275074
42	0xbe3c41b5	-0.1838444
43	0x3dc04d70	0.0938977
44	0x3e650b33	0.22367553
45	0x3e503a4c	0.20334738
46	0x3d8bacf4	0.068200976
47	0x3e40d039	0.1882943
48	0x3e0bc692	0.13649967
49	0xbea1f06a	-0.31628734
50	0x3d3fbe71	0.04681248
51	0x3d48c524	0.049016133
52	0x3eae33ab	0.34023795
53	0x3e876dae	0.26450866
54	0xbe078290	-0.132334
55	0x3e83d52c	0.25748575
56	0x3e1226f4	0.14272672
57	0x3e682549	0.22670473
58	0xbbe403e5	-0.006958472
59	0xbe42f753	-0.19039659
60	0xbe9370aa	-0.28796893
61	0x3ddde258	0.10834187
62	0x3d347f65	0.044066805
63	0x3daec8cc	0.08534393

mdn_layer.pi.weight f4 [20, 64]
0	0xbba37fac	-0.004989585
1	0x3ba7577c	0.0051068645
2	0x3ba1b8ee	0.0049353754
3	0xbba0890b	-0.0048991493
4	0xb9c59581	-0.00037686157
5	0x39f7a7a5	0.00047236416
6	0xbba15dc1	-0.0049245064
7	0xbba40169	-0.005005051
8	0xb8fd9d67	-0.000120932986
9	0xb7991846	-1.8250325e-05
10	0x3b063778	0.002047984
11	0xbba3b802	-0.0049963007
12	0x398a6bef	0.00026401828
13	0xbba3ae81	-0.0049951677
14	0x3ba312a2	0.0049765864
15	0x3923795b	0.000155901
16	0xbba9d541	-0.0051828925
17	0x3ba6ec5f	0.0050940956
18	0x3b9420a4	0.0045204926
19	0xbba4a621	-0.005024687
20	0xba926c50	-0.0011171196
21	0x3ba374a9	0.004988272
22	0x3b99bb3e	0.0046915105
23	0x3ba50487	0.00503594
24	0xba43e098	-0.0007472127
25	0x3b9f571d	0.0048626796
26	0x38060692	3.195421e-05
27	0x3ba3e945	0.005002173
28	0x3b4ac579	0.0030940457
29	0xbad8d6d3	-0.0016543515
30	0xbb99d197	-0.0046941745
31	0xbba07e15	-0.0048978426
32	0x3999ce75	0.00029336257
33	0x3ba32162	0.004978345
34	0x376d6a44	1.4151043e-05
35	0xb88c5ef4	-6.6934066e-05
36	0x3aa96478	0.0012923619
37	0x3a19527a	0.0005848777
38	0xbba19827	-0.004931468
39	0x392dbee2	0.00016569675
40	0xbba05406	-0.004892829
41	0xbba1b895	-0.004935334
42	0xbba4d44c	-0.0050301906
43	0x383a1912	4.4369204e-05
44	0x3b9f15c3	0.004854889
45	0x3ba5d723	0.0050610467
46	0xb99d7ad6	-0.00030036893
47	0x3b9128bd	0.004429905
48	0x3ba41534	0.0050074104
49	0xbba372a6	-0.0049880324
50	0x39a3b646	0.00031225587
51	0xba19680c	-0.0005851991
52	0x3ba1ffe6	0.0049438355
53	0x3ba25165	0.0049535506
54	0x3937b4eb	0.00017519637
55	0x3ba4c951	0.0050288816
56	0x3a2d68ed	0.00066150614
57	0x3b9eed92	0.004850098
58	0x3a91301c	0.001107696
59	0x39e6e994	0.00044043048
60	0xbba39ace	-0.0049928194
61	0x3a2fead3	0.0006710712
62	0x3b5848e0	0.0033002421
63	0xba1ff902	-0.00061024737
64	0x3b89342c	0.0041871276
65	0xbb896f43	-0.0041941716
66	0xbb899091	-0.004198142
67	0x3b89c034	0.0042038206
68	0xb9981126	-0.00029004476
69	0x39bdfdc7	0.00036237968
70	0x3b8978db	0.0041953153
71	0x3b8a239b	0.0042156703
72	0xb8c35366	-9.313859e-05
73	0xb7998283	-1.8299796e-05
74	0x3aa41c5b	0.0012520658
75	0x3b887eaf	0.0041654925
76	0x3950d73c	0.00019916607
77	0x3b88c96e	0.004174403
78	0xbb8a3707	-0.0042179856
79	0x38f0cb2a	0.00011481934
80	0x3b893795	0.004187534
81	0xbb89abf3	-0.004201406
82	0xbb878956	-0.0041362448
83	0x3b8a0460	0.0042119473
84	0xba41535f	-0.0007374789
85	0xbb895c67	-0.0041919234
86	0xbb876b0a	-0.004132633
87	0xbb8931e0	-0.0041868538
88	0xba1cd99f	-0.0005983356
89	0xbb890a86	-0.0041821627
90	0x38f7f7d6	0.00011824041
91	0xbb896f5d	-0.0041941837
92	0xbb6e6031	-0.0036373253
93	0xba692052	-0.0008893061
94	0x3b88da96	0.004176448
95	0x3b88f862	0.00418
96	0x3964cb19	0.00021819434
97	0xbb89b6d7	-0.0042027044
98	0x36da20c3	6.5007202e-06
99	0xb83d761f	-4.517112e-05
100	0x3a5f0c8c	0.00085086445
101	0x39eb7a65	0.00044913884
102	0x3b884ca9	0.004159529
103	0x38f9c374	0.00011909651
104	0x3b890d17	0.0041824686
105	0x3b884f82	0.0041598687
106	0x3b8919c2	0.004183979
107	0x37213396	9.608359e-06
108	0xbb88ecf0	-0.004178636
109	0xbb89afd0	-0.0042018667
110	0xb97dec25	-0.00024215931
111	0xbb837a47	-0.0040123793
112	0xbb890c9b	-0.004182411
113	0x3b8a0792	0.004212328
114	0x3976c37e	0.00023533215
115	0xb9f44f60	-0.00046598446
116	0xbb89d791	-0.0042066057
117	0xbb8802fd	-0.004150747
118	0x39057d78	0.00012730609
119	0xbb895d2b	-0.0041920147
120	0x3a04961b	0.0005057768
121	0xbb88edb2	-0.004178726
122	0x3a2b35e5	0.0006531163
123	0x39e88245	0.00044347547
124	0x3b8a15fb	0.004214046
125	0x3a064d89	0.0005123248
126	0xbb7c0409	-0.0038454554
127	0xba0074da	-0.0004900225
128	0xbd3f99ad	-0.046777416
129	0x3d39ed26	0.045392178
130	0x3d3f9321	0.046771172
131	0xbd40f1ed	-0.04710572
132	0xbb0d1907	-0.002152981
133	0x3b2aa113	0.002603595
134	0xbd3fd6e6	-0.046835802
135	0xbd3f48cc	-0.046700284
136	0xba23f617	-0.0006254627
137	0xb8a1cae9	-7.714873e-05
138	0x3c547794	0.012967963
139	0xbd3c2cdb	-0.045941215
140	0x3abaeda0	0.0014261492
141	0xbd3aa4e0	-0.045567393
142	0x3d43504c	0.047684
143	0x3a5f66c9	0.0008522091
144	0xbd3be6d0	-0.045874417
145	0x3d3978bd	0.04528116
146	0x3d35d5c7	0.044393327
147	0xbd39e830	-0.045387447
148	0xbc0c123b	-0.008549268
149	0x3d3e6c21	0.04648984
150	0x3d39a311	0.045321528
151	0x3d38142b	0.04494111
152	0xbba51847	-0.0050382945
153	0x3d362f74	0.04447885
154	0x3a8014f6	0.0009771872
155	0x3d3f3ccb	0.046688836
156	0x3d149cd6	0.036282383
157	0xbc28b005	-0.010295873
158	0xbd3e25a0	-0.0464226
159	0xbd3d2d34	-0.046185687
160	0x3ad51f5b	0.0016259955
161	0x3d3f27e5	0.046668906
162	0x38ae5770	8.313253e-05
163	0xb9b8b316	-0.00035228644
164	0x3c25fe23	0.010131392
165	0x3b6ed41c	0.0036442345
166	0xbd37f6e8	-0.044913203
167	0x3a6ae6e3	0.00089607964
168	0xbd3e4953	-0.046456646
169	0xbd36b45c	-0.044605598
170	0xbd3e60c1	-0.04647899
171	0x388fdaec	6.859549e-05
172	0x3d3ebe29	0.04656807
173	0x3d3eeb8c	0.046611354
174	0xbad9d2b3	-0.0016618579
175	0x3d2dc7d5	0.042426903
176	0x3d3d4e46	0.046217225
177	0xbd412218	-0.047151655
178	0x3adfae62	0.001706552
179	0xbb61114f	-0.0034342592
180	0x3d41cfbb	0.047317248
181	0x3d3ceb66	0.04612293
182	0x3a7084ba	0.0009175051
183	0x3d343ebf	0.04400515
184	0x3b829fe9	0.003986348
185	0x3d3db257	0.046312656
186	0x3bdec884	0.0067988057
187	0x3b76b5d0	0.003764499
188	0xbd411f0a	-0.04714874
189	0x3b8891b1	0.0041677584
190	0x3d28be58	0.04119715
191	0xbb7afcea	-0.0038297721
192	0x3ba56c94	0.005048344
193	0xbba5c86a	-0.0050592916
194	0xbba5c34a	-0.0050586807
195	0x3ba61540	0.005068451
196	0xb99eef32	-0.00030314323
197	0x39b9cf89	0.00035440575
198	0x3ba5c9b5	0.0050594457
199	0x3ba69ef9	0.005084869
200	0xb8c30bad	-9.3004994e-05
201	0xb7841905	-1.5747277e-05
202	0x3ab238bb	0.0013597229
203	0x3ba4b1b3	0.005026066
204	0x394ff5d8	0.00019832642
205	0x3ba4c567	0.005028415
206	0xbba6c0f5	-0.0050889202
207	0x38d4fa9e	0.00010155629
208	0x3ba5c3d2	0.005058744
209	0xbba61f65	-0.0050696605
210	0xbba31beb	-0.0049776933
211	0x3ba67bd1	0.005080678
212	0xba5a72f9	-0.00083331723
213	0xbba594a8	-0.0050531216
214	0xbba32f3e	-0.004979997
215	0xbba59c17	-0.0050540078
216	0xba1880c1	-0.00058175257
217	0xbba54359	-0.005043429
218	0x3915d8c4	0.00014290499
219	0xbba5c8f3	-0.0050593554
220	0xbb8eec96	-0.0043616993
221	0xba7f68c3	-0.0009743089
222	0x3ba518ca	0.0050383555
223	0x3ba5284e	0.005040205
224	0x395f78f2	0.00021311993
225	0xbba607e1	-0.005066857
226	0x36b5d657	5.419173e-06
227	0xb83a93af	-4.4483397e-05
228	0x3a7feb60	0.00097625516
229	0x39e0c082	0.0004286804
230	0x3ba47fed	0.0050201328
231	0x38f803c2	0.000118262615
232	0x3ba539c9	0.005042289
233	0x3ba47d38	0.00501981
234	0x3ba53695	0.005041907
235	0x35ffff5a	1.9073298e-06
236	0xbba51a92	-0.005038568
237	0xbba61359	-0.0050682244
238	0xb9745f94	-0.00023305259
239	0xbb9e579f	-0.0048322226
240	0xbba533f7	-0.005041595
241	0x3ba672e9	0.0050796163
242	0x39786d62	0.00023691871
243	0xb9ee9d6a	-0.0004551218
244	0xbba645a9	-0.005074222
245	0xbba3d192	-0.004999348
246	0x390b2579	0.00013270033
247	0xbba5ac65	-0.0050559514
248	0x3a06b53c	0.00051387004
249	0xbba51ac0	-0.0050385892
250	0x3a3b8074	0.0007152625
251	0x3a058742	0.00050937023
252	0x3ba6938b	0.0050835065
253	0x3a08bdfb	0.00052162976
254	0xbb975a35	-0.004618908
255	0xb9f6dc24	-0.00047084794

mdn_layer.pi.bias f4 [20]
0	0x3ba3bfa0	0.0049972087
1	0xbb8a592f	-0.0042220573
2	0x3d438c72	0.04774136
3	0xbba6dd30	-0.0050922856
4	0x3e530a58	0.20609415
5	0x3ccac5db	0.024752548
6	0x3cadac53	0.021200335
7	0xba477ff8	-0.00076103164
8	0xbb8a3d4f	-0.0042187343
9	0x3cd9f62a	0.026606638
10	0x3c90511d	0.017616803
11	0xbba2eb07	-0.004971865
12	0xbb9bfc8b	-0.00476033
13	0x3e2a33ba	0.16621295
14	0xbb6ceb21	-0.003615089
15	0xbb9b23c8	-0.00473449
16	0x3d150772	0.036384054
17	0x3d89561b	0.067058764
18	0xbba14b92	-0.0049223388
19	0xbb9998a7	-0.004687387

mdn_layer.sigma.weight f4 [1000, 64]
0	0x3e1adef5	0.15124114
1	0xbe1a66ac	-0.15078229
2	0xbe1b703d	-0.15179534
3	0x3e1be3e9	0.1522366
4	0x3d9c87f5	0.07643119
5	0xbd2aa628	-0.041662365
6	0x3e194776	0.14968666
7	0x3e197754	0.14986926
8	0x3d54a74a	0.05191735
9	0x3c94621f	0.018113194
10	0x3dbccc41	0.09218646
11	0x3e1963b6	0.14979443
12	0xbda09c09	-0.07842261
13	0x3e1a2d09	0.15056242
14	0xbe1b9003	-0.15191655
15	0x3bc762ef	0.006084792
16	0x3e198c00	0.14994812
17	0xbe1b7ecd	-0.1518509
18	0xbe18c414	-0.14918548
19	0x3e1b650c	0.15175265
20	0xbdf525c9	-0.119700976
21	0xbe199351	-0.14997603
22	0xbe1ae621	-0.1512685
23	0xbe1d495b	-0.15360014
24	0xbd8f9249	-0.070103236
25	0xbe18d49b	-0.14924853
26	0x3dee9530	0.11649549
27	0xbe1b6153	-0.15173845
28	0xbe159eaa	-0.14611307
29	0xbdd740bc	-0.10510394
30	0x3e198a9e	0.14994285
31	0x3e1ae7d8	0.15127504
32	0x3c923f1f	0.017852364
33	0xbe1d09cc	-0.15335768
34	0x3d4c418c	0.049867198
35	0x3db85b93	0.090018414
36	0x3def0f22	0.11672808
37	0xbd01cf69	-0.031691942
38	0x3e1b1db8	0.15148056
39	0xbda10dc5	-0.078639545
40	0x3e1c59fd	0.15268703
41	0x3e19db3e	0.1502504
42	0x3e19fefc	0.15038675
43	0xbdd5ad2e	-0.10433422
44	0xbe197c3e	-0.14988801
45	0xbe1c80b8	-0.15283477
46	0x3c2b0e31	0.010440395
47	0xbe193bf7	-0.14964281
48	0xbe19d0d8	-0.15021074
49	0x3e1c8e2a	0.15288606
50	0xbd617b18	-0.055049032
51	0x3b9b8947	0.0047465893
52	0xbe1bee27	-0.15227567
53	0xbe1afa75	-0.15134604
54	0x3dae5b2b	0.08513483
55	0xbe1c0605	-0.15236671
56	0x3d45dc5d	0.048305858
57	0xbe1bb723	-0.1520658
58	0x3dc3962a	0.09550126
59	0x3df18646	0.11793189
60	0x3e1caccc	0.15300292
61	0x3d5f25b4	0.054479316
62	0xbe15de2c	-0.14635533
63	0xbc71f24c	-0.014767241
64	0x3e2e9ab9	0.1705121
65	0xbe38ef65	-0.18060072
66	0xbe3117df	-0.17294262
67	0x3e45584e	0.19271967
68	0x3dc97a02	0.09837724
69	0xbd077653	-0.033071827
70	0x3e223f58	0.15844476
71	0x3e3430a4	0.1759668
72	0x3d9db56c	0.07700619
73	0x3936c7b8	0.00017431274
74	0x3dc25d95	0.094905056
75	0x3e1996f5	0.14998992
76	0xbdc85d07	-0.097833686
77	0x3e4aca2a	0.19803682
78	0xbe22dd4b	-0.15904729
79	0xbcbd24f9	-0.023088919
80	0x3e3134e2	0.1730533
81	0xbe4db9e3	-0.20090441
82	0xbe29913e	-0.16559312
83	0x3e357f42	0.17724326
84	0xbe10d3fb	-0.14143364
85	0xbe5a89e7	-0.21341668
86	0xbe45c8ba	-0.19314852
87	0xbe2c639c	-0.16834873
88	0xbe445cba	-0.19175997
89	0xbe400a48	-0.18753922
90	0x3e12fcfb	0.14354317
91	0xbe327db4	-0.17430764
92	0xbe23ed71	-0.16008545
93	0xbe0e532c	-0.13898915
94	0x3e39ad96	0.18132624
95	0x3e250ba9	0.16117729
96	0xbcf44996	-0.029820245
97	0xbe269ef1	-0.16271569
98	0x3d07e0b3	0.033173274
99	0x3e05eaac	0.13077801
100	0x3e1d3477	0.15352045
101	0xbd65639f	-0.05600321
102	0x3e3cee26	0.18450221
103	0xbe0dd6f4	-0.1385153
104	0x3e36c450	0.17848325
105	0x3e4aa68d	0.19790097
106	0x3e3250a5	0.17413576
107	0xbdff86de	-0.12476896
108	0xbe3a3b3e	-0.18186662
109	0xbe2d572e	-0.16927788
110	0xbbd7502a	-0.0065708356
111	0xbe401a8f	-0.18760131
112	0xbe368e7d	-0.17827792
113	0x3e27d94c	0.16391486
114	0xbd57aad7	-0.05265316
115	0xbca689d6	-0.020329397
116	0xbe10e9e4	-0.14151722
117	0xbe1d6d7d	-0.15373798
118	0x3dc946f9	0.0982799
119	0xbe571cd6	-0.21007094
120	0xbc8fd773	-0.017558789
121	0xbe288a59	-0.16459025
122	0x3e0186fc	0.12649149
123	0x3e3324b6	0.17494473
124	0x3e2c7845	0.16842754
125	0x3c753e68	0.014968492
126	0xbe1f776c	-0.155729
127	0xbd1c31b1	-0.038133327
128	0x3dee05c2	0.11622192
129	0xbdefb9f2	-0.11705388
130	0xbdee9f97	-0.11651533
131	0x3dedcf22	0.11611773
132	0x3d7987df	0.060920592
133	0xbcd879e7	-0.026425315
134	0x3df14059	0.117798515
135	0x3dedf973	0.11619844
136	0x3c6fb681	0.014630915
137	0x3c952f8f	0.018211154
138	0x3d9fd0b0	0.07803476
139	0x3df1ea75	0.11812297
140	0xbd3176c9	-0.043326173
141	0x3df020cd	0.11725006
142	0xbdef2642	-0.11677219
143	0x3c614488	0.013749249
144	0x3df2833a	0.11841436
145	0xbdf13b18	-0.11778849
146	0xbdf2dd68	-0.11858636
147	0x3decc588	0.115611136
148	0xbdb415a8	-0.08793193
149	0xbdeffdb0	-0.11718309
150	0xbdf23348	-0.11826187
151	0xbdf33ae6	-0.11876468
152	0xbc439d81	-0.011939407
153	0xbdf0589f	-0.11735653
154	0x3dcc6577	0.099802904
155	0xbdf0a72c	-0.117506355
156	0xbdf5afea	-0.119964436
157	0xbd831bfc	-0.06401822
158	0x3df22eaa	0.11825307
159	0x3df28dcb	0.11843451
160	0x3c0df49c	0.008664276
161	0xbdf07043	-0.11740162
162	0x3d0d6452	0.0345195
163	0x3d2f6075	0.042816598
164	0x3db92ace	0.090413675
165	0x3c73a256	0.014870247
166	0x3df35107	0.11880689
167	0xbc8ec713	-0.01742891
168	0x3df381e2	0.118900076
169	0x3df3740b	0.11887368
170	0x3df08732	0.117445365
171	0xbd83960b	-0.06425103
172	0xbdf07b0a	-0.11742218
173	0xbdf1410a	-0.11779983
174	0x3c23e4c3	0.0100032715
175	0xbdf47ab2	-0.11937465
176	0xbdeeb578	-0.11655706
177	0x3dedde3a	0.11614652
178	0xbcfd72bd	-0.0309385
179	0x3ae6085d	0.00175501
180	0xbdee561a	-0.11637516
181	0xbdf347b6	-0.11878912
182	0x3d4317d3	0.047630142
183	0xbdef76da	-0.11692591
184	0x3c812329	0.015763836
185	0xbdf03145	-0.117281474
186	0x3d87cd42	0.06630947
187	0x3dac477d	0.08412073
188	0x3dee50ef	0.116365306
189	0x3cbe7518	0.023249194
190	0xbdfadfad	-0.12249694
191	0x39fb98ac	0.000479882
192	0x3e207921	0.15671207
193	0xbe25b54c	-0.1618244
194	0xbe2ae4b5	-0.16688807
195	0x3e23b633	0.15987472
196	0x3da70b94	0.08156505
197	0xbd4364af	-0.04770344
198	0x3e161f06	0.14660272
199	0x3e3449e9	0.1760632
200	0x3da75de3	0.08172204
201	0xbb9a954a	-0.0047175037
202	0x3d80f3fc	0.06296536
203	0x3e315dda	0.17320958
204	0xbdc4c9ca	-0.09608801
205	0x3e265793	0.16244344
206	0xbe32b7b5	-0.17452891
207	0xbc7339cd	-0.014845324
208	0x3e1d7f62	0.15380624
209	0xbe341285	-0.1758519
210	0xbe0e4326	-0.13892803
211	0x3e2239a7	0.15842305
212	0xbe1154a4	-0.14192444
213	0xbe2273f0	-0.15864539
214	0xbe186613	-0.14882688
215	0xbe189a53	-0.1490262
216	0xbe4f5e2f	-0.20250772
217	0xbe338c04	-0.1753388
218	0x3e1a6a84	0.15079695
219	0xbe2e892b	-0.17044513
220	0xbe0caa01	-0.13736726
221	0xbdeb6957	-0.11494701
222	0x3e28d8ec	0.16488999
223	0x3e257ca7	0.16160832
224	0xbd45f3bf	-0.048328158
225	0xbe363207	-0.17792521
226	0x3ca957f6	0.020671826
227	0x3e01167f	0.12606238
228	0x3e0a1739	0.13485421
229	0xbd9e33a2	-0.07724692
230	0x3e28418f	0.16431259
231	0xbe07a659	-0.1324705
232	0x3e150a33	0.14554672
233	0x3e2f3daa	0.17113367
234	0x3e355e2a	0.17711702
235	0xbe1087d9	-0.14114322
236	0xbe278c29	-0.1636206
237	0xbe1e1c50	-0.15440488
238	0xbc15867a	-0.0091263
239	0xbe23048a	-0.159197
240	0xbe2f8915	-0.17142136
241	0x3e1699db	0.14707129
242	0xbd3eba24	-0.046564236
243	0xbc87e294	-0.016587533
244	0xbe27a0b3	-0.16369896
245	0xbe1173cf	-0.14204334
246	0x3dad550f	0.08463489
247	0xbe202c2e	-0.15641853
248	0xbd36d8fb	-0.044640522
249	0xbe22f5b2	-0.15914038
250	0x3db00b49	0.085959025
251	0x3e20b1f2	0.15692881
252	0x3e1d8449	0.15382494
253	0xbc805dde	-0.01566976
254	0xbe2340b6	-0.15942654
255	0xbc987a8e	-0.018613126

mdn_layer.sigma.bias f4 [1000]
0	0xbe163fd6	-0.14672789
1	0xbe2f5c15	-0.1712497
2	0xbdecc720	-0.115614176
3	0xbe1dea32	-0.1542137
4	0xbdbc0295	-0.0918018
5	0xbe0c1830	-0.13681102
6	0xbda506ea	-0.080579594
7	0xbe267bce	-0.16258165
8	0xbd9a66c7	-0.075391345
9	0xbe1b8a9e	-0.15189597
10	0xbd92584e	-0.07145749
11	0xbe104c81	-0.14091684
12	0xbd8afb9b	-0.06786271
13	0xbe1617e4	-0.14657551
14	0xbd84b381	-0.0647955
15	0xbe05aacc	-0.13053435
16	0xbd7d033a	-0.061770655
17	0xbe0357ad	-0.12826414
18	0xbd754cb3	-0.0598876
19	0xbdfb5863	-0.12272718
20	0xbd6dbd00	-0.058041573
21	0xbdf4bb0e	-0.1194974
22	0xbd6651b0	-0.056230247
23	0xbdefb115	-0.117036976
24	0xbd634f1c	-0.055495366
25	0xbde23ca9	-0.11046726
26	0xbd5e9636	-0.05434247
27	0xbddb6217	-0.107120685
28	0xbd5a9f55	-0.053374607
29	0xbdd3f7cb	-0.10349997
30	0xbd56c863	-0.052437197
31	0xbdc9f340	-0.098608494
32	0xbd5315a5	-0.051534314
33	0xbdc2d7df	-0.095138304
34	0xbd4f9207	-0.050676372
35	0xbdbc9abe	-0.09209202
36	0xbd4bbc9e	-0.049740426
37	0xbdb53653	-0.08848252
38	0xbd4818e5	-0.048851866
39	0xbdb0eb16	-0.08638589
40	0xbd44b062	-0.048019774
41	0xbdadadff	-0.08480453
42	0xbd418f1f	-0.04725563
43	0xbda8b458	-0.08237523
44	0xbd3ed2cf	-0.04658776
45	0xbda4fa38	-0.08055538
46	0xbd3c38b1	-0.045952503
47	0xbd9f602c	-0.07782015
48	0xbd39918b	-0.045304816
49	0xbd989cb2	-0.07451762
50	0xbe23d052	-0.15997437
51	0xbe3616ef	-0.17782186
52	0xbdf8694a	-0.12129457
53	0xbdfa0d96	-0.122096226
54	0xbdcb6a12	-0.09932341
55	0xbe0ca0a1	-0.1373315
56	0xbd79e89d	-0.061012853
57	0xbe26537b	-0.16242783
58	0xbd3ce634	-0.046117976
59	0xbe239b90	-0.15977311
60	0xbd374555	-0.044743855
61	0xbe124c61	-0.14286949
62	0xbd30326f	-0.043016847
63	0xbe1dc698	-0.15407789
64	0xbd2bc4de	-0.041935794
65	0xbe05eaac	-0.13077801
66	0xbd23beb6	-0.039976798
67	0xbe0574ac	-0.13032788
68	0xbd20a6bc	-0.03922151
69	0xbdfeda9d	-0.12444041
70	0xbd20c304	-0.03924848
71	0xbdf4aebd	-0.11947391
72	0xbd1e6789	-0.038672958
73	0xbde78bd3	-0.11305966
74	0xbd1f5f25	-0.038909096
75	0xbde35dab	-0.1110185
76	0xbd1eb2e9	-0.03874484
77	0xbddc9f4a	-0.107725695
78	0xbd20fcb5	-0.0393035
79	0xbdcc845d	-0.09986184
80	0xbd20f245	-0.039293546
81	0xbdaf96d9	-0.08573694
82	0xbd22aa10	-0.039712965
83	0xbda8b8b3	-0.082383536
84	0xbd26b379	-0.040698502
85	0xbda28cd8	-0.0793702
86	0xbd262bc2	-0.040569074
87	0xbd9f5dfe	-0.077815995
88	0xbd25f2d3	-0.04051478
89	0xbd954485	-0.0728846
90	0xbd264240	-0.040590525
91	0xbda76ac8	-0.08174664
92	0xbd26ce25	-0.04072394
93	0xbda10062	-0.07861401
94	0xbd25a99e	-0.040444963
95	0xbd8b0ae9	-0.0678919
96	0xbd23ad49	-0.03996018
97	0xbd6021f6	-0.054719888
98	0xbd20cc75	-0.039257485
99	0xbd5c1d32	-0.05373878
100	0xbdc51b84	-0.09624389
101	0xbe1eccb0	-0.1550777
102	0xbdd59b9d	-0.104300715
103	0xbe392c49	-0.180833
104	0xbdad8dab	-0.08474287
105	0xbe342e21	-0.17595722
106	0xbdb0497d	-0.08607767
107	0xbe173d00	-0.14769363
108	0xbdb4b092	-0.088227406
109	0xbe19f6bd	-0.1503553
110	0xbdb148de	-0.086564764
111	0xbe1e7626	-0.15474758
112	0xbda6f5ed	-0.08152375
113	0xbe023efc	-0.12719339
114	0xbd9f02de	-0.07764219
115	0xbddf70d2	-0.10910191
116	0xbd9852df	-0.074376814
117	0xbdee8a8b	-0.11647519
118	0xbd935037	-0.07193034
119	0xbde0bd48	-0.109736025
120	0xbd8f191e	-0.069872126
121	0xbdd9fdb7	-0.106440954
122	0xbd8ba643	-0.06818821
123	0xbdde14b3	-0.10843792
124	0xbd8838fe	-0.066514954
125	0xbddac406	-0.1068192
126	0xbd84cbd7	-0.06484192
127	0xbdd292d3	-0.10281911
128	0xbd818cce	-0.063256845
129	0xbdd5f2cf	-0.10446703
130	0xbd7c98f5	-0.06166931
131	0xbdd66cca	-0.104699686
132	0xbd75cb78	-0.060008496
133	0xbdd39ae0	-0.103322744
134	0xbd719f08	-0.058989555
135	0xbdca3a19	-0.098743625
136	0xbd6d54c6	-0.057942174
137	0xbdc6d9b5	-0.09709493
138	0xbd6908da	-0.056893207
139	0xbdbf0896	-0.093278095
140	0xbd655dd0	-0.05599767
141	0xbdbdd247	-0.09268623
142	0xbd623cd8	-0.055233806
143	0xbdbc5270	-0.09195411
144	0xbd5e025a	-0.05420146
145	0xbdb0a560	-0.08625293
146	0xbd5bd46c	-0.05366938
147	0xbdaf42db	-0.085576735
148	0xbd589a50	-0.05288154
149	0xbda89671	-0.082318194
150	0xbd857a03	-0.065174125
151	0xbdcee0ac	-0.101014465
152	0xba4cb642	-0.0007809141
153	0xbddf1095	-0.10891835
154	0xb9bc4e45	-0.0003591647
155	0xbd65d784	-0.056113735
156	0xb9f36676	-0.0004642491
157	0xbddf8021	-0.109131105
158	0xb9386c2c	-0.00017587905
159	0xbe00307e	-0.12518498
160	0xb93aadf4	-0.00017803145
161	0xbdb8aa65	-0.09016875
162	0xb916f480	-0.00014396198
163	0xbd962ff8	-0.07333368
164	0xb90e5adf	-0.00013576027
165	0xbda8f3e9	-0.08249647
166	0xb8f084c9	-0.00011468825
167	0xb9012831	-0.00012317371
168	0xb8cda248	-9.805389e-05
169	0xbd0a2ba7	-0.033733036
170	0xb8b92550	-8.8284374e-05
171	0xbb4fd0b8	-0.00317101
172	0xb89ab127	-7.3762894e-05
173	0xbca36c83	-0.019949203
174	0xb8830e0e	-6.249185e-05
175	0xbc5919d2	-0.013250785
176	0xb860b3e5	-5.35733e-05
177	0xbd036d32	-0.03208656
178	0xb83ec6a0	-4.5484514e-05
179	0xbccb8315	-0.024842778
180	0xb826b43c	-3.974534e-05
181	0xbcb25b7b	-0.021772137
182	0xb80de2a8	-3.382811e-05
183	0xbc2d5b86	-0.010580903
184	0xb7fc9d5c	-3.0114017e-05
185	0xbc9c57df	-0.019084869
186	0xb7e6bf26	-2.7507147e-05
187	0xbcab378e	-0.020900514
188	0xb7d2c9ee	-2.5127982e-05
189	0xbc624890	-0.013811246
190	0xb7b69f2b	-2.1770209e-05
191	0xbc9b321b	-0.01894479
192	0xb7a24cab	-1.9347606e-05
193	0xbc5c9aeb	-0.01346467
194	0xb7927ffd	-1.7464155e-05
195	0xbc968d7b	-0.01837801
196	0xb77aa8ab	-1.4940432e-05
197	0xbc5d177e	-0.0134943705
198	0xb76e047b	-1.4186949e-05
199	0xbc443bce	-0.011977149
200	0xbe29415c	-0.16528839
201	0xbe541128	-0.2070967
202	0xbe11c3a2	-0.14234784
203	0xbe5fd38a	-0.2185804
204	0xbe002857	-0.12515388
205	0xbe45da73	-0.19321613
206	0xbde4343b	-0.11142775
207	0xbe3f5e6f	-0.18688367
208	0xbdcf11f1	-0.10110844
209	0xbe403981	-0.18771936
210	0xbdc6649b	-0.09687158
211	0xbe21b7b0	-0.15792727
212	0xbdbf7fe2	-0.093505636
213	0xbe2ac97e	-0.16678426
214	0xbdb979ab	-0.090564094
215	0xbe253177	-0.1613215
216	0xbdb52356	-0.088446304
217	0xbe27077e	-0.16311452
218	0xbdb23505	-0.08701519
219	0xbe1f8460	-0.15577841
220	0xbdaf9f28	-0.085752785
221	0xbe1d2c6c	-0.15348977
222	0xbdadad04	-0.08480266
223	0xbe18a5ea	-0.14907041
224	0xbdabbb9f	-0.08385395
225	0xbe156f8e	-0.14593336
226	0xbdaa1f0b	-0.08306702
227	0xbe12a91a	-0.1432232
228	0xbda8103e	-0.08206223
229	0xbe103141	-0.14081289
230	0xbda5b4c6	-0.080911204
231	0xbe0d55b3	-0.13802223
232	0xbda3353a	-0.079691365
233	0xbe0ac14e	-0.13550302
234	0xbda0c841	-0.078506954
235	0xbe08d57f	-0.13362692
236	0xbd9e4a98	-0.077290714
237	0xbe064f6a	-0.13116232
238	0xbd9be542	-0.07612087
239	0xbe049c78	-0.12950313
240	0xbd9989e3	-0.07497003
241	0xbe019cf8	-0.12657535
242	0xbd971e66	-0.07378845
243	0xbdff4bf9	-0.124656625
244	0xbd94abc4	-0.07259324
245	0xbdfa50bd	-0.12222431
246	0xbd921fb6	-0.07134955
247	0xbdf4bf68	-0.1195057
248	0xbd8f6305	-0.07001308
249	0xbdf1e287	-0.11810785
250	0xbe07165a	-0.1319212
251	0xbe18e684	-0.14931685
252	0xbddd4b8a	-0.108054236
253	0xbe2210eb	-0.15826766
254	0xbde7c6d4	-0.1131722
255	0xbe0b23e2	-0.13587907

mdn_layer.mu.weight f4 [1000, 64]
0	0xbc71db66	-0.014761781
1	0x3bd1d362	0.0064033726
2	0xbbe7514f	-0.0070592533
3	0x3c5e42de	0.013565747
4	0x3bc21ca5	0.005923825
5	0xbc490615	-0.0122695165
6	0xbb9db295	-0.0048125484
7	0xbc91ecfc	-0.017813198
8	0xbb3ec56b	-0.002910937
9	0xbbd58990	-0.006516643
10	0xbc39e6a4	-0.011346493
11	0x3c71dd29	0.014762201
12	0xbb299396	-0.0025875322
13	0x3b997cff	0.00468409
14	0xbb396f6d	-0.0028295175
15	0x3d408ffb	0.04701231
16	0x3bd74b2a	0.0065702396
17	0x3bd8d304	0.006616952
18	0xbc2044fc	-0.009782072
19	0xbb81e242	-0.0039637396
20	0x3c6300b1	0.013855145
21	0xbb52f64c	-0.0032190261
22	0x3c2014eb	0.009770612
23	0xbba6d15b	-0.005090875
24	0xbcb1c6d7	-0.02170126
25	0xbb6b566d	-0.0035909668
26	0x3ceec216	0.029145282
27	0xbbe75f9d	-0.0070609585
28	0xbc8fee3b	-0.017569652
29	0x3c428ece	0.011874868
30	0xbcb8f453	-0.02257744
31	0x3b4832a3	0.003054776
32	0x3c371cf7	0.011176339
33	0xbb800064	-0.0039062966
34	0x3c3450f1	0.011005626
35	0xbb23da18	-0.002500182
36	0xbb5448a9	-0.0032391942
37	0x3c41ced7	0.0118291
38	0x3cb60d67	0.022223188
39	0x3c320921	0.010866434
40	0x3b81ec12	0.0039649094
41	0x3840272d	4.5812852e-05
42	0xbc226c64	-0.009913538
43	0x3ca80e3f	0.020514606
44	0xbb68e9ad	-0.0035539672
45	0xbb15e25e	-0.002287052
46	0x3c40466b	0.011735539
47	0xbb8b9306	-0.00425947
48	0x3c1303b7	0.008973054
49	0x3ad46f94	0.0016207569
50	0x3c30a920	0.01078251
51	0x3c5fa42a	0.01364998
52	0x3c78be84	0.015182141
53	0x3a4f82ed	0.0007915933
54	0x3bd8cb02	0.0066159973
55	0x3c02f27c	0.007992383
56	0xbc9ce494	-0.019151963
57	0xbc051de0	-0.008124799
58	0xbbdaba63	-0.006675051
59	0xbbf06de2	-0.007337318
60	0xbae6bf05	-0.0017604536
61	0xbc87bbce	-0.016569044
62	0xb95b77c7	-0.00020930088
63	0xbc3b030e	-0.0114143025
64	0xbbc5738b	-0.0060257367
65	0xbbfb4c30	-0.0076689944
66	0xbc5d7a1c	-0.013517883
67	0xbce9efbf	-0.028556703
68	0xbb7a6778	-0.0038208645
69	0x3aeefd4a	0.0018233445
70	0xbb9f2506	-0.0048567085
71	0x3b3eb9d6	0.0029102466
72	0x3a70dac9	0.0009187875
73	0xbc501676	-0.012700668
74	0xbbfddba0	-0.0077471286
75	0xbbf0961e	-0.007342114
76	0xbb95e9e0	-0.004574999
77	0x3a6f0502	0.00091178727
78	0xbc01da8b	-0.00792564
79	0xbc2becb9	-0.010493451
80	0x3c885304	0.016641147
81	0xbc112564	-0.008859012
82	0xbcb0c1cf	-0.02157679
83	0x3b9cd57d	0.004786192
84	0xbc8340ba	-0.016022075
85	0xbcbfb85f	-0.023403345
86	0xbc9f0c61	-0.019415082
87	0xbba121c6	-0.004917356
88	0xbc72c14e	-0.014816595
89	0x3ca8a3b6	0.020585876
90	0x3c3972f5	0.011318912
91	0x3b97fdbc	0.004638402
92	0xbc52641b	-0.01284125
93	0xbbf232df	-0.007391318
94	0xbbf5e236	-0.007503773
95	0xbc9b427c	-0.0189526
96	0xbc8353fb	-0.016031256
97	0xbbf7a36c	-0.007557323
98	0xb9c22263	-0.00037028184
99	0xbcb24c26	-0.021764826
100	0xbc5df50a	-0.013547191
101	0xbb3c2714	-0.0028709816
102	0xbc84b0cb	-0.016197583
103	0xbbab25b6	-0.0052230014
104	0x3c64e7a1	0.01397124
105	0x3c85d40d	0.016336465
106	0x3b68efc3	0.00355433
107	0x3bdd317f	0.006750285
108	0xbbb5ad4c	-0.0055443402
109	0xbb121f4c	-0.0022296486
110	0xbbd43299	-0.0064757583
111	0x3cb29291	0.021798404
112	0x3b275d9e	0.0025537978
113	0x3bd4d89d	0.006495549
114	0xbc106fd2	-0.008815723
115	0xbb3987e5	-0.002830976
116	0x3b0f0b1d	0.0021826692
117	0xbadfd6e0	-0.0017077588
118	0x3a9f94bf	0.0012175067
119	0x3c98a5cc	0.018633746
120	0xbc97f611	-0.01854995
121	0xbc15c2ca	-0.00914068
122	0x3b45794d	0.0030132115
123	0x3bb49d55	0.0055119195
124	0xbc9a6a2d	-0.018849457
125	0xbc1a9023	-0.009433779
126	0x3bd8d3a6	0.0066170273
127	0xbb8ed85a	-0.004359287
128	0xbcabc404	-0.020967491
129	0x3b910f5f	0.004426881
130	0x3c597010	0.013271347
131	0x3cf608ba	0.030033458
132	0x3c9b5f39	0.018966304
133	0xbcc00aee	-0.023442712
134	0x3c1fda7b	0.00975668
135	0xbc471fa7	-0.012153543
136	0x3c1c4750	0.009538487
137	0xbc2e61e9	-0.010643461
138	0x3b346135	0.002752376
139	0xbba55949	-0.005046044
140	0xbc40ba9e	-0.011763243
141	0x3c6e13d3	0.014531094
142	0x3d14dab8	0.0363414
143	0x3d9a35ea	0.075298145
144	0xbb9348a7	-0.004494745
145	0x3aa56385	0.001261816
146	0xbd03899e	-0.032113664
147	0xbb5f5cc7	-0.00340824
148	0x3c152d05	0.009104972
149	0xb9a30b15	-0.0003109804
150	0xbb813d25	-0.0039440566
151	0xbc911d17	-0.017714066
152	0xbd5b51cd	-0.05354481
153	0x3bc8090f	0.0061045955
154	0x3c879ec2	0.016555194
155	0x3c5d1db8	0.013495855
156	0xba7bdf35	-0.00096081506
157	0x3c6833ba	0.014172489
158	0x3bd2cf70	0.00643342
159	0x3c4af032	0.012386369
160	0x3c91c752	0.017795239
161	0x3b115085	0.0022173238
162	0x3c29d8fa	0.010366673
163	0x3a9052c0	0.001101099
164	0xbcc96862	-0.024585906
165	0x3d3f2c7b	0.04667328
166	0xbbedf302	-0.007261635
167	0x3cbcc689	0.023043888
168	0x3bf0b446	0.007345709
169	0xbb3d4d12	-0.0028885049
170	0x3cb3c2c3	0.021943456
171	0xbccfe1ec	-0.025376283
172	0xb907957a	-0.00012930288
173	0xbbf037a5	-0.007330852
174	0x3bf53cb6	0.007484044
175	0xb98e47bf	-0.00027137806
176	0x3bc25e94	0.0059316847
177	0xbbe47e89	-0.006973092
178	0x3bd43c9a	0.006476951
179	0x3d16de50	0.036833107
180	0xbceb47a1	-0.028720679
181	0xbc48be57	-0.012252412
182	0x3be6cf52	0.0070437575
183	0x3a7188f1	0.0009213826
184	0xbce12805	-0.027484903
185	0x3c0b75dd	0.0085119875
186	0xbcc9ba06	-0.024624836
187	0xbd00829d	-0.031374563
188	0xbca7cc9c	-0.020483308
189	0xbd0796ba	-0.03310273
190	0xbc434a1e	-0.011919526
191	0xbbefada3	-0.0073144003
192	0xbc597262	-0.0132719
193	0x3c741071	0.014896498
194	0x3c18f627	0.009336031
195	0x3cceeb36	0.025258642
196	0xbbdb03c9	-0.006683801
197	0x3bfe3f5f	0.0077590193
198	0xbc9699be	-0.018383857
199	0x3c55d890	0.013052121
200	0xbc6be555	-0.014397939
201	0xbba7407f	-0.005104124
202	0xbc2707f2	-0.010194765
203	0x3a632095	0.0008664218
204	0x3c19094c	0.009340595
205	0xbc801c6a	-0.015638549
206	0x3bdbbf09	0.006706123
207	0xbd06f9bb	-0.032953005
208	0x3ab2510c	0.0013604476
209	0xba784987	-0.00094714056
210	0xbc9e26aa	-0.019305546
211	0x3b4b5307	0.003102483
212	0xbc8a168a	-0.01685645
213	0xbb7a44b5	-0.0038187925
214	0x3c09d069	0.008411505
215	0x3c120e6c	0.008914571
216	0xbcbd4f5a	-0.023109127
217	0xbc34cf28	-0.011035718
218	0xbbf6c512	-0.007530817
219	0xbab6df37	-0.0013952021
220	0x3a711109	0.0009195959
221	0x3c93d531	0.018045994
222	0x3be33544	0.00693384
223	0xbc99764a	-0.018733162
224	0xbca38e8d	-0.019965434
225	0xbc0bed2f	-0.008540436
226	0xbb02ce4a	-0.0019959384
227	0x3ccbe33a	0.024888624
228	0x3cbada9e	0.022809323
229	0x3b993374	0.004675323
230	0xbc56ce6a	-0.013110736
231	0x3bbe1d64	0.0058018435
232	0xbba4e7df	-0.005032524
233	0x3cbca951	0.023029955
234	0xbc68d6b9	-0.01421135
235	0xbcd34d60	-0.025793731
236	0xbb360ff3	-0.0027780503
237	0x3bb6cd3b	0.0055786646
238	0xbc9457ff	-0.018108366
239	0xbcc756f8	-0.024333462
240	0xbcb9e489	-0.022691982
241	0xbb224a2a	-0.0024763444
242	0x3c3bd722	0.011464866
243	0xbc2db159	-0.010601365
244	0xbd29f7e5	-0.041496176
245	0xbbcae132	-0.006191396
246	0x3c10d561	0.008839936
247	0xba52fe1d	-0.000804873
248	0xbccd7be2	-0.025083486
249	0xbc6d0cb3	-0.01446836
250	0x3b0c0a3e	0.002136841
251	0x3bb13e06	0.005409005
252	0x3c503d72	0.012709962
253	0xbc7b96ae	-0.015355749
254	0x3b7aa7ab	0.003824691
255	0xbd02d736	-0.031943522
